{"format": "graph-model", "generatedBy": "1.13.1", "convertedBy": "TensorFlow.js Converter v1.3.2", "userDefinedMetadata": {"signature": {"inputs": {"input_1:0": {"name": "input_1:0", "dtype": "DT_FLOAT", "tensorShape": {"dim": [{"size": "-1"}, {"size": "224"}, {"size": "224"}, {"size": "3"}]}}}, "outputs": {"dense_1/Softmax:0": {"name": "dense_1/Softmax:0", "dtype": "DT_FLOAT", "tensorShape": {"dim": [{"size": "-1"}, {"size": "8"}]}}}}}, "modelTopology": {"node": [{"name": "input_1", "op": "Placeholder", "attr": {"shape": {"shape": {"dim": [{"size": "-1"}, {"size": "224"}, {"size": "224"}, {"size": "3"}]}}, "dtype": {"type": "DT_FLOAT"}}}, {"name": "flatten_1/stack/0", "op": "Const", "attr": {"value": {"tensor": {"dtype": "DT_INT32", "tensorShape": {}}}, "dtype": {"type": "DT_INT32"}}}, {"name": "conv1_pad/Pad/paddings", "op": "Const", "attr": {"value": {"tensor": {"dtype": "DT_INT32", "tensorShape": {"dim": [{"size": "4"}, {"size": "2"}]}}}, "dtype": {"type": "DT_INT32"}}}, {"name": "conv1/kernel", "op": "Const", "attr": {"value": {"tensor": {"dtype": "DT_FLOAT", "tensorShape": {"dim": [{"size": "7"}, {"size": "7"}, {"size": "3"}, {"size": "64"}]}}}, "dtype": {"type": "DT_FLOAT"}}}, {"name": "conv1/bias", "op": "Const", "attr": {"value": {"tensor": {"dtype": "DT_FLOAT", "tensorShape": {"dim": [{"size": "64"}]}}}, "dtype": {"type": "DT_FLOAT"}}}, {"name": "bn_conv1/keras_learning_phase/input", "op": "Const", "attr": {"value": {"tensor": {"dtype": "DT_BOOL", "tensorShape": {}}}, "dtype": {"type": "DT_BOOL"}}}, {"name": "bn4e_branch2c/moving_mean", "op": "Const", "attr": {"value": {"tensor": {"dtype": "DT_FLOAT", "tensorShape": {"dim": [{"size": "1024"}]}}}, "dtype": {"type": "DT_FLOAT"}}}, {"name": "bn5c_branch2a/moving_mean", "op": "Const", "attr": {"value": {"tensor": {"dtype": "DT_FLOAT", "tensorShape": {"dim": [{"size": "512"}]}}}, "dtype": {"type": "DT_FLOAT"}}}, {"name": "bn4e_branch2c/moving_variance", "op": "Const", "attr": {"value": {"tensor": {"dtype": "DT_FLOAT", "tensorShape": {"dim": [{"size": "1024"}]}}}, "dtype": {"type": "DT_FLOAT"}}}, {"name": "bn4e_branch2c/Const_4", "op": "Const", "attr": {"value": {"tensor": {"dtype": "DT_FLOAT", "tensorShape": {"dim": [{}]}}}, "dtype": {"type": "DT_FLOAT"}}}, {"name": "res4f_branch2a/kernel", "op": "Const", "attr": {"value": {"tensor": {"dtype": "DT_FLOAT", "tensorShape": {"dim": [{"size": "1"}, {"size": "1"}, {"size": "1024"}, {"size": "256"}]}}}, "dtype": {"type": "DT_FLOAT"}}}, {"name": "bn5c_branch2a/moving_variance", "op": "Const", "attr": {"value": {"tensor": {"dtype": "DT_FLOAT", "tensorShape": {"dim": [{"size": "512"}]}}}, "dtype": {"type": "DT_FLOAT"}}}, {"name": "bn4f_branch2a/gamma", "op": "Const", "attr": {"value": {"tensor": {"dtype": "DT_FLOAT", "tensorShape": {"dim": [{"size": "256"}]}}}, "dtype": {"type": "DT_FLOAT"}}}, {"name": "flatten_1/strided_slice/stack", "op": "Const", "attr": {"value": {"tensor": {"dtype": "DT_INT32", "tensorShape": {"dim": [{"size": "1"}]}}}, "dtype": {"type": "DT_INT32"}}}, {"name": "bn4f_branch2a/beta", "op": "Const", "attr": {"value": {"tensor": {"dtype": "DT_FLOAT", "tensorShape": {"dim": [{"size": "256"}]}}}, "dtype": {"type": "DT_FLOAT"}}}, {"name": "bn4f_branch2a/moving_mean", "op": "Const", "attr": {"value": {"tensor": {"dtype": "DT_FLOAT", "tensorShape": {"dim": [{"size": "256"}]}}}, "dtype": {"type": "DT_FLOAT"}}}, {"name": "bn4f_branch2a/moving_variance", "op": "Const", "attr": {"value": {"tensor": {"dtype": "DT_FLOAT", "tensorShape": {"dim": [{"size": "256"}]}}}, "dtype": {"type": "DT_FLOAT"}}}, {"name": "res4f_branch2b/kernel", "op": "Const", "attr": {"value": {"tensor": {"dtype": "DT_FLOAT", "tensorShape": {"dim": [{"size": "3"}, {"size": "3"}, {"size": "256"}, {"size": "256"}]}}}, "dtype": {"type": "DT_FLOAT"}}}, {"name": "bn4f_branch2b/gamma", "op": "Const", "attr": {"value": {"tensor": {"dtype": "DT_FLOAT", "tensorShape": {"dim": [{"size": "256"}]}}}, "dtype": {"type": "DT_FLOAT"}}}, {"name": "bn4f_branch2b/beta", "op": "Const", "attr": {"value": {"tensor": {"dtype": "DT_FLOAT", "tensorShape": {"dim": [{"size": "256"}]}}}, "dtype": {"type": "DT_FLOAT"}}}, {"name": "bn_conv1/gamma", "op": "Const", "attr": {"value": {"tensor": {"dtype": "DT_FLOAT", "tensorShape": {"dim": [{"size": "64"}]}}}, "dtype": {"type": "DT_FLOAT"}}}, {"name": "bn4f_branch2b/moving_mean", "op": "Const", "attr": {"value": {"tensor": {"dtype": "DT_FLOAT", "tensorShape": {"dim": [{"size": "256"}]}}}, "dtype": {"type": "DT_FLOAT"}}}, {"name": "bn_conv1/beta", "op": "Const", "attr": {"value": {"tensor": {"dtype": "DT_FLOAT", "tensorShape": {"dim": [{"size": "64"}]}}}, "dtype": {"type": "DT_FLOAT"}}}, {"name": "bn_conv1/moving_mean", "op": "Const", "attr": {"value": {"tensor": {"dtype": "DT_FLOAT", "tensorShape": {"dim": [{"size": "64"}]}}}, "dtype": {"type": "DT_FLOAT"}}}, {"name": "bn_conv1/moving_variance", "op": "Const", "attr": {"value": {"tensor": {"dtype": "DT_FLOAT", "tensorShape": {"dim": [{"size": "64"}]}}}, "dtype": {"type": "DT_FLOAT"}}}, {"name": "bn4f_branch2b/moving_variance", "op": "Const", "attr": {"value": {"tensor": {"dtype": "DT_FLOAT", "tensorShape": {"dim": [{"size": "256"}]}}}, "dtype": {"type": "DT_FLOAT"}}}, {"name": "pool1_pad/Pad/paddings", "op": "Const", "attr": {"value": {"tensor": {"dtype": "DT_INT32", "tensorShape": {"dim": [{"size": "4"}, {"size": "2"}]}}}, "dtype": {"type": "DT_INT32"}}}, {"name": "res2a_branch2a/kernel", "op": "Const", "attr": {"value": {"tensor": {"dtype": "DT_FLOAT", "tensorShape": {"dim": [{"size": "1"}, {"size": "1"}, {"size": "64"}, {"size": "64"}]}}}, "dtype": {"type": "DT_FLOAT"}}}, {"name": "res5c_branch2b/kernel", "op": "Const", "attr": {"value": {"tensor": {"dtype": "DT_FLOAT", "tensorShape": {"dim": [{"size": "3"}, {"size": "3"}, {"size": "512"}, {"size": "512"}]}}}, "dtype": {"type": "DT_FLOAT"}}}, {"name": "bn2a_branch2a/gamma", "op": "Const", "attr": {"value": {"tensor": {"dtype": "DT_FLOAT", "tensorShape": {"dim": [{"size": "64"}]}}}, "dtype": {"type": "DT_FLOAT"}}}, {"name": "bn2a_branch2a/beta", "op": "Const", "attr": {"value": {"tensor": {"dtype": "DT_FLOAT", "tensorShape": {"dim": [{"size": "64"}]}}}, "dtype": {"type": "DT_FLOAT"}}}, {"name": "bn2a_branch2a/moving_mean", "op": "Const", "attr": {"value": {"tensor": {"dtype": "DT_FLOAT", "tensorShape": {"dim": [{"size": "64"}]}}}, "dtype": {"type": "DT_FLOAT"}}}, {"name": "bn2a_branch2a/moving_variance", "op": "Const", "attr": {"value": {"tensor": {"dtype": "DT_FLOAT", "tensorShape": {"dim": [{"size": "64"}]}}}, "dtype": {"type": "DT_FLOAT"}}}, {"name": "res2a_branch2b/kernel", "op": "Const", "attr": {"value": {"tensor": {"dtype": "DT_FLOAT", "tensorShape": {"dim": [{"size": "3"}, {"size": "3"}, {"size": "64"}, {"size": "64"}]}}}, "dtype": {"type": "DT_FLOAT"}}}, {"name": "bn2a_branch2b/gamma", "op": "Const", "attr": {"value": {"tensor": {"dtype": "DT_FLOAT", "tensorShape": {"dim": [{"size": "64"}]}}}, "dtype": {"type": "DT_FLOAT"}}}, {"name": "bn2a_branch2b/beta", "op": "Const", "attr": {"value": {"tensor": {"dtype": "DT_FLOAT", "tensorShape": {"dim": [{"size": "64"}]}}}, "dtype": {"type": "DT_FLOAT"}}}, {"name": "res4f_branch2c/kernel", "op": "Const", "attr": {"value": {"tensor": {"dtype": "DT_FLOAT", "tensorShape": {"dim": [{"size": "1"}, {"size": "1"}, {"size": "256"}, {"size": "1024"}]}}}, "dtype": {"type": "DT_FLOAT"}}}, {"name": "bn2a_branch2b/moving_mean", "op": "Const", "attr": {"value": {"tensor": {"dtype": "DT_FLOAT", "tensorShape": {"dim": [{"size": "64"}]}}}, "dtype": {"type": "DT_FLOAT"}}}, {"name": "flatten_1/strided_slice/stack_1", "op": "Const", "attr": {"value": {"tensor": {"dtype": "DT_INT32", "tensorShape": {"dim": [{"size": "1"}]}}}, "dtype": {"type": "DT_INT32"}}}, {"name": "bn2a_branch2b/moving_variance", "op": "Const", "attr": {"value": {"tensor": {"dtype": "DT_FLOAT", "tensorShape": {"dim": [{"size": "64"}]}}}, "dtype": {"type": "DT_FLOAT"}}}, {"name": "res2a_branch2c/kernel", "op": "Const", "attr": {"value": {"tensor": {"dtype": "DT_FLOAT", "tensorShape": {"dim": [{"size": "1"}, {"size": "1"}, {"size": "64"}, {"size": "256"}]}}}, "dtype": {"type": "DT_FLOAT"}}}, {"name": "bn2a_branch2c/gamma", "op": "Const", "attr": {"value": {"tensor": {"dtype": "DT_FLOAT", "tensorShape": {"dim": [{"size": "256"}]}}}, "dtype": {"type": "DT_FLOAT"}}}, {"name": "bn2a_branch2c/beta", "op": "Const", "attr": {"value": {"tensor": {"dtype": "DT_FLOAT", "tensorShape": {"dim": [{"size": "256"}]}}}, "dtype": {"type": "DT_FLOAT"}}}, {"name": "bn2a_branch2c/moving_mean", "op": "Const", "attr": {"value": {"tensor": {"dtype": "DT_FLOAT", "tensorShape": {"dim": [{"size": "256"}]}}}, "dtype": {"type": "DT_FLOAT"}}}, {"name": "bn4f_branch2c/gamma", "op": "Const", "attr": {"value": {"tensor": {"dtype": "DT_FLOAT", "tensorShape": {"dim": [{"size": "1024"}]}}}, "dtype": {"type": "DT_FLOAT"}}}, {"name": "bn2a_branch2c/moving_variance", "op": "Const", "attr": {"value": {"tensor": {"dtype": "DT_FLOAT", "tensorShape": {"dim": [{"size": "256"}]}}}, "dtype": {"type": "DT_FLOAT"}}}, {"name": "res2a_branch1/kernel", "op": "Const", "attr": {"value": {"tensor": {"dtype": "DT_FLOAT", "tensorShape": {"dim": [{"size": "1"}, {"size": "1"}, {"size": "64"}, {"size": "256"}]}}}, "dtype": {"type": "DT_FLOAT"}}}, {"name": "bn4f_branch2c/beta", "op": "Const", "attr": {"value": {"tensor": {"dtype": "DT_FLOAT", "tensorShape": {"dim": [{"size": "1024"}]}}}, "dtype": {"type": "DT_FLOAT"}}}, {"name": "bn2a_branch1/gamma", "op": "Const", "attr": {"value": {"tensor": {"dtype": "DT_FLOAT", "tensorShape": {"dim": [{"size": "256"}]}}}, "dtype": {"type": "DT_FLOAT"}}}, {"name": "bn2a_branch1/moving_mean", "op": "Const", "attr": {"value": {"tensor": {"dtype": "DT_FLOAT", "tensorShape": {"dim": [{"size": "256"}]}}}, "dtype": {"type": "DT_FLOAT"}}}, {"name": "bn4f_branch2c/moving_mean", "op": "Const", "attr": {"value": {"tensor": {"dtype": "DT_FLOAT", "tensorShape": {"dim": [{"size": "1024"}]}}}, "dtype": {"type": "DT_FLOAT"}}}, {"name": "bn2a_branch1/moving_variance", "op": "Const", "attr": {"value": {"tensor": {"dtype": "DT_FLOAT", "tensorShape": {"dim": [{"size": "256"}]}}}, "dtype": {"type": "DT_FLOAT"}}}, {"name": "res2b_branch2a/kernel", "op": "Const", "attr": {"value": {"tensor": {"dtype": "DT_FLOAT", "tensorShape": {"dim": [{"size": "1"}, {"size": "1"}, {"size": "256"}, {"size": "64"}]}}}, "dtype": {"type": "DT_FLOAT"}}}, {"name": "bn4f_branch2c/moving_variance", "op": "Const", "attr": {"value": {"tensor": {"dtype": "DT_FLOAT", "tensorShape": {"dim": [{"size": "1024"}]}}}, "dtype": {"type": "DT_FLOAT"}}}, {"name": "bn2b_branch2a/gamma", "op": "Const", "attr": {"value": {"tensor": {"dtype": "DT_FLOAT", "tensorShape": {"dim": [{"size": "64"}]}}}, "dtype": {"type": "DT_FLOAT"}}}, {"name": "bn2b_branch2a/beta", "op": "Const", "attr": {"value": {"tensor": {"dtype": "DT_FLOAT", "tensorShape": {"dim": [{"size": "64"}]}}}, "dtype": {"type": "DT_FLOAT"}}}, {"name": "bn2b_branch2a/moving_mean", "op": "Const", "attr": {"value": {"tensor": {"dtype": "DT_FLOAT", "tensorShape": {"dim": [{"size": "64"}]}}}, "dtype": {"type": "DT_FLOAT"}}}, {"name": "bn2b_branch2a/moving_variance", "op": "Const", "attr": {"value": {"tensor": {"dtype": "DT_FLOAT", "tensorShape": {"dim": [{"size": "64"}]}}}, "dtype": {"type": "DT_FLOAT"}}}, {"name": "res2b_branch2b/kernel", "op": "Const", "attr": {"value": {"tensor": {"dtype": "DT_FLOAT", "tensorShape": {"dim": [{"size": "3"}, {"size": "3"}, {"size": "64"}, {"size": "64"}]}}}, "dtype": {"type": "DT_FLOAT"}}}, {"name": "bn2b_branch2b/gamma", "op": "Const", "attr": {"value": {"tensor": {"dtype": "DT_FLOAT", "tensorShape": {"dim": [{"size": "64"}]}}}, "dtype": {"type": "DT_FLOAT"}}}, {"name": "bn2b_branch2b/beta", "op": "Const", "attr": {"value": {"tensor": {"dtype": "DT_FLOAT", "tensorShape": {"dim": [{"size": "64"}]}}}, "dtype": {"type": "DT_FLOAT"}}}, {"name": "bn2b_branch2b/moving_mean", "op": "Const", "attr": {"value": {"tensor": {"dtype": "DT_FLOAT", "tensorShape": {"dim": [{"size": "64"}]}}}, "dtype": {"type": "DT_FLOAT"}}}, {"name": "bn2b_branch2b/moving_variance", "op": "Const", "attr": {"value": {"tensor": {"dtype": "DT_FLOAT", "tensorShape": {"dim": [{"size": "64"}]}}}, "dtype": {"type": "DT_FLOAT"}}}, {"name": "res2b_branch2c/kernel", "op": "Const", "attr": {"value": {"tensor": {"dtype": "DT_FLOAT", "tensorShape": {"dim": [{"size": "1"}, {"size": "1"}, {"size": "64"}, {"size": "256"}]}}}, "dtype": {"type": "DT_FLOAT"}}}, {"name": "res5a_branch2a/kernel", "op": "Const", "attr": {"value": {"tensor": {"dtype": "DT_FLOAT", "tensorShape": {"dim": [{"size": "1"}, {"size": "1"}, {"size": "1024"}, {"size": "512"}]}}}, "dtype": {"type": "DT_FLOAT"}}}, {"name": "bn5c_branch2b/gamma", "op": "Const", "attr": {"value": {"tensor": {"dtype": "DT_FLOAT", "tensorShape": {"dim": [{"size": "512"}]}}}, "dtype": {"type": "DT_FLOAT"}}}, {"name": "bn2b_branch2c/gamma", "op": "Const", "attr": {"value": {"tensor": {"dtype": "DT_FLOAT", "tensorShape": {"dim": [{"size": "256"}]}}}, "dtype": {"type": "DT_FLOAT"}}}, {"name": "bn2b_branch2c/beta", "op": "Const", "attr": {"value": {"tensor": {"dtype": "DT_FLOAT", "tensorShape": {"dim": [{"size": "256"}]}}}, "dtype": {"type": "DT_FLOAT"}}}, {"name": "bn2b_branch2c/moving_mean", "op": "Const", "attr": {"value": {"tensor": {"dtype": "DT_FLOAT", "tensorShape": {"dim": [{"size": "256"}]}}}, "dtype": {"type": "DT_FLOAT"}}}, {"name": "bn2b_branch2c/moving_variance", "op": "Const", "attr": {"value": {"tensor": {"dtype": "DT_FLOAT", "tensorShape": {"dim": [{"size": "256"}]}}}, "dtype": {"type": "DT_FLOAT"}}}, {"name": "res2c_branch2a/kernel", "op": "Const", "attr": {"value": {"tensor": {"dtype": "DT_FLOAT", "tensorShape": {"dim": [{"size": "1"}, {"size": "1"}, {"size": "256"}, {"size": "64"}]}}}, "dtype": {"type": "DT_FLOAT"}}}, {"name": "bn5a_branch2a/gamma", "op": "Const", "attr": {"value": {"tensor": {"dtype": "DT_FLOAT", "tensorShape": {"dim": [{"size": "512"}]}}}, "dtype": {"type": "DT_FLOAT"}}}, {"name": "bn2c_branch2a/gamma", "op": "Const", "attr": {"value": {"tensor": {"dtype": "DT_FLOAT", "tensorShape": {"dim": [{"size": "64"}]}}}, "dtype": {"type": "DT_FLOAT"}}}, {"name": "bn2c_branch2a/beta", "op": "Const", "attr": {"value": {"tensor": {"dtype": "DT_FLOAT", "tensorShape": {"dim": [{"size": "64"}]}}}, "dtype": {"type": "DT_FLOAT"}}}, {"name": "bn2c_branch2a/moving_mean", "op": "Const", "attr": {"value": {"tensor": {"dtype": "DT_FLOAT", "tensorShape": {"dim": [{"size": "64"}]}}}, "dtype": {"type": "DT_FLOAT"}}}, {"name": "bn5a_branch2a/beta", "op": "Const", "attr": {"value": {"tensor": {"dtype": "DT_FLOAT", "tensorShape": {"dim": [{"size": "512"}]}}}, "dtype": {"type": "DT_FLOAT"}}}, {"name": "bn2c_branch2a/moving_variance", "op": "Const", "attr": {"value": {"tensor": {"dtype": "DT_FLOAT", "tensorShape": {"dim": [{"size": "64"}]}}}, "dtype": {"type": "DT_FLOAT"}}}, {"name": "bn5c_branch2b/beta", "op": "Const", "attr": {"value": {"tensor": {"dtype": "DT_FLOAT", "tensorShape": {"dim": [{"size": "512"}]}}}, "dtype": {"type": "DT_FLOAT"}}}, {"name": "res2c_branch2b/kernel", "op": "Const", "attr": {"value": {"tensor": {"dtype": "DT_FLOAT", "tensorShape": {"dim": [{"size": "3"}, {"size": "3"}, {"size": "64"}, {"size": "64"}]}}}, "dtype": {"type": "DT_FLOAT"}}}, {"name": "bn5a_branch2a/moving_mean", "op": "Const", "attr": {"value": {"tensor": {"dtype": "DT_FLOAT", "tensorShape": {"dim": [{"size": "512"}]}}}, "dtype": {"type": "DT_FLOAT"}}}, {"name": "bn2c_branch2b/gamma", "op": "Const", "attr": {"value": {"tensor": {"dtype": "DT_FLOAT", "tensorShape": {"dim": [{"size": "64"}]}}}, "dtype": {"type": "DT_FLOAT"}}}, {"name": "bn2c_branch2b/beta", "op": "Const", "attr": {"value": {"tensor": {"dtype": "DT_FLOAT", "tensorShape": {"dim": [{"size": "64"}]}}}, "dtype": {"type": "DT_FLOAT"}}}, {"name": "bn2c_branch2b/moving_mean", "op": "Const", "attr": {"value": {"tensor": {"dtype": "DT_FLOAT", "tensorShape": {"dim": [{"size": "64"}]}}}, "dtype": {"type": "DT_FLOAT"}}}, {"name": "bn5a_branch2a/moving_variance", "op": "Const", "attr": {"value": {"tensor": {"dtype": "DT_FLOAT", "tensorShape": {"dim": [{"size": "512"}]}}}, "dtype": {"type": "DT_FLOAT"}}}, {"name": "bn2c_branch2b/moving_variance", "op": "Const", "attr": {"value": {"tensor": {"dtype": "DT_FLOAT", "tensorShape": {"dim": [{"size": "64"}]}}}, "dtype": {"type": "DT_FLOAT"}}}, {"name": "res2c_branch2c/kernel", "op": "Const", "attr": {"value": {"tensor": {"dtype": "DT_FLOAT", "tensorShape": {"dim": [{"size": "1"}, {"size": "1"}, {"size": "64"}, {"size": "256"}]}}}, "dtype": {"type": "DT_FLOAT"}}}, {"name": "bn2c_branch2c/gamma", "op": "Const", "attr": {"value": {"tensor": {"dtype": "DT_FLOAT", "tensorShape": {"dim": [{"size": "256"}]}}}, "dtype": {"type": "DT_FLOAT"}}}, {"name": "bn2c_branch2c/beta", "op": "Const", "attr": {"value": {"tensor": {"dtype": "DT_FLOAT", "tensorShape": {"dim": [{"size": "256"}]}}}, "dtype": {"type": "DT_FLOAT"}}}, {"name": "bn2c_branch2c/moving_mean", "op": "Const", "attr": {"value": {"tensor": {"dtype": "DT_FLOAT", "tensorShape": {"dim": [{"size": "256"}]}}}, "dtype": {"type": "DT_FLOAT"}}}, {"name": "bn2c_branch2c/moving_variance", "op": "Const", "attr": {"value": {"tensor": {"dtype": "DT_FLOAT", "tensorShape": {"dim": [{"size": "256"}]}}}, "dtype": {"type": "DT_FLOAT"}}}, {"name": "res3a_branch2a/kernel", "op": "Const", "attr": {"value": {"tensor": {"dtype": "DT_FLOAT", "tensorShape": {"dim": [{"size": "1"}, {"size": "1"}, {"size": "256"}, {"size": "128"}]}}}, "dtype": {"type": "DT_FLOAT"}}}, {"name": "bn3a_branch2a/gamma", "op": "Const", "attr": {"value": {"tensor": {"dtype": "DT_FLOAT", "tensorShape": {"dim": [{"size": "128"}]}}}, "dtype": {"type": "DT_FLOAT"}}}, {"name": "res5a_branch2b/kernel", "op": "Const", "attr": {"value": {"tensor": {"dtype": "DT_FLOAT", "tensorShape": {"dim": [{"size": "3"}, {"size": "3"}, {"size": "512"}, {"size": "512"}]}}}, "dtype": {"type": "DT_FLOAT"}}}, {"name": "bn3a_branch2a/beta", "op": "Const", "attr": {"value": {"tensor": {"dtype": "DT_FLOAT", "tensorShape": {"dim": [{"size": "128"}]}}}, "dtype": {"type": "DT_FLOAT"}}}, {"name": "bn5c_branch2b/moving_mean", "op": "Const", "attr": {"value": {"tensor": {"dtype": "DT_FLOAT", "tensorShape": {"dim": [{"size": "512"}]}}}, "dtype": {"type": "DT_FLOAT"}}}, {"name": "bn3a_branch2a/moving_mean", "op": "Const", "attr": {"value": {"tensor": {"dtype": "DT_FLOAT", "tensorShape": {"dim": [{"size": "128"}]}}}, "dtype": {"type": "DT_FLOAT"}}}, {"name": "bn3a_branch2a/moving_variance", "op": "Const", "attr": {"value": {"tensor": {"dtype": "DT_FLOAT", "tensorShape": {"dim": [{"size": "128"}]}}}, "dtype": {"type": "DT_FLOAT"}}}, {"name": "res3a_branch2b/kernel", "op": "Const", "attr": {"value": {"tensor": {"dtype": "DT_FLOAT", "tensorShape": {"dim": [{"size": "3"}, {"size": "3"}, {"size": "128"}, {"size": "128"}]}}}, "dtype": {"type": "DT_FLOAT"}}}, {"name": "bn3a_branch2b/gamma", "op": "Const", "attr": {"value": {"tensor": {"dtype": "DT_FLOAT", "tensorShape": {"dim": [{"size": "128"}]}}}, "dtype": {"type": "DT_FLOAT"}}}, {"name": "bn3a_branch2b/beta", "op": "Const", "attr": {"value": {"tensor": {"dtype": "DT_FLOAT", "tensorShape": {"dim": [{"size": "128"}]}}}, "dtype": {"type": "DT_FLOAT"}}}, {"name": "bn5a_branch2b/gamma", "op": "Const", "attr": {"value": {"tensor": {"dtype": "DT_FLOAT", "tensorShape": {"dim": [{"size": "512"}]}}}, "dtype": {"type": "DT_FLOAT"}}}, {"name": "bn3a_branch2b/moving_mean", "op": "Const", "attr": {"value": {"tensor": {"dtype": "DT_FLOAT", "tensorShape": {"dim": [{"size": "128"}]}}}, "dtype": {"type": "DT_FLOAT"}}}, {"name": "bn3a_branch2b/moving_variance", "op": "Const", "attr": {"value": {"tensor": {"dtype": "DT_FLOAT", "tensorShape": {"dim": [{"size": "128"}]}}}, "dtype": {"type": "DT_FLOAT"}}}, {"name": "res3a_branch2c/kernel", "op": "Const", "attr": {"value": {"tensor": {"dtype": "DT_FLOAT", "tensorShape": {"dim": [{"size": "1"}, {"size": "1"}, {"size": "128"}, {"size": "512"}]}}}, "dtype": {"type": "DT_FLOAT"}}}, {"name": "bn5a_branch2b/beta", "op": "Const", "attr": {"value": {"tensor": {"dtype": "DT_FLOAT", "tensorShape": {"dim": [{"size": "512"}]}}}, "dtype": {"type": "DT_FLOAT"}}}, {"name": "bn5c_branch2b/moving_variance", "op": "Const", "attr": {"value": {"tensor": {"dtype": "DT_FLOAT", "tensorShape": {"dim": [{"size": "512"}]}}}, "dtype": {"type": "DT_FLOAT"}}}, {"name": "bn3a_branch2c/gamma", "op": "Const", "attr": {"value": {"tensor": {"dtype": "DT_FLOAT", "tensorShape": {"dim": [{"size": "512"}]}}}, "dtype": {"type": "DT_FLOAT"}}}, {"name": "bn3a_branch2c/beta", "op": "Const", "attr": {"value": {"tensor": {"dtype": "DT_FLOAT", "tensorShape": {"dim": [{"size": "512"}]}}}, "dtype": {"type": "DT_FLOAT"}}}, {"name": "bn5a_branch2b/moving_mean", "op": "Const", "attr": {"value": {"tensor": {"dtype": "DT_FLOAT", "tensorShape": {"dim": [{"size": "512"}]}}}, "dtype": {"type": "DT_FLOAT"}}}, {"name": "bn3a_branch2c/moving_mean", "op": "Const", "attr": {"value": {"tensor": {"dtype": "DT_FLOAT", "tensorShape": {"dim": [{"size": "512"}]}}}, "dtype": {"type": "DT_FLOAT"}}}, {"name": "bn3a_branch2c/moving_variance", "op": "Const", "attr": {"value": {"tensor": {"dtype": "DT_FLOAT", "tensorShape": {"dim": [{"size": "512"}]}}}, "dtype": {"type": "DT_FLOAT"}}}, {"name": "res3a_branch1/kernel", "op": "Const", "attr": {"value": {"tensor": {"dtype": "DT_FLOAT", "tensorShape": {"dim": [{"size": "1"}, {"size": "1"}, {"size": "256"}, {"size": "512"}]}}}, "dtype": {"type": "DT_FLOAT"}}}, {"name": "bn5a_branch2b/moving_variance", "op": "Const", "attr": {"value": {"tensor": {"dtype": "DT_FLOAT", "tensorShape": {"dim": [{"size": "512"}]}}}, "dtype": {"type": "DT_FLOAT"}}}, {"name": "bn3a_branch1/gamma", "op": "Const", "attr": {"value": {"tensor": {"dtype": "DT_FLOAT", "tensorShape": {"dim": [{"size": "512"}]}}}, "dtype": {"type": "DT_FLOAT"}}}, {"name": "bn3a_branch1/moving_mean", "op": "Const", "attr": {"value": {"tensor": {"dtype": "DT_FLOAT", "tensorShape": {"dim": [{"size": "512"}]}}}, "dtype": {"type": "DT_FLOAT"}}}, {"name": "bn3a_branch1/moving_variance", "op": "Const", "attr": {"value": {"tensor": {"dtype": "DT_FLOAT", "tensorShape": {"dim": [{"size": "512"}]}}}, "dtype": {"type": "DT_FLOAT"}}}, {"name": "res3b_branch2a/kernel", "op": "Const", "attr": {"value": {"tensor": {"dtype": "DT_FLOAT", "tensorShape": {"dim": [{"size": "1"}, {"size": "1"}, {"size": "512"}, {"size": "128"}]}}}, "dtype": {"type": "DT_FLOAT"}}}, {"name": "bn3b_branch2a/gamma", "op": "Const", "attr": {"value": {"tensor": {"dtype": "DT_FLOAT", "tensorShape": {"dim": [{"size": "128"}]}}}, "dtype": {"type": "DT_FLOAT"}}}, {"name": "bn3b_branch2a/beta", "op": "Const", "attr": {"value": {"tensor": {"dtype": "DT_FLOAT", "tensorShape": {"dim": [{"size": "128"}]}}}, "dtype": {"type": "DT_FLOAT"}}}, {"name": "bn3b_branch2a/moving_mean", "op": "Const", "attr": {"value": {"tensor": {"dtype": "DT_FLOAT", "tensorShape": {"dim": [{"size": "128"}]}}}, "dtype": {"type": "DT_FLOAT"}}}, {"name": "res5a_branch2c/kernel", "op": "Const", "attr": {"value": {"tensor": {"dtype": "DT_FLOAT", "tensorShape": {"dim": [{"size": "1"}, {"size": "1"}, {"size": "512"}, {"size": "2048"}]}}}, "dtype": {"type": "DT_FLOAT"}}}, {"name": "bn3b_branch2a/moving_variance", "op": "Const", "attr": {"value": {"tensor": {"dtype": "DT_FLOAT", "tensorShape": {"dim": [{"size": "128"}]}}}, "dtype": {"type": "DT_FLOAT"}}}, {"name": "res3b_branch2b/kernel", "op": "Const", "attr": {"value": {"tensor": {"dtype": "DT_FLOAT", "tensorShape": {"dim": [{"size": "3"}, {"size": "3"}, {"size": "128"}, {"size": "128"}]}}}, "dtype": {"type": "DT_FLOAT"}}}, {"name": "bn3b_branch2b/gamma", "op": "Const", "attr": {"value": {"tensor": {"dtype": "DT_FLOAT", "tensorShape": {"dim": [{"size": "128"}]}}}, "dtype": {"type": "DT_FLOAT"}}}, {"name": "bn3b_branch2b/beta", "op": "Const", "attr": {"value": {"tensor": {"dtype": "DT_FLOAT", "tensorShape": {"dim": [{"size": "128"}]}}}, "dtype": {"type": "DT_FLOAT"}}}, {"name": "bn3b_branch2b/moving_mean", "op": "Const", "attr": {"value": {"tensor": {"dtype": "DT_FLOAT", "tensorShape": {"dim": [{"size": "128"}]}}}, "dtype": {"type": "DT_FLOAT"}}}, {"name": "bn3b_branch2b/moving_variance", "op": "Const", "attr": {"value": {"tensor": {"dtype": "DT_FLOAT", "tensorShape": {"dim": [{"size": "128"}]}}}, "dtype": {"type": "DT_FLOAT"}}}, {"name": "bn5a_branch2c/gamma", "op": "Const", "attr": {"value": {"tensor": {"dtype": "DT_FLOAT", "tensorShape": {"dim": [{"size": "2048"}]}}}, "dtype": {"type": "DT_FLOAT"}}}, {"name": "res3b_branch2c/kernel", "op": "Const", "attr": {"value": {"tensor": {"dtype": "DT_FLOAT", "tensorShape": {"dim": [{"size": "1"}, {"size": "1"}, {"size": "128"}, {"size": "512"}]}}}, "dtype": {"type": "DT_FLOAT"}}}, {"name": "bn3b_branch2c/gamma", "op": "Const", "attr": {"value": {"tensor": {"dtype": "DT_FLOAT", "tensorShape": {"dim": [{"size": "512"}]}}}, "dtype": {"type": "DT_FLOAT"}}}, {"name": "bn5a_branch2c/beta", "op": "Const", "attr": {"value": {"tensor": {"dtype": "DT_FLOAT", "tensorShape": {"dim": [{"size": "2048"}]}}}, "dtype": {"type": "DT_FLOAT"}}}, {"name": "bn3b_branch2c/beta", "op": "Const", "attr": {"value": {"tensor": {"dtype": "DT_FLOAT", "tensorShape": {"dim": [{"size": "512"}]}}}, "dtype": {"type": "DT_FLOAT"}}}, {"name": "bn3b_branch2c/moving_mean", "op": "Const", "attr": {"value": {"tensor": {"dtype": "DT_FLOAT", "tensorShape": {"dim": [{"size": "512"}]}}}, "dtype": {"type": "DT_FLOAT"}}}, {"name": "bn3b_branch2c/moving_variance", "op": "Const", "attr": {"value": {"tensor": {"dtype": "DT_FLOAT", "tensorShape": {"dim": [{"size": "512"}]}}}, "dtype": {"type": "DT_FLOAT"}}}, {"name": "bn5a_branch2c/moving_mean", "op": "Const", "attr": {"value": {"tensor": {"dtype": "DT_FLOAT", "tensorShape": {"dim": [{"size": "2048"}]}}}, "dtype": {"type": "DT_FLOAT"}}}, {"name": "res3c_branch2a/kernel", "op": "Const", "attr": {"value": {"tensor": {"dtype": "DT_FLOAT", "tensorShape": {"dim": [{"size": "1"}, {"size": "1"}, {"size": "512"}, {"size": "128"}]}}}, "dtype": {"type": "DT_FLOAT"}}}, {"name": "bn3c_branch2a/gamma", "op": "Const", "attr": {"value": {"tensor": {"dtype": "DT_FLOAT", "tensorShape": {"dim": [{"size": "128"}]}}}, "dtype": {"type": "DT_FLOAT"}}}, {"name": "bn5a_branch2c/moving_variance", "op": "Const", "attr": {"value": {"tensor": {"dtype": "DT_FLOAT", "tensorShape": {"dim": [{"size": "2048"}]}}}, "dtype": {"type": "DT_FLOAT"}}}, {"name": "bn3c_branch2a/beta", "op": "Const", "attr": {"value": {"tensor": {"dtype": "DT_FLOAT", "tensorShape": {"dim": [{"size": "128"}]}}}, "dtype": {"type": "DT_FLOAT"}}}, {"name": "bn3c_branch2a/moving_mean", "op": "Const", "attr": {"value": {"tensor": {"dtype": "DT_FLOAT", "tensorShape": {"dim": [{"size": "128"}]}}}, "dtype": {"type": "DT_FLOAT"}}}, {"name": "bn3c_branch2a/moving_variance", "op": "Const", "attr": {"value": {"tensor": {"dtype": "DT_FLOAT", "tensorShape": {"dim": [{"size": "128"}]}}}, "dtype": {"type": "DT_FLOAT"}}}, {"name": "res3c_branch2b/kernel", "op": "Const", "attr": {"value": {"tensor": {"dtype": "DT_FLOAT", "tensorShape": {"dim": [{"size": "3"}, {"size": "3"}, {"size": "128"}, {"size": "128"}]}}}, "dtype": {"type": "DT_FLOAT"}}}, {"name": "bn3c_branch2b/gamma", "op": "Const", "attr": {"value": {"tensor": {"dtype": "DT_FLOAT", "tensorShape": {"dim": [{"size": "128"}]}}}, "dtype": {"type": "DT_FLOAT"}}}, {"name": "bn3c_branch2b/beta", "op": "Const", "attr": {"value": {"tensor": {"dtype": "DT_FLOAT", "tensorShape": {"dim": [{"size": "128"}]}}}, "dtype": {"type": "DT_FLOAT"}}}, {"name": "bn3c_branch2b/moving_mean", "op": "Const", "attr": {"value": {"tensor": {"dtype": "DT_FLOAT", "tensorShape": {"dim": [{"size": "128"}]}}}, "dtype": {"type": "DT_FLOAT"}}}, {"name": "bn3c_branch2b/moving_variance", "op": "Const", "attr": {"value": {"tensor": {"dtype": "DT_FLOAT", "tensorShape": {"dim": [{"size": "128"}]}}}, "dtype": {"type": "DT_FLOAT"}}}, {"name": "res5a_branch1/kernel", "op": "Const", "attr": {"value": {"tensor": {"dtype": "DT_FLOAT", "tensorShape": {"dim": [{"size": "1"}, {"size": "1"}, {"size": "1024"}, {"size": "2048"}]}}}, "dtype": {"type": "DT_FLOAT"}}}, {"name": "res3c_branch2c/kernel", "op": "Const", "attr": {"value": {"tensor": {"dtype": "DT_FLOAT", "tensorShape": {"dim": [{"size": "1"}, {"size": "1"}, {"size": "128"}, {"size": "512"}]}}}, "dtype": {"type": "DT_FLOAT"}}}, {"name": "bn3c_branch2c/gamma", "op": "Const", "attr": {"value": {"tensor": {"dtype": "DT_FLOAT", "tensorShape": {"dim": [{"size": "512"}]}}}, "dtype": {"type": "DT_FLOAT"}}}, {"name": "bn3c_branch2c/beta", "op": "Const", "attr": {"value": {"tensor": {"dtype": "DT_FLOAT", "tensorShape": {"dim": [{"size": "512"}]}}}, "dtype": {"type": "DT_FLOAT"}}}, {"name": "res5c_branch2c/kernel", "op": "Const", "attr": {"value": {"tensor": {"dtype": "DT_FLOAT", "tensorShape": {"dim": [{"size": "1"}, {"size": "1"}, {"size": "512"}, {"size": "2048"}]}}}, "dtype": {"type": "DT_FLOAT"}}}, {"name": "bn3c_branch2c/moving_mean", "op": "Const", "attr": {"value": {"tensor": {"dtype": "DT_FLOAT", "tensorShape": {"dim": [{"size": "512"}]}}}, "dtype": {"type": "DT_FLOAT"}}}, {"name": "bn3c_branch2c/moving_variance", "op": "Const", "attr": {"value": {"tensor": {"dtype": "DT_FLOAT", "tensorShape": {"dim": [{"size": "512"}]}}}, "dtype": {"type": "DT_FLOAT"}}}, {"name": "res3d_branch2a/kernel", "op": "Const", "attr": {"value": {"tensor": {"dtype": "DT_FLOAT", "tensorShape": {"dim": [{"size": "1"}, {"size": "1"}, {"size": "512"}, {"size": "128"}]}}}, "dtype": {"type": "DT_FLOAT"}}}, {"name": "bn5a_branch1/gamma", "op": "Const", "attr": {"value": {"tensor": {"dtype": "DT_FLOAT", "tensorShape": {"dim": [{"size": "2048"}]}}}, "dtype": {"type": "DT_FLOAT"}}}, {"name": "bn3d_branch2a/gamma", "op": "Const", "attr": {"value": {"tensor": {"dtype": "DT_FLOAT", "tensorShape": {"dim": [{"size": "128"}]}}}, "dtype": {"type": "DT_FLOAT"}}}, {"name": "bn3d_branch2a/beta", "op": "Const", "attr": {"value": {"tensor": {"dtype": "DT_FLOAT", "tensorShape": {"dim": [{"size": "128"}]}}}, "dtype": {"type": "DT_FLOAT"}}}, {"name": "bn3d_branch2a/moving_mean", "op": "Const", "attr": {"value": {"tensor": {"dtype": "DT_FLOAT", "tensorShape": {"dim": [{"size": "128"}]}}}, "dtype": {"type": "DT_FLOAT"}}}, {"name": "bn3d_branch2a/moving_variance", "op": "Const", "attr": {"value": {"tensor": {"dtype": "DT_FLOAT", "tensorShape": {"dim": [{"size": "128"}]}}}, "dtype": {"type": "DT_FLOAT"}}}, {"name": "res3d_branch2b/kernel", "op": "Const", "attr": {"value": {"tensor": {"dtype": "DT_FLOAT", "tensorShape": {"dim": [{"size": "3"}, {"size": "3"}, {"size": "128"}, {"size": "128"}]}}}, "dtype": {"type": "DT_FLOAT"}}}, {"name": "bn5a_branch1/moving_mean", "op": "Const", "attr": {"value": {"tensor": {"dtype": "DT_FLOAT", "tensorShape": {"dim": [{"size": "2048"}]}}}, "dtype": {"type": "DT_FLOAT"}}}, {"name": "bn3d_branch2b/gamma", "op": "Const", "attr": {"value": {"tensor": {"dtype": "DT_FLOAT", "tensorShape": {"dim": [{"size": "128"}]}}}, "dtype": {"type": "DT_FLOAT"}}}, {"name": "bn3d_branch2b/beta", "op": "Const", "attr": {"value": {"tensor": {"dtype": "DT_FLOAT", "tensorShape": {"dim": [{"size": "128"}]}}}, "dtype": {"type": "DT_FLOAT"}}}, {"name": "bn5a_branch1/moving_variance", "op": "Const", "attr": {"value": {"tensor": {"dtype": "DT_FLOAT", "tensorShape": {"dim": [{"size": "2048"}]}}}, "dtype": {"type": "DT_FLOAT"}}}, {"name": "bn3d_branch2b/moving_mean", "op": "Const", "attr": {"value": {"tensor": {"dtype": "DT_FLOAT", "tensorShape": {"dim": [{"size": "128"}]}}}, "dtype": {"type": "DT_FLOAT"}}}, {"name": "dense_1/kernel", "op": "Const", "attr": {"value": {"tensor": {"dtype": "DT_FLOAT", "tensorShape": {"dim": [{"size": "100352"}, {"size": "8"}]}}}, "dtype": {"type": "DT_FLOAT"}}}, {"name": "bn3d_branch2b/moving_variance", "op": "Const", "attr": {"value": {"tensor": {"dtype": "DT_FLOAT", "tensorShape": {"dim": [{"size": "128"}]}}}, "dtype": {"type": "DT_FLOAT"}}}, {"name": "res3d_branch2c/kernel", "op": "Const", "attr": {"value": {"tensor": {"dtype": "DT_FLOAT", "tensorShape": {"dim": [{"size": "1"}, {"size": "1"}, {"size": "128"}, {"size": "512"}]}}}, "dtype": {"type": "DT_FLOAT"}}}, {"name": "bn3d_branch2c/gamma", "op": "Const", "attr": {"value": {"tensor": {"dtype": "DT_FLOAT", "tensorShape": {"dim": [{"size": "512"}]}}}, "dtype": {"type": "DT_FLOAT"}}}, {"name": "bn3d_branch2c/beta", "op": "Const", "attr": {"value": {"tensor": {"dtype": "DT_FLOAT", "tensorShape": {"dim": [{"size": "512"}]}}}, "dtype": {"type": "DT_FLOAT"}}}, {"name": "bn3d_branch2c/moving_mean", "op": "Const", "attr": {"value": {"tensor": {"dtype": "DT_FLOAT", "tensorShape": {"dim": [{"size": "512"}]}}}, "dtype": {"type": "DT_FLOAT"}}}, {"name": "bn3d_branch2c/moving_variance", "op": "Const", "attr": {"value": {"tensor": {"dtype": "DT_FLOAT", "tensorShape": {"dim": [{"size": "512"}]}}}, "dtype": {"type": "DT_FLOAT"}}}, {"name": "res4a_branch2a/kernel", "op": "Const", "attr": {"value": {"tensor": {"dtype": "DT_FLOAT", "tensorShape": {"dim": [{"size": "1"}, {"size": "1"}, {"size": "512"}, {"size": "256"}]}}}, "dtype": {"type": "DT_FLOAT"}}}, {"name": "bn4a_branch2a/gamma", "op": "Const", "attr": {"value": {"tensor": {"dtype": "DT_FLOAT", "tensorShape": {"dim": [{"size": "256"}]}}}, "dtype": {"type": "DT_FLOAT"}}}, {"name": "res5b_branch2a/kernel", "op": "Const", "attr": {"value": {"tensor": {"dtype": "DT_FLOAT", "tensorShape": {"dim": [{"size": "1"}, {"size": "1"}, {"size": "2048"}, {"size": "512"}]}}}, "dtype": {"type": "DT_FLOAT"}}}, {"name": "bn4a_branch2a/beta", "op": "Const", "attr": {"value": {"tensor": {"dtype": "DT_FLOAT", "tensorShape": {"dim": [{"size": "256"}]}}}, "dtype": {"type": "DT_FLOAT"}}}, {"name": "bn4a_branch2a/moving_mean", "op": "Const", "attr": {"value": {"tensor": {"dtype": "DT_FLOAT", "tensorShape": {"dim": [{"size": "256"}]}}}, "dtype": {"type": "DT_FLOAT"}}}, {"name": "bn4a_branch2a/moving_variance", "op": "Const", "attr": {"value": {"tensor": {"dtype": "DT_FLOAT", "tensorShape": {"dim": [{"size": "256"}]}}}, "dtype": {"type": "DT_FLOAT"}}}, {"name": "res4a_branch2b/kernel", "op": "Const", "attr": {"value": {"tensor": {"dtype": "DT_FLOAT", "tensorShape": {"dim": [{"size": "3"}, {"size": "3"}, {"size": "256"}, {"size": "256"}]}}}, "dtype": {"type": "DT_FLOAT"}}}, {"name": "bn4a_branch2b/gamma", "op": "Const", "attr": {"value": {"tensor": {"dtype": "DT_FLOAT", "tensorShape": {"dim": [{"size": "256"}]}}}, "dtype": {"type": "DT_FLOAT"}}}, {"name": "bn4a_branch2b/beta", "op": "Const", "attr": {"value": {"tensor": {"dtype": "DT_FLOAT", "tensorShape": {"dim": [{"size": "256"}]}}}, "dtype": {"type": "DT_FLOAT"}}}, {"name": "bn5b_branch2a/gamma", "op": "Const", "attr": {"value": {"tensor": {"dtype": "DT_FLOAT", "tensorShape": {"dim": [{"size": "512"}]}}}, "dtype": {"type": "DT_FLOAT"}}}, {"name": "bn4a_branch2b/moving_mean", "op": "Const", "attr": {"value": {"tensor": {"dtype": "DT_FLOAT", "tensorShape": {"dim": [{"size": "256"}]}}}, "dtype": {"type": "DT_FLOAT"}}}, {"name": "bn5c_branch2c/gamma", "op": "Const", "attr": {"value": {"tensor": {"dtype": "DT_FLOAT", "tensorShape": {"dim": [{"size": "2048"}]}}}, "dtype": {"type": "DT_FLOAT"}}}, {"name": "bn4a_branch2b/moving_variance", "op": "Const", "attr": {"value": {"tensor": {"dtype": "DT_FLOAT", "tensorShape": {"dim": [{"size": "256"}]}}}, "dtype": {"type": "DT_FLOAT"}}}, {"name": "res4a_branch2c/kernel", "op": "Const", "attr": {"value": {"tensor": {"dtype": "DT_FLOAT", "tensorShape": {"dim": [{"size": "1"}, {"size": "1"}, {"size": "256"}, {"size": "1024"}]}}}, "dtype": {"type": "DT_FLOAT"}}}, {"name": "bn5b_branch2a/beta", "op": "Const", "attr": {"value": {"tensor": {"dtype": "DT_FLOAT", "tensorShape": {"dim": [{"size": "512"}]}}}, "dtype": {"type": "DT_FLOAT"}}}, {"name": "bn4a_branch2c/gamma", "op": "Const", "attr": {"value": {"tensor": {"dtype": "DT_FLOAT", "tensorShape": {"dim": [{"size": "1024"}]}}}, "dtype": {"type": "DT_FLOAT"}}}, {"name": "bn4a_branch2c/beta", "op": "Const", "attr": {"value": {"tensor": {"dtype": "DT_FLOAT", "tensorShape": {"dim": [{"size": "1024"}]}}}, "dtype": {"type": "DT_FLOAT"}}}, {"name": "bn5b_branch2a/moving_mean", "op": "Const", "attr": {"value": {"tensor": {"dtype": "DT_FLOAT", "tensorShape": {"dim": [{"size": "512"}]}}}, "dtype": {"type": "DT_FLOAT"}}}, {"name": "bn4a_branch2c/moving_mean", "op": "Const", "attr": {"value": {"tensor": {"dtype": "DT_FLOAT", "tensorShape": {"dim": [{"size": "1024"}]}}}, "dtype": {"type": "DT_FLOAT"}}}, {"name": "bn4a_branch2c/moving_variance", "op": "Const", "attr": {"value": {"tensor": {"dtype": "DT_FLOAT", "tensorShape": {"dim": [{"size": "1024"}]}}}, "dtype": {"type": "DT_FLOAT"}}}, {"name": "res4a_branch1/kernel", "op": "Const", "attr": {"value": {"tensor": {"dtype": "DT_FLOAT", "tensorShape": {"dim": [{"size": "1"}, {"size": "1"}, {"size": "512"}, {"size": "1024"}]}}}, "dtype": {"type": "DT_FLOAT"}}}, {"name": "bn5b_branch2a/moving_variance", "op": "Const", "attr": {"value": {"tensor": {"dtype": "DT_FLOAT", "tensorShape": {"dim": [{"size": "512"}]}}}, "dtype": {"type": "DT_FLOAT"}}}, {"name": "bn5c_branch2c/beta", "op": "Const", "attr": {"value": {"tensor": {"dtype": "DT_FLOAT", "tensorShape": {"dim": [{"size": "2048"}]}}}, "dtype": {"type": "DT_FLOAT"}}}, {"name": "bn4a_branch1/gamma", "op": "Const", "attr": {"value": {"tensor": {"dtype": "DT_FLOAT", "tensorShape": {"dim": [{"size": "1024"}]}}}, "dtype": {"type": "DT_FLOAT"}}}, {"name": "bn4a_branch1/moving_mean", "op": "Const", "attr": {"value": {"tensor": {"dtype": "DT_FLOAT", "tensorShape": {"dim": [{"size": "1024"}]}}}, "dtype": {"type": "DT_FLOAT"}}}, {"name": "bn4a_branch1/moving_variance", "op": "Const", "attr": {"value": {"tensor": {"dtype": "DT_FLOAT", "tensorShape": {"dim": [{"size": "1024"}]}}}, "dtype": {"type": "DT_FLOAT"}}}, {"name": "res4b_branch2a/kernel", "op": "Const", "attr": {"value": {"tensor": {"dtype": "DT_FLOAT", "tensorShape": {"dim": [{"size": "1"}, {"size": "1"}, {"size": "1024"}, {"size": "256"}]}}}, "dtype": {"type": "DT_FLOAT"}}}, {"name": "bn4b_branch2a/gamma", "op": "Const", "attr": {"value": {"tensor": {"dtype": "DT_FLOAT", "tensorShape": {"dim": [{"size": "256"}]}}}, "dtype": {"type": "DT_FLOAT"}}}, {"name": "bn4b_branch2a/beta", "op": "Const", "attr": {"value": {"tensor": {"dtype": "DT_FLOAT", "tensorShape": {"dim": [{"size": "256"}]}}}, "dtype": {"type": "DT_FLOAT"}}}, {"name": "bn4b_branch2a/moving_mean", "op": "Const", "attr": {"value": {"tensor": {"dtype": "DT_FLOAT", "tensorShape": {"dim": [{"size": "256"}]}}}, "dtype": {"type": "DT_FLOAT"}}}, {"name": "res5b_branch2b/kernel", "op": "Const", "attr": {"value": {"tensor": {"dtype": "DT_FLOAT", "tensorShape": {"dim": [{"size": "3"}, {"size": "3"}, {"size": "512"}, {"size": "512"}]}}}, "dtype": {"type": "DT_FLOAT"}}}, {"name": "bn4b_branch2a/moving_variance", "op": "Const", "attr": {"value": {"tensor": {"dtype": "DT_FLOAT", "tensorShape": {"dim": [{"size": "256"}]}}}, "dtype": {"type": "DT_FLOAT"}}}, {"name": "res4b_branch2b/kernel", "op": "Const", "attr": {"value": {"tensor": {"dtype": "DT_FLOAT", "tensorShape": {"dim": [{"size": "3"}, {"size": "3"}, {"size": "256"}, {"size": "256"}]}}}, "dtype": {"type": "DT_FLOAT"}}}, {"name": "bn4b_branch2b/gamma", "op": "Const", "attr": {"value": {"tensor": {"dtype": "DT_FLOAT", "tensorShape": {"dim": [{"size": "256"}]}}}, "dtype": {"type": "DT_FLOAT"}}}, {"name": "bn4b_branch2b/beta", "op": "Const", "attr": {"value": {"tensor": {"dtype": "DT_FLOAT", "tensorShape": {"dim": [{"size": "256"}]}}}, "dtype": {"type": "DT_FLOAT"}}}, {"name": "bn4b_branch2b/moving_mean", "op": "Const", "attr": {"value": {"tensor": {"dtype": "DT_FLOAT", "tensorShape": {"dim": [{"size": "256"}]}}}, "dtype": {"type": "DT_FLOAT"}}}, {"name": "bn4b_branch2b/moving_variance", "op": "Const", "attr": {"value": {"tensor": {"dtype": "DT_FLOAT", "tensorShape": {"dim": [{"size": "256"}]}}}, "dtype": {"type": "DT_FLOAT"}}}, {"name": "bn5b_branch2b/gamma", "op": "Const", "attr": {"value": {"tensor": {"dtype": "DT_FLOAT", "tensorShape": {"dim": [{"size": "512"}]}}}, "dtype": {"type": "DT_FLOAT"}}}, {"name": "res4b_branch2c/kernel", "op": "Const", "attr": {"value": {"tensor": {"dtype": "DT_FLOAT", "tensorShape": {"dim": [{"size": "1"}, {"size": "1"}, {"size": "256"}, {"size": "1024"}]}}}, "dtype": {"type": "DT_FLOAT"}}}, {"name": "bn5c_branch2c/moving_mean", "op": "Const", "attr": {"value": {"tensor": {"dtype": "DT_FLOAT", "tensorShape": {"dim": [{"size": "2048"}]}}}, "dtype": {"type": "DT_FLOAT"}}}, {"name": "bn4b_branch2c/gamma", "op": "Const", "attr": {"value": {"tensor": {"dtype": "DT_FLOAT", "tensorShape": {"dim": [{"size": "1024"}]}}}, "dtype": {"type": "DT_FLOAT"}}}, {"name": "bn5b_branch2b/beta", "op": "Const", "attr": {"value": {"tensor": {"dtype": "DT_FLOAT", "tensorShape": {"dim": [{"size": "512"}]}}}, "dtype": {"type": "DT_FLOAT"}}}, {"name": "bn4b_branch2c/beta", "op": "Const", "attr": {"value": {"tensor": {"dtype": "DT_FLOAT", "tensorShape": {"dim": [{"size": "1024"}]}}}, "dtype": {"type": "DT_FLOAT"}}}, {"name": "dense_1/bias", "op": "Const", "attr": {"value": {"tensor": {"dtype": "DT_FLOAT", "tensorShape": {"dim": [{"size": "8"}]}}}, "dtype": {"type": "DT_FLOAT"}}}, {"name": "bn4b_branch2c/moving_mean", "op": "Const", "attr": {"value": {"tensor": {"dtype": "DT_FLOAT", "tensorShape": {"dim": [{"size": "1024"}]}}}, "dtype": {"type": "DT_FLOAT"}}}, {"name": "bn4b_branch2c/moving_variance", "op": "Const", "attr": {"value": {"tensor": {"dtype": "DT_FLOAT", "tensorShape": {"dim": [{"size": "1024"}]}}}, "dtype": {"type": "DT_FLOAT"}}}, {"name": "bn5b_branch2b/moving_mean", "op": "Const", "attr": {"value": {"tensor": {"dtype": "DT_FLOAT", "tensorShape": {"dim": [{"size": "512"}]}}}, "dtype": {"type": "DT_FLOAT"}}}, {"name": "res4c_branch2a/kernel", "op": "Const", "attr": {"value": {"tensor": {"dtype": "DT_FLOAT", "tensorShape": {"dim": [{"size": "1"}, {"size": "1"}, {"size": "1024"}, {"size": "256"}]}}}, "dtype": {"type": "DT_FLOAT"}}}, {"name": "bn4c_branch2a/gamma", "op": "Const", "attr": {"value": {"tensor": {"dtype": "DT_FLOAT", "tensorShape": {"dim": [{"size": "256"}]}}}, "dtype": {"type": "DT_FLOAT"}}}, {"name": "bn5b_branch2b/moving_variance", "op": "Const", "attr": {"value": {"tensor": {"dtype": "DT_FLOAT", "tensorShape": {"dim": [{"size": "512"}]}}}, "dtype": {"type": "DT_FLOAT"}}}, {"name": "bn4c_branch2a/beta", "op": "Const", "attr": {"value": {"tensor": {"dtype": "DT_FLOAT", "tensorShape": {"dim": [{"size": "256"}]}}}, "dtype": {"type": "DT_FLOAT"}}}, {"name": "bn5c_branch2c/moving_variance", "op": "Const", "attr": {"value": {"tensor": {"dtype": "DT_FLOAT", "tensorShape": {"dim": [{"size": "2048"}]}}}, "dtype": {"type": "DT_FLOAT"}}}, {"name": "bn4c_branch2a/moving_mean", "op": "Const", "attr": {"value": {"tensor": {"dtype": "DT_FLOAT", "tensorShape": {"dim": [{"size": "256"}]}}}, "dtype": {"type": "DT_FLOAT"}}}, {"name": "bn4c_branch2a/moving_variance", "op": "Const", "attr": {"value": {"tensor": {"dtype": "DT_FLOAT", "tensorShape": {"dim": [{"size": "256"}]}}}, "dtype": {"type": "DT_FLOAT"}}}, {"name": "res4c_branch2b/kernel", "op": "Const", "attr": {"value": {"tensor": {"dtype": "DT_FLOAT", "tensorShape": {"dim": [{"size": "3"}, {"size": "3"}, {"size": "256"}, {"size": "256"}]}}}, "dtype": {"type": "DT_FLOAT"}}}, {"name": "bn4c_branch2b/gamma", "op": "Const", "attr": {"value": {"tensor": {"dtype": "DT_FLOAT", "tensorShape": {"dim": [{"size": "256"}]}}}, "dtype": {"type": "DT_FLOAT"}}}, {"name": "bn4c_branch2b/beta", "op": "Const", "attr": {"value": {"tensor": {"dtype": "DT_FLOAT", "tensorShape": {"dim": [{"size": "256"}]}}}, "dtype": {"type": "DT_FLOAT"}}}, {"name": "bn4c_branch2b/moving_mean", "op": "Const", "attr": {"value": {"tensor": {"dtype": "DT_FLOAT", "tensorShape": {"dim": [{"size": "256"}]}}}, "dtype": {"type": "DT_FLOAT"}}}, {"name": "bn4c_branch2b/moving_variance", "op": "Const", "attr": {"value": {"tensor": {"dtype": "DT_FLOAT", "tensorShape": {"dim": [{"size": "256"}]}}}, "dtype": {"type": "DT_FLOAT"}}}, {"name": "res4c_branch2c/kernel", "op": "Const", "attr": {"value": {"tensor": {"dtype": "DT_FLOAT", "tensorShape": {"dim": [{"size": "1"}, {"size": "1"}, {"size": "256"}, {"size": "1024"}]}}}, "dtype": {"type": "DT_FLOAT"}}}, {"name": "res5b_branch2c/kernel", "op": "Const", "attr": {"value": {"tensor": {"dtype": "DT_FLOAT", "tensorShape": {"dim": [{"size": "1"}, {"size": "1"}, {"size": "512"}, {"size": "2048"}]}}}, "dtype": {"type": "DT_FLOAT"}}}, {"name": "bn4c_branch2c/gamma", "op": "Const", "attr": {"value": {"tensor": {"dtype": "DT_FLOAT", "tensorShape": {"dim": [{"size": "1024"}]}}}, "dtype": {"type": "DT_FLOAT"}}}, {"name": "bn4c_branch2c/beta", "op": "Const", "attr": {"value": {"tensor": {"dtype": "DT_FLOAT", "tensorShape": {"dim": [{"size": "1024"}]}}}, "dtype": {"type": "DT_FLOAT"}}}, {"name": "bn4c_branch2c/moving_mean", "op": "Const", "attr": {"value": {"tensor": {"dtype": "DT_FLOAT", "tensorShape": {"dim": [{"size": "1024"}]}}}, "dtype": {"type": "DT_FLOAT"}}}, {"name": "bn4c_branch2c/moving_variance", "op": "Const", "attr": {"value": {"tensor": {"dtype": "DT_FLOAT", "tensorShape": {"dim": [{"size": "1024"}]}}}, "dtype": {"type": "DT_FLOAT"}}}, {"name": "res4d_branch2a/kernel", "op": "Const", "attr": {"value": {"tensor": {"dtype": "DT_FLOAT", "tensorShape": {"dim": [{"size": "1"}, {"size": "1"}, {"size": "1024"}, {"size": "256"}]}}}, "dtype": {"type": "DT_FLOAT"}}}, {"name": "bn5b_branch2c/gamma", "op": "Const", "attr": {"value": {"tensor": {"dtype": "DT_FLOAT", "tensorShape": {"dim": [{"size": "2048"}]}}}, "dtype": {"type": "DT_FLOAT"}}}, {"name": "bn4d_branch2a/gamma", "op": "Const", "attr": {"value": {"tensor": {"dtype": "DT_FLOAT", "tensorShape": {"dim": [{"size": "256"}]}}}, "dtype": {"type": "DT_FLOAT"}}}, {"name": "bn4d_branch2a/beta", "op": "Const", "attr": {"value": {"tensor": {"dtype": "DT_FLOAT", "tensorShape": {"dim": [{"size": "256"}]}}}, "dtype": {"type": "DT_FLOAT"}}}, {"name": "bn4d_branch2a/moving_mean", "op": "Const", "attr": {"value": {"tensor": {"dtype": "DT_FLOAT", "tensorShape": {"dim": [{"size": "256"}]}}}, "dtype": {"type": "DT_FLOAT"}}}, {"name": "bn5b_branch2c/beta", "op": "Const", "attr": {"value": {"tensor": {"dtype": "DT_FLOAT", "tensorShape": {"dim": [{"size": "2048"}]}}}, "dtype": {"type": "DT_FLOAT"}}}, {"name": "bn4d_branch2a/moving_variance", "op": "Const", "attr": {"value": {"tensor": {"dtype": "DT_FLOAT", "tensorShape": {"dim": [{"size": "256"}]}}}, "dtype": {"type": "DT_FLOAT"}}}, {"name": "res4d_branch2b/kernel", "op": "Const", "attr": {"value": {"tensor": {"dtype": "DT_FLOAT", "tensorShape": {"dim": [{"size": "3"}, {"size": "3"}, {"size": "256"}, {"size": "256"}]}}}, "dtype": {"type": "DT_FLOAT"}}}, {"name": "bn5b_branch2c/moving_mean", "op": "Const", "attr": {"value": {"tensor": {"dtype": "DT_FLOAT", "tensorShape": {"dim": [{"size": "2048"}]}}}, "dtype": {"type": "DT_FLOAT"}}}, {"name": "bn4d_branch2b/gamma", "op": "Const", "attr": {"value": {"tensor": {"dtype": "DT_FLOAT", "tensorShape": {"dim": [{"size": "256"}]}}}, "dtype": {"type": "DT_FLOAT"}}}, {"name": "bn4d_branch2b/beta", "op": "Const", "attr": {"value": {"tensor": {"dtype": "DT_FLOAT", "tensorShape": {"dim": [{"size": "256"}]}}}, "dtype": {"type": "DT_FLOAT"}}}, {"name": "bn4d_branch2b/moving_mean", "op": "Const", "attr": {"value": {"tensor": {"dtype": "DT_FLOAT", "tensorShape": {"dim": [{"size": "256"}]}}}, "dtype": {"type": "DT_FLOAT"}}}, {"name": "bn5b_branch2c/moving_variance", "op": "Const", "attr": {"value": {"tensor": {"dtype": "DT_FLOAT", "tensorShape": {"dim": [{"size": "2048"}]}}}, "dtype": {"type": "DT_FLOAT"}}}, {"name": "bn4d_branch2b/moving_variance", "op": "Const", "attr": {"value": {"tensor": {"dtype": "DT_FLOAT", "tensorShape": {"dim": [{"size": "256"}]}}}, "dtype": {"type": "DT_FLOAT"}}}, {"name": "res4d_branch2c/kernel", "op": "Const", "attr": {"value": {"tensor": {"dtype": "DT_FLOAT", "tensorShape": {"dim": [{"size": "1"}, {"size": "1"}, {"size": "256"}, {"size": "1024"}]}}}, "dtype": {"type": "DT_FLOAT"}}}, {"name": "bn4d_branch2c/gamma", "op": "Const", "attr": {"value": {"tensor": {"dtype": "DT_FLOAT", "tensorShape": {"dim": [{"size": "1024"}]}}}, "dtype": {"type": "DT_FLOAT"}}}, {"name": "bn4d_branch2c/beta", "op": "Const", "attr": {"value": {"tensor": {"dtype": "DT_FLOAT", "tensorShape": {"dim": [{"size": "1024"}]}}}, "dtype": {"type": "DT_FLOAT"}}}, {"name": "bn4d_branch2c/moving_mean", "op": "Const", "attr": {"value": {"tensor": {"dtype": "DT_FLOAT", "tensorShape": {"dim": [{"size": "1024"}]}}}, "dtype": {"type": "DT_FLOAT"}}}, {"name": "bn4d_branch2c/moving_variance", "op": "Const", "attr": {"value": {"tensor": {"dtype": "DT_FLOAT", "tensorShape": {"dim": [{"size": "1024"}]}}}, "dtype": {"type": "DT_FLOAT"}}}, {"name": "res4e_branch2a/kernel", "op": "Const", "attr": {"value": {"tensor": {"dtype": "DT_FLOAT", "tensorShape": {"dim": [{"size": "1"}, {"size": "1"}, {"size": "1024"}, {"size": "256"}]}}}, "dtype": {"type": "DT_FLOAT"}}}, {"name": "bn4e_branch2a/gamma", "op": "Const", "attr": {"value": {"tensor": {"dtype": "DT_FLOAT", "tensorShape": {"dim": [{"size": "256"}]}}}, "dtype": {"type": "DT_FLOAT"}}}, {"name": "bn4e_branch2a/beta", "op": "Const", "attr": {"value": {"tensor": {"dtype": "DT_FLOAT", "tensorShape": {"dim": [{"size": "256"}]}}}, "dtype": {"type": "DT_FLOAT"}}}, {"name": "res5c_branch2a/kernel", "op": "Const", "attr": {"value": {"tensor": {"dtype": "DT_FLOAT", "tensorShape": {"dim": [{"size": "1"}, {"size": "1"}, {"size": "2048"}, {"size": "512"}]}}}, "dtype": {"type": "DT_FLOAT"}}}, {"name": "bn4e_branch2a/moving_mean", "op": "Const", "attr": {"value": {"tensor": {"dtype": "DT_FLOAT", "tensorShape": {"dim": [{"size": "256"}]}}}, "dtype": {"type": "DT_FLOAT"}}}, {"name": "bn4e_branch2a/moving_variance", "op": "Const", "attr": {"value": {"tensor": {"dtype": "DT_FLOAT", "tensorShape": {"dim": [{"size": "256"}]}}}, "dtype": {"type": "DT_FLOAT"}}}, {"name": "res4e_branch2b/kernel", "op": "Const", "attr": {"value": {"tensor": {"dtype": "DT_FLOAT", "tensorShape": {"dim": [{"size": "3"}, {"size": "3"}, {"size": "256"}, {"size": "256"}]}}}, "dtype": {"type": "DT_FLOAT"}}}, {"name": "bn4e_branch2b/gamma", "op": "Const", "attr": {"value": {"tensor": {"dtype": "DT_FLOAT", "tensorShape": {"dim": [{"size": "256"}]}}}, "dtype": {"type": "DT_FLOAT"}}}, {"name": "bn4e_branch2b/beta", "op": "Const", "attr": {"value": {"tensor": {"dtype": "DT_FLOAT", "tensorShape": {"dim": [{"size": "256"}]}}}, "dtype": {"type": "DT_FLOAT"}}}, {"name": "bn4e_branch2b/moving_mean", "op": "Const", "attr": {"value": {"tensor": {"dtype": "DT_FLOAT", "tensorShape": {"dim": [{"size": "256"}]}}}, "dtype": {"type": "DT_FLOAT"}}}, {"name": "bn5c_branch2a/gamma", "op": "Const", "attr": {"value": {"tensor": {"dtype": "DT_FLOAT", "tensorShape": {"dim": [{"size": "512"}]}}}, "dtype": {"type": "DT_FLOAT"}}}, {"name": "bn4e_branch2b/moving_variance", "op": "Const", "attr": {"value": {"tensor": {"dtype": "DT_FLOAT", "tensorShape": {"dim": [{"size": "256"}]}}}, "dtype": {"type": "DT_FLOAT"}}}, {"name": "res4e_branch2c/kernel", "op": "Const", "attr": {"value": {"tensor": {"dtype": "DT_FLOAT", "tensorShape": {"dim": [{"size": "1"}, {"size": "1"}, {"size": "256"}, {"size": "1024"}]}}}, "dtype": {"type": "DT_FLOAT"}}}, {"name": "bn5c_branch2a/beta", "op": "Const", "attr": {"value": {"tensor": {"dtype": "DT_FLOAT", "tensorShape": {"dim": [{"size": "512"}]}}}, "dtype": {"type": "DT_FLOAT"}}}, {"name": "bn4e_branch2c/gamma", "op": "Const", "attr": {"value": {"tensor": {"dtype": "DT_FLOAT", "tensorShape": {"dim": [{"size": "1024"}]}}}, "dtype": {"type": "DT_FLOAT"}}}, {"name": "bn4e_branch2c/beta", "op": "Const", "attr": {"value": {"tensor": {"dtype": "DT_FLOAT", "tensorShape": {"dim": [{"size": "1024"}]}}}, "dtype": {"type": "DT_FLOAT"}}}, {"name": "conv1_pad/Pad", "op": "Pad", "input": ["input_1", "conv1_pad/Pad/paddings"], "attr": {"T": {"type": "DT_FLOAT"}, "Tpaddings": {"type": "DT_INT32"}}}, {"name": "bn_conv1/keras_learning_phase", "op": "PlaceholderWithDefault", "input": ["bn_conv1/keras_learning_phase/input"], "attr": {"shape": {"shape": {}}, "dtype": {"type": "DT_BOOL"}}}, {"name": "conv1/BiasAdd", "op": "_FusedConv2D", "input": ["conv1_pad/Pad", "conv1/kernel", "conv1/bias"], "device": "/device:CPU:0", "attr": {"dilations": {"list": {"i": ["1", "1", "1", "1"]}}, "T": {"type": "DT_FLOAT"}, "data_format": {"s": "TkhXQw=="}, "strides": {"list": {"i": ["1", "2", "2", "1"]}}, "use_cudnn_on_gpu": {"b": true}, "explicit_paddings": {"list": {}}, "num_args": {"i": "1"}, "epsilon": {"f": 0.0}, "padding": {"s": "VkFMSUQ="}, "fused_ops": {"list": {"s": ["Qmlhc0FkZA=="]}}}}, {"name": "bn4e_branch2c/cond/FusedBatchNorm/Switch_3", "op": "Switch", "input": ["bn4e_branch2c/moving_mean", "bn_conv1/keras_learning_phase"], "attr": {"T": {"type": "DT_FLOAT"}}}, {"name": "bn5c_branch2a/cond/FusedBatchNorm/Switch_3", "op": "Switch", "input": ["bn5c_branch2a/moving_mean", "bn_conv1/keras_learning_phase"], "attr": {"T": {"type": "DT_FLOAT"}}}, {"name": "bn4e_branch2c/cond/FusedBatchNorm/Switch_4", "op": "Switch", "input": ["bn4e_branch2c/moving_variance", "bn_conv1/keras_learning_phase"], "attr": {"T": {"type": "DT_FLOAT"}}}, {"name": "bn5c_branch2a/cond/FusedBatchNorm/Switch_4", "op": "Switch", "input": ["bn5c_branch2a/moving_variance", "bn_conv1/keras_learning_phase"], "attr": {"T": {"type": "DT_FLOAT"}}}, {"name": "bn4f_branch2a/cond/FusedBatchNorm/Switch_1", "op": "Switch", "input": ["bn4f_branch2a/gamma", "bn_conv1/keras_learning_phase"], "attr": {"T": {"type": "DT_FLOAT"}}}, {"name": "bn4f_branch2a/cond/FusedBatchNorm/Switch_2", "op": "Switch", "input": ["bn4f_branch2a/beta", "bn_conv1/keras_learning_phase"], "attr": {"T": {"type": "DT_FLOAT"}}}, {"name": "bn4f_branch2a/cond/FusedBatchNorm/Switch_3", "op": "Switch", "input": ["bn4f_branch2a/moving_mean", "bn_conv1/keras_learning_phase"], "attr": {"T": {"type": "DT_FLOAT"}}}, {"name": "bn4f_branch2a/cond/FusedBatchNorm/Switch_4", "op": "Switch", "input": ["bn4f_branch2a/moving_variance", "bn_conv1/keras_learning_phase"], "attr": {"T": {"type": "DT_FLOAT"}}}, {"name": "bn4f_branch2b/cond/FusedBatchNorm/Switch_1", "op": "Switch", "input": ["bn4f_branch2b/gamma", "bn_conv1/keras_learning_phase"], "attr": {"T": {"type": "DT_FLOAT"}}}, {"name": "bn4f_branch2b/cond/FusedBatchNorm/Switch_2", "op": "Switch", "input": ["bn4f_branch2b/beta", "bn_conv1/keras_learning_phase"], "attr": {"T": {"type": "DT_FLOAT"}}}, {"name": "bn_conv1/cond/FusedBatchNorm/Switch_1", "op": "Switch", "input": ["bn_conv1/gamma", "bn_conv1/keras_learning_phase"], "attr": {"T": {"type": "DT_FLOAT"}}}, {"name": "bn4f_branch2b/cond/FusedBatchNorm/Switch_3", "op": "Switch", "input": ["bn4f_branch2b/moving_mean", "bn_conv1/keras_learning_phase"], "attr": {"T": {"type": "DT_FLOAT"}}}, {"name": "bn_conv1/cond/FusedBatchNorm/Switch_2", "op": "Switch", "input": ["bn_conv1/beta", "bn_conv1/keras_learning_phase"], "attr": {"T": {"type": "DT_FLOAT"}}}, {"name": "bn_conv1/cond/FusedBatchNorm/Switch_3", "op": "Switch", "input": ["bn_conv1/moving_mean", "bn_conv1/keras_learning_phase"], "attr": {"T": {"type": "DT_FLOAT"}}}, {"name": "bn_conv1/cond/FusedBatchNorm/Switch_4", "op": "Switch", "input": ["bn_conv1/moving_variance", "bn_conv1/keras_learning_phase"], "attr": {"T": {"type": "DT_FLOAT"}}}, {"name": "bn4f_branch2b/cond/FusedBatchNorm/Switch_4", "op": "Switch", "input": ["bn4f_branch2b/moving_variance", "bn_conv1/keras_learning_phase"], "attr": {"T": {"type": "DT_FLOAT"}}}, {"name": "bn2a_branch2a/cond/FusedBatchNorm/Switch_1", "op": "Switch", "input": ["bn2a_branch2a/gamma", "bn_conv1/keras_learning_phase"], "attr": {"T": {"type": "DT_FLOAT"}}}, {"name": "bn2a_branch2a/cond/FusedBatchNorm/Switch_2", "op": "Switch", "input": ["bn2a_branch2a/beta", "bn_conv1/keras_learning_phase"], "attr": {"T": {"type": "DT_FLOAT"}}}, {"name": "bn2a_branch2a/cond/FusedBatchNorm/Switch_3", "op": "Switch", "input": ["bn2a_branch2a/moving_mean", "bn_conv1/keras_learning_phase"], "attr": {"T": {"type": "DT_FLOAT"}}}, {"name": "bn2a_branch2a/cond/FusedBatchNorm/Switch_4", "op": "Switch", "input": ["bn2a_branch2a/moving_variance", "bn_conv1/keras_learning_phase"], "attr": {"T": {"type": "DT_FLOAT"}}}, {"name": "bn2a_branch2b/cond/FusedBatchNorm/Switch_1", "op": "Switch", "input": ["bn2a_branch2b/gamma", "bn_conv1/keras_learning_phase"], "attr": {"T": {"type": "DT_FLOAT"}}}, {"name": "bn2a_branch2b/cond/FusedBatchNorm/Switch_2", "op": "Switch", "input": ["bn2a_branch2b/beta", "bn_conv1/keras_learning_phase"], "attr": {"T": {"type": "DT_FLOAT"}}}, {"name": "bn2a_branch2b/cond/FusedBatchNorm/Switch_3", "op": "Switch", "input": ["bn2a_branch2b/moving_mean", "bn_conv1/keras_learning_phase"], "attr": {"T": {"type": "DT_FLOAT"}}}, {"name": "bn2a_branch2b/cond/FusedBatchNorm/Switch_4", "op": "Switch", "input": ["bn2a_branch2b/moving_variance", "bn_conv1/keras_learning_phase"], "attr": {"T": {"type": "DT_FLOAT"}}}, {"name": "bn2a_branch2c/cond/FusedBatchNorm/Switch_1", "op": "Switch", "input": ["bn2a_branch2c/gamma", "bn_conv1/keras_learning_phase"], "attr": {"T": {"type": "DT_FLOAT"}}}, {"name": "bn2a_branch2c/cond/FusedBatchNorm/Switch_2", "op": "Switch", "input": ["bn2a_branch2c/beta", "bn_conv1/keras_learning_phase"], "attr": {"T": {"type": "DT_FLOAT"}}}, {"name": "bn2a_branch2c/cond/FusedBatchNorm/Switch_3", "op": "Switch", "input": ["bn2a_branch2c/moving_mean", "bn_conv1/keras_learning_phase"], "attr": {"T": {"type": "DT_FLOAT"}}}, {"name": "bn4f_branch2c/cond/FusedBatchNorm/Switch_1", "op": "Switch", "input": ["bn4f_branch2c/gamma", "bn_conv1/keras_learning_phase"], "attr": {"T": {"type": "DT_FLOAT"}}}, {"name": "bn2a_branch2c/cond/FusedBatchNorm/Switch_4", "op": "Switch", "input": ["bn2a_branch2c/moving_variance", "bn_conv1/keras_learning_phase"], "attr": {"T": {"type": "DT_FLOAT"}}}, {"name": "bn4f_branch2c/cond/FusedBatchNorm/Switch_2", "op": "Switch", "input": ["bn4f_branch2c/beta", "bn_conv1/keras_learning_phase"], "attr": {"T": {"type": "DT_FLOAT"}}}, {"name": "bn2a_branch1/cond/FusedBatchNorm/Switch_1", "op": "Switch", "input": ["bn2a_branch1/gamma", "bn_conv1/keras_learning_phase"], "attr": {"T": {"type": "DT_FLOAT"}}}, {"name": "bn2a_branch1/cond/FusedBatchNorm/Switch_3", "op": "Switch", "input": ["bn2a_branch1/moving_mean", "bn_conv1/keras_learning_phase"], "attr": {"T": {"type": "DT_FLOAT"}}}, {"name": "bn4f_branch2c/cond/FusedBatchNorm/Switch_3", "op": "Switch", "input": ["bn4f_branch2c/moving_mean", "bn_conv1/keras_learning_phase"], "attr": {"T": {"type": "DT_FLOAT"}}}, {"name": "bn2a_branch1/cond/FusedBatchNorm/Switch_4", "op": "Switch", "input": ["bn2a_branch1/moving_variance", "bn_conv1/keras_learning_phase"], "attr": {"T": {"type": "DT_FLOAT"}}}, {"name": "bn4f_branch2c/cond/FusedBatchNorm/Switch_4", "op": "Switch", "input": ["bn4f_branch2c/moving_variance", "bn_conv1/keras_learning_phase"], "attr": {"T": {"type": "DT_FLOAT"}}}, {"name": "bn2b_branch2a/cond/FusedBatchNorm/Switch_1", "op": "Switch", "input": ["bn2b_branch2a/gamma", "bn_conv1/keras_learning_phase"], "attr": {"T": {"type": "DT_FLOAT"}}}, {"name": "bn2b_branch2a/cond/FusedBatchNorm/Switch_2", "op": "Switch", "input": ["bn2b_branch2a/beta", "bn_conv1/keras_learning_phase"], "attr": {"T": {"type": "DT_FLOAT"}}}, {"name": "bn2b_branch2a/cond/FusedBatchNorm/Switch_3", "op": "Switch", "input": ["bn2b_branch2a/moving_mean", "bn_conv1/keras_learning_phase"], "attr": {"T": {"type": "DT_FLOAT"}}}, {"name": "bn2b_branch2a/cond/FusedBatchNorm/Switch_4", "op": "Switch", "input": ["bn2b_branch2a/moving_variance", "bn_conv1/keras_learning_phase"], "attr": {"T": {"type": "DT_FLOAT"}}}, {"name": "bn2b_branch2b/cond/FusedBatchNorm/Switch_1", "op": "Switch", "input": ["bn2b_branch2b/gamma", "bn_conv1/keras_learning_phase"], "attr": {"T": {"type": "DT_FLOAT"}}}, {"name": "bn2b_branch2b/cond/FusedBatchNorm/Switch_2", "op": "Switch", "input": ["bn2b_branch2b/beta", "bn_conv1/keras_learning_phase"], "attr": {"T": {"type": "DT_FLOAT"}}}, {"name": "bn2b_branch2b/cond/FusedBatchNorm/Switch_3", "op": "Switch", "input": ["bn2b_branch2b/moving_mean", "bn_conv1/keras_learning_phase"], "attr": {"T": {"type": "DT_FLOAT"}}}, {"name": "bn2b_branch2b/cond/FusedBatchNorm/Switch_4", "op": "Switch", "input": ["bn2b_branch2b/moving_variance", "bn_conv1/keras_learning_phase"], "attr": {"T": {"type": "DT_FLOAT"}}}, {"name": "bn5c_branch2b/cond/FusedBatchNorm/Switch_1", "op": "Switch", "input": ["bn5c_branch2b/gamma", "bn_conv1/keras_learning_phase"], "attr": {"T": {"type": "DT_FLOAT"}}}, {"name": "bn2b_branch2c/cond/FusedBatchNorm/Switch_1", "op": "Switch", "input": ["bn2b_branch2c/gamma", "bn_conv1/keras_learning_phase"], "attr": {"T": {"type": "DT_FLOAT"}}}, {"name": "bn2b_branch2c/cond/FusedBatchNorm/Switch_2", "op": "Switch", "input": ["bn2b_branch2c/beta", "bn_conv1/keras_learning_phase"], "attr": {"T": {"type": "DT_FLOAT"}}}, {"name": "bn2b_branch2c/cond/FusedBatchNorm/Switch_3", "op": "Switch", "input": ["bn2b_branch2c/moving_mean", "bn_conv1/keras_learning_phase"], "attr": {"T": {"type": "DT_FLOAT"}}}, {"name": "bn2b_branch2c/cond/FusedBatchNorm/Switch_4", "op": "Switch", "input": ["bn2b_branch2c/moving_variance", "bn_conv1/keras_learning_phase"], "attr": {"T": {"type": "DT_FLOAT"}}}, {"name": "bn5a_branch2a/cond/FusedBatchNorm/Switch_1", "op": "Switch", "input": ["bn5a_branch2a/gamma", "bn_conv1/keras_learning_phase"], "attr": {"T": {"type": "DT_FLOAT"}}}, {"name": "bn2c_branch2a/cond/FusedBatchNorm/Switch_1", "op": "Switch", "input": ["bn2c_branch2a/gamma", "bn_conv1/keras_learning_phase"], "attr": {"T": {"type": "DT_FLOAT"}}}, {"name": "bn2c_branch2a/cond/FusedBatchNorm/Switch_2", "op": "Switch", "input": ["bn2c_branch2a/beta", "bn_conv1/keras_learning_phase"], "attr": {"T": {"type": "DT_FLOAT"}}}, {"name": "bn2c_branch2a/cond/FusedBatchNorm/Switch_3", "op": "Switch", "input": ["bn2c_branch2a/moving_mean", "bn_conv1/keras_learning_phase"], "attr": {"T": {"type": "DT_FLOAT"}}}, {"name": "bn5a_branch2a/cond/FusedBatchNorm/Switch_2", "op": "Switch", "input": ["bn5a_branch2a/beta", "bn_conv1/keras_learning_phase"], "attr": {"T": {"type": "DT_FLOAT"}}}, {"name": "bn2c_branch2a/cond/FusedBatchNorm/Switch_4", "op": "Switch", "input": ["bn2c_branch2a/moving_variance", "bn_conv1/keras_learning_phase"], "attr": {"T": {"type": "DT_FLOAT"}}}, {"name": "bn5c_branch2b/cond/FusedBatchNorm/Switch_2", "op": "Switch", "input": ["bn5c_branch2b/beta", "bn_conv1/keras_learning_phase"], "attr": {"T": {"type": "DT_FLOAT"}}}, {"name": "bn5a_branch2a/cond/FusedBatchNorm/Switch_3", "op": "Switch", "input": ["bn5a_branch2a/moving_mean", "bn_conv1/keras_learning_phase"], "attr": {"T": {"type": "DT_FLOAT"}}}, {"name": "bn2c_branch2b/cond/FusedBatchNorm/Switch_1", "op": "Switch", "input": ["bn2c_branch2b/gamma", "bn_conv1/keras_learning_phase"], "attr": {"T": {"type": "DT_FLOAT"}}}, {"name": "bn2c_branch2b/cond/FusedBatchNorm/Switch_2", "op": "Switch", "input": ["bn2c_branch2b/beta", "bn_conv1/keras_learning_phase"], "attr": {"T": {"type": "DT_FLOAT"}}}, {"name": "bn2c_branch2b/cond/FusedBatchNorm/Switch_3", "op": "Switch", "input": ["bn2c_branch2b/moving_mean", "bn_conv1/keras_learning_phase"], "attr": {"T": {"type": "DT_FLOAT"}}}, {"name": "bn5a_branch2a/cond/FusedBatchNorm/Switch_4", "op": "Switch", "input": ["bn5a_branch2a/moving_variance", "bn_conv1/keras_learning_phase"], "attr": {"T": {"type": "DT_FLOAT"}}}, {"name": "bn2c_branch2b/cond/FusedBatchNorm/Switch_4", "op": "Switch", "input": ["bn2c_branch2b/moving_variance", "bn_conv1/keras_learning_phase"], "attr": {"T": {"type": "DT_FLOAT"}}}, {"name": "bn2c_branch2c/cond/FusedBatchNorm/Switch_1", "op": "Switch", "input": ["bn2c_branch2c/gamma", "bn_conv1/keras_learning_phase"], "attr": {"T": {"type": "DT_FLOAT"}}}, {"name": "bn2c_branch2c/cond/FusedBatchNorm/Switch_2", "op": "Switch", "input": ["bn2c_branch2c/beta", "bn_conv1/keras_learning_phase"], "attr": {"T": {"type": "DT_FLOAT"}}}, {"name": "bn2c_branch2c/cond/FusedBatchNorm/Switch_3", "op": "Switch", "input": ["bn2c_branch2c/moving_mean", "bn_conv1/keras_learning_phase"], "attr": {"T": {"type": "DT_FLOAT"}}}, {"name": "bn2c_branch2c/cond/FusedBatchNorm/Switch_4", "op": "Switch", "input": ["bn2c_branch2c/moving_variance", "bn_conv1/keras_learning_phase"], "attr": {"T": {"type": "DT_FLOAT"}}}, {"name": "bn3a_branch2a/cond/FusedBatchNorm/Switch_1", "op": "Switch", "input": ["bn3a_branch2a/gamma", "bn_conv1/keras_learning_phase"], "attr": {"T": {"type": "DT_FLOAT"}}}, {"name": "bn3a_branch2a/cond/FusedBatchNorm/Switch_2", "op": "Switch", "input": ["bn3a_branch2a/beta", "bn_conv1/keras_learning_phase"], "attr": {"T": {"type": "DT_FLOAT"}}}, {"name": "bn5c_branch2b/cond/FusedBatchNorm/Switch_3", "op": "Switch", "input": ["bn5c_branch2b/moving_mean", "bn_conv1/keras_learning_phase"], "attr": {"T": {"type": "DT_FLOAT"}}}, {"name": "bn3a_branch2a/cond/FusedBatchNorm/Switch_3", "op": "Switch", "input": ["bn3a_branch2a/moving_mean", "bn_conv1/keras_learning_phase"], "attr": {"T": {"type": "DT_FLOAT"}}}, {"name": "bn3a_branch2a/cond/FusedBatchNorm/Switch_4", "op": "Switch", "input": ["bn3a_branch2a/moving_variance", "bn_conv1/keras_learning_phase"], "attr": {"T": {"type": "DT_FLOAT"}}}, {"name": "bn3a_branch2b/cond/FusedBatchNorm/Switch_1", "op": "Switch", "input": ["bn3a_branch2b/gamma", "bn_conv1/keras_learning_phase"], "attr": {"T": {"type": "DT_FLOAT"}}}, {"name": "bn3a_branch2b/cond/FusedBatchNorm/Switch_2", "op": "Switch", "input": ["bn3a_branch2b/beta", "bn_conv1/keras_learning_phase"], "attr": {"T": {"type": "DT_FLOAT"}}}, {"name": "bn5a_branch2b/cond/FusedBatchNorm/Switch_1", "op": "Switch", "input": ["bn5a_branch2b/gamma", "bn_conv1/keras_learning_phase"], "attr": {"T": {"type": "DT_FLOAT"}}}, {"name": "bn3a_branch2b/cond/FusedBatchNorm/Switch_3", "op": "Switch", "input": ["bn3a_branch2b/moving_mean", "bn_conv1/keras_learning_phase"], "attr": {"T": {"type": "DT_FLOAT"}}}, {"name": "bn3a_branch2b/cond/FusedBatchNorm/Switch_4", "op": "Switch", "input": ["bn3a_branch2b/moving_variance", "bn_conv1/keras_learning_phase"], "attr": {"T": {"type": "DT_FLOAT"}}}, {"name": "bn5a_branch2b/cond/FusedBatchNorm/Switch_2", "op": "Switch", "input": ["bn5a_branch2b/beta", "bn_conv1/keras_learning_phase"], "attr": {"T": {"type": "DT_FLOAT"}}}, {"name": "bn5c_branch2b/cond/FusedBatchNorm/Switch_4", "op": "Switch", "input": ["bn5c_branch2b/moving_variance", "bn_conv1/keras_learning_phase"], "attr": {"T": {"type": "DT_FLOAT"}}}, {"name": "bn3a_branch2c/cond/FusedBatchNorm/Switch_1", "op": "Switch", "input": ["bn3a_branch2c/gamma", "bn_conv1/keras_learning_phase"], "attr": {"T": {"type": "DT_FLOAT"}}}, {"name": "bn3a_branch2c/cond/FusedBatchNorm/Switch_2", "op": "Switch", "input": ["bn3a_branch2c/beta", "bn_conv1/keras_learning_phase"], "attr": {"T": {"type": "DT_FLOAT"}}}, {"name": "bn5a_branch2b/cond/FusedBatchNorm/Switch_3", "op": "Switch", "input": ["bn5a_branch2b/moving_mean", "bn_conv1/keras_learning_phase"], "attr": {"T": {"type": "DT_FLOAT"}}}, {"name": "bn3a_branch2c/cond/FusedBatchNorm/Switch_3", "op": "Switch", "input": ["bn3a_branch2c/moving_mean", "bn_conv1/keras_learning_phase"], "attr": {"T": {"type": "DT_FLOAT"}}}, {"name": "bn3a_branch2c/cond/FusedBatchNorm/Switch_4", "op": "Switch", "input": ["bn3a_branch2c/moving_variance", "bn_conv1/keras_learning_phase"], "attr": {"T": {"type": "DT_FLOAT"}}}, {"name": "bn5a_branch2b/cond/FusedBatchNorm/Switch_4", "op": "Switch", "input": ["bn5a_branch2b/moving_variance", "bn_conv1/keras_learning_phase"], "attr": {"T": {"type": "DT_FLOAT"}}}, {"name": "bn3a_branch1/cond/FusedBatchNorm/Switch_1", "op": "Switch", "input": ["bn3a_branch1/gamma", "bn_conv1/keras_learning_phase"], "attr": {"T": {"type": "DT_FLOAT"}}}, {"name": "bn3a_branch1/cond/FusedBatchNorm/Switch_3", "op": "Switch", "input": ["bn3a_branch1/moving_mean", "bn_conv1/keras_learning_phase"], "attr": {"T": {"type": "DT_FLOAT"}}}, {"name": "bn3a_branch1/cond/FusedBatchNorm/Switch_4", "op": "Switch", "input": ["bn3a_branch1/moving_variance", "bn_conv1/keras_learning_phase"], "attr": {"T": {"type": "DT_FLOAT"}}}, {"name": "bn3b_branch2a/cond/FusedBatchNorm/Switch_1", "op": "Switch", "input": ["bn3b_branch2a/gamma", "bn_conv1/keras_learning_phase"], "attr": {"T": {"type": "DT_FLOAT"}}}, {"name": "bn3b_branch2a/cond/FusedBatchNorm/Switch_2", "op": "Switch", "input": ["bn3b_branch2a/beta", "bn_conv1/keras_learning_phase"], "attr": {"T": {"type": "DT_FLOAT"}}}, {"name": "bn3b_branch2a/cond/FusedBatchNorm/Switch_3", "op": "Switch", "input": ["bn3b_branch2a/moving_mean", "bn_conv1/keras_learning_phase"], "attr": {"T": {"type": "DT_FLOAT"}}}, {"name": "bn3b_branch2a/cond/FusedBatchNorm/Switch_4", "op": "Switch", "input": ["bn3b_branch2a/moving_variance", "bn_conv1/keras_learning_phase"], "attr": {"T": {"type": "DT_FLOAT"}}}, {"name": "bn3b_branch2b/cond/FusedBatchNorm/Switch_1", "op": "Switch", "input": ["bn3b_branch2b/gamma", "bn_conv1/keras_learning_phase"], "attr": {"T": {"type": "DT_FLOAT"}}}, {"name": "bn3b_branch2b/cond/FusedBatchNorm/Switch_2", "op": "Switch", "input": ["bn3b_branch2b/beta", "bn_conv1/keras_learning_phase"], "attr": {"T": {"type": "DT_FLOAT"}}}, {"name": "bn3b_branch2b/cond/FusedBatchNorm/Switch_3", "op": "Switch", "input": ["bn3b_branch2b/moving_mean", "bn_conv1/keras_learning_phase"], "attr": {"T": {"type": "DT_FLOAT"}}}, {"name": "bn3b_branch2b/cond/FusedBatchNorm/Switch_4", "op": "Switch", "input": ["bn3b_branch2b/moving_variance", "bn_conv1/keras_learning_phase"], "attr": {"T": {"type": "DT_FLOAT"}}}, {"name": "bn5a_branch2c/cond/FusedBatchNorm/Switch_1", "op": "Switch", "input": ["bn5a_branch2c/gamma", "bn_conv1/keras_learning_phase"], "attr": {"T": {"type": "DT_FLOAT"}}}, {"name": "bn3b_branch2c/cond/FusedBatchNorm/Switch_1", "op": "Switch", "input": ["bn3b_branch2c/gamma", "bn_conv1/keras_learning_phase"], "attr": {"T": {"type": "DT_FLOAT"}}}, {"name": "bn5a_branch2c/cond/FusedBatchNorm/Switch_2", "op": "Switch", "input": ["bn5a_branch2c/beta", "bn_conv1/keras_learning_phase"], "attr": {"T": {"type": "DT_FLOAT"}}}, {"name": "bn3b_branch2c/cond/FusedBatchNorm/Switch_2", "op": "Switch", "input": ["bn3b_branch2c/beta", "bn_conv1/keras_learning_phase"], "attr": {"T": {"type": "DT_FLOAT"}}}, {"name": "bn3b_branch2c/cond/FusedBatchNorm/Switch_3", "op": "Switch", "input": ["bn3b_branch2c/moving_mean", "bn_conv1/keras_learning_phase"], "attr": {"T": {"type": "DT_FLOAT"}}}, {"name": "bn3b_branch2c/cond/FusedBatchNorm/Switch_4", "op": "Switch", "input": ["bn3b_branch2c/moving_variance", "bn_conv1/keras_learning_phase"], "attr": {"T": {"type": "DT_FLOAT"}}}, {"name": "bn5a_branch2c/cond/FusedBatchNorm/Switch_3", "op": "Switch", "input": ["bn5a_branch2c/moving_mean", "bn_conv1/keras_learning_phase"], "attr": {"T": {"type": "DT_FLOAT"}}}, {"name": "bn3c_branch2a/cond/FusedBatchNorm/Switch_1", "op": "Switch", "input": ["bn3c_branch2a/gamma", "bn_conv1/keras_learning_phase"], "attr": {"T": {"type": "DT_FLOAT"}}}, {"name": "bn5a_branch2c/cond/FusedBatchNorm/Switch_4", "op": "Switch", "input": ["bn5a_branch2c/moving_variance", "bn_conv1/keras_learning_phase"], "attr": {"T": {"type": "DT_FLOAT"}}}, {"name": "bn3c_branch2a/cond/FusedBatchNorm/Switch_2", "op": "Switch", "input": ["bn3c_branch2a/beta", "bn_conv1/keras_learning_phase"], "attr": {"T": {"type": "DT_FLOAT"}}}, {"name": "bn3c_branch2a/cond/FusedBatchNorm/Switch_3", "op": "Switch", "input": ["bn3c_branch2a/moving_mean", "bn_conv1/keras_learning_phase"], "attr": {"T": {"type": "DT_FLOAT"}}}, {"name": "bn3c_branch2a/cond/FusedBatchNorm/Switch_4", "op": "Switch", "input": ["bn3c_branch2a/moving_variance", "bn_conv1/keras_learning_phase"], "attr": {"T": {"type": "DT_FLOAT"}}}, {"name": "bn3c_branch2b/cond/FusedBatchNorm/Switch_1", "op": "Switch", "input": ["bn3c_branch2b/gamma", "bn_conv1/keras_learning_phase"], "attr": {"T": {"type": "DT_FLOAT"}}}, {"name": "bn3c_branch2b/cond/FusedBatchNorm/Switch_2", "op": "Switch", "input": ["bn3c_branch2b/beta", "bn_conv1/keras_learning_phase"], "attr": {"T": {"type": "DT_FLOAT"}}}, {"name": "bn3c_branch2b/cond/FusedBatchNorm/Switch_3", "op": "Switch", "input": ["bn3c_branch2b/moving_mean", "bn_conv1/keras_learning_phase"], "attr": {"T": {"type": "DT_FLOAT"}}}, {"name": "bn3c_branch2b/cond/FusedBatchNorm/Switch_4", "op": "Switch", "input": ["bn3c_branch2b/moving_variance", "bn_conv1/keras_learning_phase"], "attr": {"T": {"type": "DT_FLOAT"}}}, {"name": "bn3c_branch2c/cond/FusedBatchNorm/Switch_1", "op": "Switch", "input": ["bn3c_branch2c/gamma", "bn_conv1/keras_learning_phase"], "attr": {"T": {"type": "DT_FLOAT"}}}, {"name": "bn3c_branch2c/cond/FusedBatchNorm/Switch_2", "op": "Switch", "input": ["bn3c_branch2c/beta", "bn_conv1/keras_learning_phase"], "attr": {"T": {"type": "DT_FLOAT"}}}, {"name": "bn3c_branch2c/cond/FusedBatchNorm/Switch_3", "op": "Switch", "input": ["bn3c_branch2c/moving_mean", "bn_conv1/keras_learning_phase"], "attr": {"T": {"type": "DT_FLOAT"}}}, {"name": "bn3c_branch2c/cond/FusedBatchNorm/Switch_4", "op": "Switch", "input": ["bn3c_branch2c/moving_variance", "bn_conv1/keras_learning_phase"], "attr": {"T": {"type": "DT_FLOAT"}}}, {"name": "bn5a_branch1/cond/FusedBatchNorm/Switch_1", "op": "Switch", "input": ["bn5a_branch1/gamma", "bn_conv1/keras_learning_phase"], "attr": {"T": {"type": "DT_FLOAT"}}}, {"name": "bn3d_branch2a/cond/FusedBatchNorm/Switch_1", "op": "Switch", "input": ["bn3d_branch2a/gamma", "bn_conv1/keras_learning_phase"], "attr": {"T": {"type": "DT_FLOAT"}}}, {"name": "bn3d_branch2a/cond/FusedBatchNorm/Switch_2", "op": "Switch", "input": ["bn3d_branch2a/beta", "bn_conv1/keras_learning_phase"], "attr": {"T": {"type": "DT_FLOAT"}}}, {"name": "bn3d_branch2a/cond/FusedBatchNorm/Switch_3", "op": "Switch", "input": ["bn3d_branch2a/moving_mean", "bn_conv1/keras_learning_phase"], "attr": {"T": {"type": "DT_FLOAT"}}}, {"name": "bn3d_branch2a/cond/FusedBatchNorm/Switch_4", "op": "Switch", "input": ["bn3d_branch2a/moving_variance", "bn_conv1/keras_learning_phase"], "attr": {"T": {"type": "DT_FLOAT"}}}, {"name": "bn5a_branch1/cond/FusedBatchNorm/Switch_3", "op": "Switch", "input": ["bn5a_branch1/moving_mean", "bn_conv1/keras_learning_phase"], "attr": {"T": {"type": "DT_FLOAT"}}}, {"name": "bn3d_branch2b/cond/FusedBatchNorm/Switch_1", "op": "Switch", "input": ["bn3d_branch2b/gamma", "bn_conv1/keras_learning_phase"], "attr": {"T": {"type": "DT_FLOAT"}}}, {"name": "bn3d_branch2b/cond/FusedBatchNorm/Switch_2", "op": "Switch", "input": ["bn3d_branch2b/beta", "bn_conv1/keras_learning_phase"], "attr": {"T": {"type": "DT_FLOAT"}}}, {"name": "bn5a_branch1/cond/FusedBatchNorm/Switch_4", "op": "Switch", "input": ["bn5a_branch1/moving_variance", "bn_conv1/keras_learning_phase"], "attr": {"T": {"type": "DT_FLOAT"}}}, {"name": "bn3d_branch2b/cond/FusedBatchNorm/Switch_3", "op": "Switch", "input": ["bn3d_branch2b/moving_mean", "bn_conv1/keras_learning_phase"], "attr": {"T": {"type": "DT_FLOAT"}}}, {"name": "bn3d_branch2b/cond/FusedBatchNorm/Switch_4", "op": "Switch", "input": ["bn3d_branch2b/moving_variance", "bn_conv1/keras_learning_phase"], "attr": {"T": {"type": "DT_FLOAT"}}}, {"name": "bn3d_branch2c/cond/FusedBatchNorm/Switch_1", "op": "Switch", "input": ["bn3d_branch2c/gamma", "bn_conv1/keras_learning_phase"], "attr": {"T": {"type": "DT_FLOAT"}}}, {"name": "bn3d_branch2c/cond/FusedBatchNorm/Switch_2", "op": "Switch", "input": ["bn3d_branch2c/beta", "bn_conv1/keras_learning_phase"], "attr": {"T": {"type": "DT_FLOAT"}}}, {"name": "bn3d_branch2c/cond/FusedBatchNorm/Switch_3", "op": "Switch", "input": ["bn3d_branch2c/moving_mean", "bn_conv1/keras_learning_phase"], "attr": {"T": {"type": "DT_FLOAT"}}}, {"name": "bn3d_branch2c/cond/FusedBatchNorm/Switch_4", "op": "Switch", "input": ["bn3d_branch2c/moving_variance", "bn_conv1/keras_learning_phase"], "attr": {"T": {"type": "DT_FLOAT"}}}, {"name": "bn4a_branch2a/cond/FusedBatchNorm/Switch_1", "op": "Switch", "input": ["bn4a_branch2a/gamma", "bn_conv1/keras_learning_phase"], "attr": {"T": {"type": "DT_FLOAT"}}}, {"name": "bn4a_branch2a/cond/FusedBatchNorm/Switch_2", "op": "Switch", "input": ["bn4a_branch2a/beta", "bn_conv1/keras_learning_phase"], "attr": {"T": {"type": "DT_FLOAT"}}}, {"name": "bn4a_branch2a/cond/FusedBatchNorm/Switch_3", "op": "Switch", "input": ["bn4a_branch2a/moving_mean", "bn_conv1/keras_learning_phase"], "attr": {"T": {"type": "DT_FLOAT"}}}, {"name": "bn4a_branch2a/cond/FusedBatchNorm/Switch_4", "op": "Switch", "input": ["bn4a_branch2a/moving_variance", "bn_conv1/keras_learning_phase"], "attr": {"T": {"type": "DT_FLOAT"}}}, {"name": "bn4a_branch2b/cond/FusedBatchNorm/Switch_1", "op": "Switch", "input": ["bn4a_branch2b/gamma", "bn_conv1/keras_learning_phase"], "attr": {"T": {"type": "DT_FLOAT"}}}, {"name": "bn4a_branch2b/cond/FusedBatchNorm/Switch_2", "op": "Switch", "input": ["bn4a_branch2b/beta", "bn_conv1/keras_learning_phase"], "attr": {"T": {"type": "DT_FLOAT"}}}, {"name": "bn5b_branch2a/cond/FusedBatchNorm/Switch_1", "op": "Switch", "input": ["bn5b_branch2a/gamma", "bn_conv1/keras_learning_phase"], "attr": {"T": {"type": "DT_FLOAT"}}}, {"name": "bn4a_branch2b/cond/FusedBatchNorm/Switch_3", "op": "Switch", "input": ["bn4a_branch2b/moving_mean", "bn_conv1/keras_learning_phase"], "attr": {"T": {"type": "DT_FLOAT"}}}, {"name": "bn5c_branch2c/cond/FusedBatchNorm/Switch_1", "op": "Switch", "input": ["bn5c_branch2c/gamma", "bn_conv1/keras_learning_phase"], "attr": {"T": {"type": "DT_FLOAT"}}}, {"name": "bn4a_branch2b/cond/FusedBatchNorm/Switch_4", "op": "Switch", "input": ["bn4a_branch2b/moving_variance", "bn_conv1/keras_learning_phase"], "attr": {"T": {"type": "DT_FLOAT"}}}, {"name": "bn5b_branch2a/cond/FusedBatchNorm/Switch_2", "op": "Switch", "input": ["bn5b_branch2a/beta", "bn_conv1/keras_learning_phase"], "attr": {"T": {"type": "DT_FLOAT"}}}, {"name": "bn4a_branch2c/cond/FusedBatchNorm/Switch_1", "op": "Switch", "input": ["bn4a_branch2c/gamma", "bn_conv1/keras_learning_phase"], "attr": {"T": {"type": "DT_FLOAT"}}}, {"name": "bn4a_branch2c/cond/FusedBatchNorm/Switch_2", "op": "Switch", "input": ["bn4a_branch2c/beta", "bn_conv1/keras_learning_phase"], "attr": {"T": {"type": "DT_FLOAT"}}}, {"name": "bn5b_branch2a/cond/FusedBatchNorm/Switch_3", "op": "Switch", "input": ["bn5b_branch2a/moving_mean", "bn_conv1/keras_learning_phase"], "attr": {"T": {"type": "DT_FLOAT"}}}, {"name": "bn4a_branch2c/cond/FusedBatchNorm/Switch_3", "op": "Switch", "input": ["bn4a_branch2c/moving_mean", "bn_conv1/keras_learning_phase"], "attr": {"T": {"type": "DT_FLOAT"}}}, {"name": "bn4a_branch2c/cond/FusedBatchNorm/Switch_4", "op": "Switch", "input": ["bn4a_branch2c/moving_variance", "bn_conv1/keras_learning_phase"], "attr": {"T": {"type": "DT_FLOAT"}}}, {"name": "bn5b_branch2a/cond/FusedBatchNorm/Switch_4", "op": "Switch", "input": ["bn5b_branch2a/moving_variance", "bn_conv1/keras_learning_phase"], "attr": {"T": {"type": "DT_FLOAT"}}}, {"name": "bn5c_branch2c/cond/FusedBatchNorm/Switch_2", "op": "Switch", "input": ["bn5c_branch2c/beta", "bn_conv1/keras_learning_phase"], "attr": {"T": {"type": "DT_FLOAT"}}}, {"name": "bn4a_branch1/cond/FusedBatchNorm/Switch_1", "op": "Switch", "input": ["bn4a_branch1/gamma", "bn_conv1/keras_learning_phase"], "attr": {"T": {"type": "DT_FLOAT"}}}, {"name": "bn4a_branch1/cond/FusedBatchNorm/Switch_3", "op": "Switch", "input": ["bn4a_branch1/moving_mean", "bn_conv1/keras_learning_phase"], "attr": {"T": {"type": "DT_FLOAT"}}}, {"name": "bn4a_branch1/cond/FusedBatchNorm/Switch_4", "op": "Switch", "input": ["bn4a_branch1/moving_variance", "bn_conv1/keras_learning_phase"], "attr": {"T": {"type": "DT_FLOAT"}}}, {"name": "bn4b_branch2a/cond/FusedBatchNorm/Switch_1", "op": "Switch", "input": ["bn4b_branch2a/gamma", "bn_conv1/keras_learning_phase"], "attr": {"T": {"type": "DT_FLOAT"}}}, {"name": "bn4b_branch2a/cond/FusedBatchNorm/Switch_2", "op": "Switch", "input": ["bn4b_branch2a/beta", "bn_conv1/keras_learning_phase"], "attr": {"T": {"type": "DT_FLOAT"}}}, {"name": "bn4b_branch2a/cond/FusedBatchNorm/Switch_3", "op": "Switch", "input": ["bn4b_branch2a/moving_mean", "bn_conv1/keras_learning_phase"], "attr": {"T": {"type": "DT_FLOAT"}}}, {"name": "bn4b_branch2a/cond/FusedBatchNorm/Switch_4", "op": "Switch", "input": ["bn4b_branch2a/moving_variance", "bn_conv1/keras_learning_phase"], "attr": {"T": {"type": "DT_FLOAT"}}}, {"name": "bn4b_branch2b/cond/FusedBatchNorm/Switch_1", "op": "Switch", "input": ["bn4b_branch2b/gamma", "bn_conv1/keras_learning_phase"], "attr": {"T": {"type": "DT_FLOAT"}}}, {"name": "bn4b_branch2b/cond/FusedBatchNorm/Switch_2", "op": "Switch", "input": ["bn4b_branch2b/beta", "bn_conv1/keras_learning_phase"], "attr": {"T": {"type": "DT_FLOAT"}}}, {"name": "bn4b_branch2b/cond/FusedBatchNorm/Switch_3", "op": "Switch", "input": ["bn4b_branch2b/moving_mean", "bn_conv1/keras_learning_phase"], "attr": {"T": {"type": "DT_FLOAT"}}}, {"name": "bn4b_branch2b/cond/FusedBatchNorm/Switch_4", "op": "Switch", "input": ["bn4b_branch2b/moving_variance", "bn_conv1/keras_learning_phase"], "attr": {"T": {"type": "DT_FLOAT"}}}, {"name": "bn5b_branch2b/cond/FusedBatchNorm/Switch_1", "op": "Switch", "input": ["bn5b_branch2b/gamma", "bn_conv1/keras_learning_phase"], "attr": {"T": {"type": "DT_FLOAT"}}}, {"name": "bn5c_branch2c/cond/FusedBatchNorm/Switch_3", "op": "Switch", "input": ["bn5c_branch2c/moving_mean", "bn_conv1/keras_learning_phase"], "attr": {"T": {"type": "DT_FLOAT"}}}, {"name": "bn4b_branch2c/cond/FusedBatchNorm/Switch_1", "op": "Switch", "input": ["bn4b_branch2c/gamma", "bn_conv1/keras_learning_phase"], "attr": {"T": {"type": "DT_FLOAT"}}}, {"name": "bn5b_branch2b/cond/FusedBatchNorm/Switch_2", "op": "Switch", "input": ["bn5b_branch2b/beta", "bn_conv1/keras_learning_phase"], "attr": {"T": {"type": "DT_FLOAT"}}}, {"name": "bn4b_branch2c/cond/FusedBatchNorm/Switch_2", "op": "Switch", "input": ["bn4b_branch2c/beta", "bn_conv1/keras_learning_phase"], "attr": {"T": {"type": "DT_FLOAT"}}}, {"name": "bn4b_branch2c/cond/FusedBatchNorm/Switch_3", "op": "Switch", "input": ["bn4b_branch2c/moving_mean", "bn_conv1/keras_learning_phase"], "attr": {"T": {"type": "DT_FLOAT"}}}, {"name": "bn4b_branch2c/cond/FusedBatchNorm/Switch_4", "op": "Switch", "input": ["bn4b_branch2c/moving_variance", "bn_conv1/keras_learning_phase"], "attr": {"T": {"type": "DT_FLOAT"}}}, {"name": "bn5b_branch2b/cond/FusedBatchNorm/Switch_3", "op": "Switch", "input": ["bn5b_branch2b/moving_mean", "bn_conv1/keras_learning_phase"], "attr": {"T": {"type": "DT_FLOAT"}}}, {"name": "bn4c_branch2a/cond/FusedBatchNorm/Switch_1", "op": "Switch", "input": ["bn4c_branch2a/gamma", "bn_conv1/keras_learning_phase"], "attr": {"T": {"type": "DT_FLOAT"}}}, {"name": "bn5b_branch2b/cond/FusedBatchNorm/Switch_4", "op": "Switch", "input": ["bn5b_branch2b/moving_variance", "bn_conv1/keras_learning_phase"], "attr": {"T": {"type": "DT_FLOAT"}}}, {"name": "bn4c_branch2a/cond/FusedBatchNorm/Switch_2", "op": "Switch", "input": ["bn4c_branch2a/beta", "bn_conv1/keras_learning_phase"], "attr": {"T": {"type": "DT_FLOAT"}}}, {"name": "bn5c_branch2c/cond/FusedBatchNorm/Switch_4", "op": "Switch", "input": ["bn5c_branch2c/moving_variance", "bn_conv1/keras_learning_phase"], "attr": {"T": {"type": "DT_FLOAT"}}}, {"name": "bn4c_branch2a/cond/FusedBatchNorm/Switch_3", "op": "Switch", "input": ["bn4c_branch2a/moving_mean", "bn_conv1/keras_learning_phase"], "attr": {"T": {"type": "DT_FLOAT"}}}, {"name": "bn4c_branch2a/cond/FusedBatchNorm/Switch_4", "op": "Switch", "input": ["bn4c_branch2a/moving_variance", "bn_conv1/keras_learning_phase"], "attr": {"T": {"type": "DT_FLOAT"}}}, {"name": "bn4c_branch2b/cond/FusedBatchNorm/Switch_1", "op": "Switch", "input": ["bn4c_branch2b/gamma", "bn_conv1/keras_learning_phase"], "attr": {"T": {"type": "DT_FLOAT"}}}, {"name": "bn4c_branch2b/cond/FusedBatchNorm/Switch_2", "op": "Switch", "input": ["bn4c_branch2b/beta", "bn_conv1/keras_learning_phase"], "attr": {"T": {"type": "DT_FLOAT"}}}, {"name": "bn4c_branch2b/cond/FusedBatchNorm/Switch_3", "op": "Switch", "input": ["bn4c_branch2b/moving_mean", "bn_conv1/keras_learning_phase"], "attr": {"T": {"type": "DT_FLOAT"}}}, {"name": "bn4c_branch2b/cond/FusedBatchNorm/Switch_4", "op": "Switch", "input": ["bn4c_branch2b/moving_variance", "bn_conv1/keras_learning_phase"], "attr": {"T": {"type": "DT_FLOAT"}}}, {"name": "bn4c_branch2c/cond/FusedBatchNorm/Switch_1", "op": "Switch", "input": ["bn4c_branch2c/gamma", "bn_conv1/keras_learning_phase"], "attr": {"T": {"type": "DT_FLOAT"}}}, {"name": "bn4c_branch2c/cond/FusedBatchNorm/Switch_2", "op": "Switch", "input": ["bn4c_branch2c/beta", "bn_conv1/keras_learning_phase"], "attr": {"T": {"type": "DT_FLOAT"}}}, {"name": "bn4c_branch2c/cond/FusedBatchNorm/Switch_3", "op": "Switch", "input": ["bn4c_branch2c/moving_mean", "bn_conv1/keras_learning_phase"], "attr": {"T": {"type": "DT_FLOAT"}}}, {"name": "bn4c_branch2c/cond/FusedBatchNorm/Switch_4", "op": "Switch", "input": ["bn4c_branch2c/moving_variance", "bn_conv1/keras_learning_phase"], "attr": {"T": {"type": "DT_FLOAT"}}}, {"name": "bn5b_branch2c/cond/FusedBatchNorm/Switch_1", "op": "Switch", "input": ["bn5b_branch2c/gamma", "bn_conv1/keras_learning_phase"], "attr": {"T": {"type": "DT_FLOAT"}}}, {"name": "bn4d_branch2a/cond/FusedBatchNorm/Switch_1", "op": "Switch", "input": ["bn4d_branch2a/gamma", "bn_conv1/keras_learning_phase"], "attr": {"T": {"type": "DT_FLOAT"}}}, {"name": "bn4d_branch2a/cond/FusedBatchNorm/Switch_2", "op": "Switch", "input": ["bn4d_branch2a/beta", "bn_conv1/keras_learning_phase"], "attr": {"T": {"type": "DT_FLOAT"}}}, {"name": "bn4d_branch2a/cond/FusedBatchNorm/Switch_3", "op": "Switch", "input": ["bn4d_branch2a/moving_mean", "bn_conv1/keras_learning_phase"], "attr": {"T": {"type": "DT_FLOAT"}}}, {"name": "bn5b_branch2c/cond/FusedBatchNorm/Switch_2", "op": "Switch", "input": ["bn5b_branch2c/beta", "bn_conv1/keras_learning_phase"], "attr": {"T": {"type": "DT_FLOAT"}}}, {"name": "bn4d_branch2a/cond/FusedBatchNorm/Switch_4", "op": "Switch", "input": ["bn4d_branch2a/moving_variance", "bn_conv1/keras_learning_phase"], "attr": {"T": {"type": "DT_FLOAT"}}}, {"name": "bn5b_branch2c/cond/FusedBatchNorm/Switch_3", "op": "Switch", "input": ["bn5b_branch2c/moving_mean", "bn_conv1/keras_learning_phase"], "attr": {"T": {"type": "DT_FLOAT"}}}, {"name": "bn4d_branch2b/cond/FusedBatchNorm/Switch_1", "op": "Switch", "input": ["bn4d_branch2b/gamma", "bn_conv1/keras_learning_phase"], "attr": {"T": {"type": "DT_FLOAT"}}}, {"name": "bn4d_branch2b/cond/FusedBatchNorm/Switch_2", "op": "Switch", "input": ["bn4d_branch2b/beta", "bn_conv1/keras_learning_phase"], "attr": {"T": {"type": "DT_FLOAT"}}}, {"name": "bn4d_branch2b/cond/FusedBatchNorm/Switch_3", "op": "Switch", "input": ["bn4d_branch2b/moving_mean", "bn_conv1/keras_learning_phase"], "attr": {"T": {"type": "DT_FLOAT"}}}, {"name": "bn5b_branch2c/cond/FusedBatchNorm/Switch_4", "op": "Switch", "input": ["bn5b_branch2c/moving_variance", "bn_conv1/keras_learning_phase"], "attr": {"T": {"type": "DT_FLOAT"}}}, {"name": "bn4d_branch2b/cond/FusedBatchNorm/Switch_4", "op": "Switch", "input": ["bn4d_branch2b/moving_variance", "bn_conv1/keras_learning_phase"], "attr": {"T": {"type": "DT_FLOAT"}}}, {"name": "bn4d_branch2c/cond/FusedBatchNorm/Switch_1", "op": "Switch", "input": ["bn4d_branch2c/gamma", "bn_conv1/keras_learning_phase"], "attr": {"T": {"type": "DT_FLOAT"}}}, {"name": "bn4d_branch2c/cond/FusedBatchNorm/Switch_2", "op": "Switch", "input": ["bn4d_branch2c/beta", "bn_conv1/keras_learning_phase"], "attr": {"T": {"type": "DT_FLOAT"}}}, {"name": "bn4d_branch2c/cond/FusedBatchNorm/Switch_3", "op": "Switch", "input": ["bn4d_branch2c/moving_mean", "bn_conv1/keras_learning_phase"], "attr": {"T": {"type": "DT_FLOAT"}}}, {"name": "bn4d_branch2c/cond/FusedBatchNorm/Switch_4", "op": "Switch", "input": ["bn4d_branch2c/moving_variance", "bn_conv1/keras_learning_phase"], "attr": {"T": {"type": "DT_FLOAT"}}}, {"name": "bn4e_branch2a/cond/FusedBatchNorm/Switch_1", "op": "Switch", "input": ["bn4e_branch2a/gamma", "bn_conv1/keras_learning_phase"], "attr": {"T": {"type": "DT_FLOAT"}}}, {"name": "bn4e_branch2a/cond/FusedBatchNorm/Switch_2", "op": "Switch", "input": ["bn4e_branch2a/beta", "bn_conv1/keras_learning_phase"], "attr": {"T": {"type": "DT_FLOAT"}}}, {"name": "bn4e_branch2a/cond/FusedBatchNorm/Switch_3", "op": "Switch", "input": ["bn4e_branch2a/moving_mean", "bn_conv1/keras_learning_phase"], "attr": {"T": {"type": "DT_FLOAT"}}}, {"name": "bn4e_branch2a/cond/FusedBatchNorm/Switch_4", "op": "Switch", "input": ["bn4e_branch2a/moving_variance", "bn_conv1/keras_learning_phase"], "attr": {"T": {"type": "DT_FLOAT"}}}, {"name": "bn4e_branch2b/cond/FusedBatchNorm/Switch_1", "op": "Switch", "input": ["bn4e_branch2b/gamma", "bn_conv1/keras_learning_phase"], "attr": {"T": {"type": "DT_FLOAT"}}}, {"name": "bn4e_branch2b/cond/FusedBatchNorm/Switch_2", "op": "Switch", "input": ["bn4e_branch2b/beta", "bn_conv1/keras_learning_phase"], "attr": {"T": {"type": "DT_FLOAT"}}}, {"name": "bn4e_branch2b/cond/FusedBatchNorm/Switch_3", "op": "Switch", "input": ["bn4e_branch2b/moving_mean", "bn_conv1/keras_learning_phase"], "attr": {"T": {"type": "DT_FLOAT"}}}, {"name": "bn5c_branch2a/cond/FusedBatchNorm/Switch_1", "op": "Switch", "input": ["bn5c_branch2a/gamma", "bn_conv1/keras_learning_phase"], "attr": {"T": {"type": "DT_FLOAT"}}}, {"name": "bn4e_branch2b/cond/FusedBatchNorm/Switch_4", "op": "Switch", "input": ["bn4e_branch2b/moving_variance", "bn_conv1/keras_learning_phase"], "attr": {"T": {"type": "DT_FLOAT"}}}, {"name": "bn5c_branch2a/cond/FusedBatchNorm/Switch_2", "op": "Switch", "input": ["bn5c_branch2a/beta", "bn_conv1/keras_learning_phase"], "attr": {"T": {"type": "DT_FLOAT"}}}, {"name": "bn4e_branch2c/cond/FusedBatchNorm/Switch_1", "op": "Switch", "input": ["bn4e_branch2c/gamma", "bn_conv1/keras_learning_phase"], "attr": {"T": {"type": "DT_FLOAT"}}}, {"name": "bn4e_branch2c/cond/FusedBatchNorm/Switch_2", "op": "Switch", "input": ["bn4e_branch2c/beta", "bn_conv1/keras_learning_phase"], "attr": {"T": {"type": "DT_FLOAT"}}}, {"name": "bn_conv1/cond/FusedBatchNorm/Switch", "op": "Switch", "input": ["conv1/BiasAdd", "bn_conv1/keras_learning_phase"], "attr": {"T": {"type": "DT_FLOAT"}}}, {"name": "bn_conv1/FusedBatchNorm", "op": "FusedBatchNorm", "input": ["conv1/BiasAdd", "bn_conv1/gamma", "bn_conv1/beta", "bn4e_branch2c/Const_4", "bn4e_branch2c/Const_4"], "attr": {"epsilon": {"f": 0.0010000000474974513}, "T": {"type": "DT_FLOAT"}, "data_format": {"s": "TkhXQw=="}, "is_training": {"b": true}}}, {"name": "bn_conv1/cond/FusedBatchNorm", "op": "FusedBatchNorm", "input": ["bn_conv1/cond/FusedBatchNorm/Switch", "bn_conv1/cond/FusedBatchNorm/Switch_1", "bn_conv1/cond/FusedBatchNorm/Switch_2", "bn_conv1/cond/FusedBatchNorm/Switch_3", "bn_conv1/cond/FusedBatchNorm/Switch_4"], "attr": {"epsilon": {"f": 0.0010000000474974513}, "T": {"type": "DT_FLOAT"}, "data_format": {"s": "TkhXQw=="}, "is_training": {"b": false}}}, {"name": "bn_conv1/cond/Switch_1", "op": "Switch", "input": ["bn_conv1/FusedBatchNorm", "bn_conv1/keras_learning_phase"], "attr": {"T": {"type": "DT_FLOAT"}}}, {"name": "bn_conv1/cond/Merge", "op": "Merge", "input": ["bn_conv1/cond/FusedBatchNorm", "bn_conv1/cond/Switch_1:1"], "attr": {"T": {"type": "DT_FLOAT"}, "N": {"i": "2"}}}, {"name": "activation_1/Relu", "op": "Relu", "input": ["bn_conv1/cond/Merge"], "attr": {"T": {"type": "DT_FLOAT"}}}, {"name": "pool1_pad/Pad", "op": "Pad", "input": ["activation_1/Relu", "pool1_pad/Pad/paddings"], "attr": {"T": {"type": "DT_FLOAT"}, "Tpaddings": {"type": "DT_INT32"}}}, {"name": "max_pooling2d_1/MaxPool", "op": "MaxPool", "input": ["pool1_pad/Pad"], "attr": {"ksize": {"list": {"i": ["1", "3", "3", "1"]}}, "padding": {"s": "VkFMSUQ="}, "T": {"type": "DT_FLOAT"}, "strides": {"list": {"i": ["1", "2", "2", "1"]}}, "data_format": {"s": "TkhXQw=="}}}, {"name": "res2a_branch2a/convolution", "op": "Conv2D", "input": ["max_pooling2d_1/MaxPool", "res2a_branch2a/kernel"], "device": "/device:CPU:0", "attr": {"dilations": {"list": {"i": ["1", "1", "1", "1"]}}, "T": {"type": "DT_FLOAT"}, "data_format": {"s": "TkhXQw=="}, "strides": {"list": {"i": ["1", "1", "1", "1"]}}, "explicit_paddings": {"list": {}}, "use_cudnn_on_gpu": {"b": true}, "padding": {"s": "VkFMSUQ="}}}, {"name": "res2a_branch1/convolution", "op": "Conv2D", "input": ["max_pooling2d_1/MaxPool", "res2a_branch1/kernel"], "device": "/device:CPU:0", "attr": {"dilations": {"list": {"i": ["1", "1", "1", "1"]}}, "T": {"type": "DT_FLOAT"}, "strides": {"list": {"i": ["1", "1", "1", "1"]}}, "data_format": {"s": "TkhXQw=="}, "explicit_paddings": {"list": {}}, "use_cudnn_on_gpu": {"b": true}, "padding": {"s": "VkFMSUQ="}}}, {"name": "bn2a_branch2a/cond/FusedBatchNorm/Switch", "op": "Switch", "input": ["res2a_branch2a/convolution", "bn_conv1/keras_learning_phase"], "attr": {"T": {"type": "DT_FLOAT"}}}, {"name": "bn2a_branch2a/FusedBatchNorm", "op": "FusedBatchNorm", "input": ["res2a_branch2a/convolution", "bn2a_branch2a/gamma", "bn2a_branch2a/beta", "bn4e_branch2c/Const_4", "bn4e_branch2c/Const_4"], "attr": {"epsilon": {"f": 0.0010000000474974513}, "T": {"type": "DT_FLOAT"}, "data_format": {"s": "TkhXQw=="}, "is_training": {"b": true}}}, {"name": "bn2a_branch1/cond/FusedBatchNorm/Switch", "op": "Switch", "input": ["res2a_branch1/convolution", "bn_conv1/keras_learning_phase"], "attr": {"T": {"type": "DT_FLOAT"}}}, {"name": "bn2a_branch1/FusedBatchNorm", "op": "FusedBatchNorm", "input": ["res2a_branch1/convolution", "bn2a_branch1/gamma", "bn2a_branch2c/beta", "bn4e_branch2c/Const_4", "bn4e_branch2c/Const_4"], "attr": {"epsilon": {"f": 0.0010000000474974513}, "T": {"type": "DT_FLOAT"}, "data_format": {"s": "TkhXQw=="}, "is_training": {"b": true}}}, {"name": "bn2a_branch2a/cond/FusedBatchNorm", "op": "FusedBatchNorm", "input": ["bn2a_branch2a/cond/FusedBatchNorm/Switch", "bn2a_branch2a/cond/FusedBatchNorm/Switch_1", "bn2a_branch2a/cond/FusedBatchNorm/Switch_2", "bn2a_branch2a/cond/FusedBatchNorm/Switch_3", "bn2a_branch2a/cond/FusedBatchNorm/Switch_4"], "attr": {"epsilon": {"f": 0.0010000000474974513}, "T": {"type": "DT_FLOAT"}, "data_format": {"s": "TkhXQw=="}, "is_training": {"b": false}}}, {"name": "bn2a_branch2a/cond/Switch_1", "op": "Switch", "input": ["bn2a_branch2a/FusedBatchNorm", "bn_conv1/keras_learning_phase"], "attr": {"T": {"type": "DT_FLOAT"}}}, {"name": "bn2a_branch1/cond/FusedBatchNorm", "op": "FusedBatchNorm", "input": ["bn2a_branch1/cond/FusedBatchNorm/Switch", "bn2a_branch1/cond/FusedBatchNorm/Switch_1", "bn2a_branch2c/cond/FusedBatchNorm/Switch_2", "bn2a_branch1/cond/FusedBatchNorm/Switch_3", "bn2a_branch1/cond/FusedBatchNorm/Switch_4"], "attr": {"epsilon": {"f": 0.0010000000474974513}, "T": {"type": "DT_FLOAT"}, "data_format": {"s": "TkhXQw=="}, "is_training": {"b": false}}}, {"name": "bn2a_branch1/cond/Switch_1", "op": "Switch", "input": ["bn2a_branch1/FusedBatchNorm", "bn_conv1/keras_learning_phase"], "attr": {"T": {"type": "DT_FLOAT"}}}, {"name": "bn2a_branch2a/cond/Merge", "op": "Merge", "input": ["bn2a_branch2a/cond/FusedBatchNorm", "bn2a_branch2a/cond/Switch_1:1"], "attr": {"T": {"type": "DT_FLOAT"}, "N": {"i": "2"}}}, {"name": "bn2a_branch1/cond/Merge", "op": "Merge", "input": ["bn2a_branch1/cond/FusedBatchNorm", "bn2a_branch1/cond/Switch_1:1"], "attr": {"T": {"type": "DT_FLOAT"}, "N": {"i": "2"}}}, {"name": "activation_2/Relu", "op": "Relu", "input": ["bn2a_branch2a/cond/Merge"], "attr": {"T": {"type": "DT_FLOAT"}}}, {"name": "res2a_branch2b/convolution", "op": "Conv2D", "input": ["activation_2/Relu", "res2a_branch2b/kernel"], "device": "/device:CPU:0", "attr": {"dilations": {"list": {"i": ["1", "1", "1", "1"]}}, "T": {"type": "DT_FLOAT"}, "data_format": {"s": "TkhXQw=="}, "strides": {"list": {"i": ["1", "1", "1", "1"]}}, "explicit_paddings": {"list": {}}, "use_cudnn_on_gpu": {"b": true}, "padding": {"s": "U0FNRQ=="}}}, {"name": "bn2a_branch2b/cond/FusedBatchNorm/Switch", "op": "Switch", "input": ["res2a_branch2b/convolution", "bn_conv1/keras_learning_phase"], "attr": {"T": {"type": "DT_FLOAT"}}}, {"name": "bn2a_branch2b/FusedBatchNorm", "op": "FusedBatchNorm", "input": ["res2a_branch2b/convolution", "bn2a_branch2b/gamma", "bn2a_branch2b/beta", "bn4e_branch2c/Const_4", "bn4e_branch2c/Const_4"], "attr": {"epsilon": {"f": 0.0010000000474974513}, "T": {"type": "DT_FLOAT"}, "data_format": {"s": "TkhXQw=="}, "is_training": {"b": true}}}, {"name": "bn2a_branch2b/cond/FusedBatchNorm", "op": "FusedBatchNorm", "input": ["bn2a_branch2b/cond/FusedBatchNorm/Switch", "bn2a_branch2b/cond/FusedBatchNorm/Switch_1", "bn2a_branch2b/cond/FusedBatchNorm/Switch_2", "bn2a_branch2b/cond/FusedBatchNorm/Switch_3", "bn2a_branch2b/cond/FusedBatchNorm/Switch_4"], "attr": {"epsilon": {"f": 0.0010000000474974513}, "T": {"type": "DT_FLOAT"}, "data_format": {"s": "TkhXQw=="}, "is_training": {"b": false}}}, {"name": "bn2a_branch2b/cond/Switch_1", "op": "Switch", "input": ["bn2a_branch2b/FusedBatchNorm", "bn_conv1/keras_learning_phase"], "attr": {"T": {"type": "DT_FLOAT"}}}, {"name": "bn2a_branch2b/cond/Merge", "op": "Merge", "input": ["bn2a_branch2b/cond/FusedBatchNorm", "bn2a_branch2b/cond/Switch_1:1"], "attr": {"T": {"type": "DT_FLOAT"}, "N": {"i": "2"}}}, {"name": "activation_3/Relu", "op": "Relu", "input": ["bn2a_branch2b/cond/Merge"], "attr": {"T": {"type": "DT_FLOAT"}}}, {"name": "res2a_branch2c/convolution", "op": "Conv2D", "input": ["activation_3/Relu", "res2a_branch2c/kernel"], "device": "/device:CPU:0", "attr": {"dilations": {"list": {"i": ["1", "1", "1", "1"]}}, "T": {"type": "DT_FLOAT"}, "strides": {"list": {"i": ["1", "1", "1", "1"]}}, "data_format": {"s": "TkhXQw=="}, "explicit_paddings": {"list": {}}, "use_cudnn_on_gpu": {"b": true}, "padding": {"s": "VkFMSUQ="}}}, {"name": "bn2a_branch2c/cond/FusedBatchNorm/Switch", "op": "Switch", "input": ["res2a_branch2c/convolution", "bn_conv1/keras_learning_phase"], "attr": {"T": {"type": "DT_FLOAT"}}}, {"name": "bn2a_branch2c/FusedBatchNorm", "op": "FusedBatchNorm", "input": ["res2a_branch2c/convolution", "bn2a_branch2c/gamma", "bn2a_branch2c/beta", "bn4e_branch2c/Const_4", "bn4e_branch2c/Const_4"], "attr": {"epsilon": {"f": 0.0010000000474974513}, "T": {"type": "DT_FLOAT"}, "data_format": {"s": "TkhXQw=="}, "is_training": {"b": true}}}, {"name": "bn2a_branch2c/cond/FusedBatchNorm", "op": "FusedBatchNorm", "input": ["bn2a_branch2c/cond/FusedBatchNorm/Switch", "bn2a_branch2c/cond/FusedBatchNorm/Switch_1", "bn2a_branch2c/cond/FusedBatchNorm/Switch_2", "bn2a_branch2c/cond/FusedBatchNorm/Switch_3", "bn2a_branch2c/cond/FusedBatchNorm/Switch_4"], "attr": {"epsilon": {"f": 0.0010000000474974513}, "T": {"type": "DT_FLOAT"}, "data_format": {"s": "TkhXQw=="}, "is_training": {"b": false}}}, {"name": "bn2a_branch2c/cond/Switch_1", "op": "Switch", "input": ["bn2a_branch2c/FusedBatchNorm", "bn_conv1/keras_learning_phase"], "attr": {"T": {"type": "DT_FLOAT"}}}, {"name": "bn2a_branch2c/cond/Merge", "op": "Merge", "input": ["bn2a_branch2c/cond/FusedBatchNorm", "bn2a_branch2c/cond/Switch_1:1"], "attr": {"T": {"type": "DT_FLOAT"}, "N": {"i": "2"}}}, {"name": "add_1/add", "op": "Add", "input": ["bn2a_branch1/cond/Merge", "bn2a_branch2c/cond/Merge"], "attr": {"T": {"type": "DT_FLOAT"}}}, {"name": "activation_4/Relu", "op": "Relu", "input": ["add_1/add"], "attr": {"T": {"type": "DT_FLOAT"}}}, {"name": "res2b_branch2a/convolution", "op": "Conv2D", "input": ["activation_4/Relu", "res2b_branch2a/kernel"], "device": "/device:CPU:0", "attr": {"dilations": {"list": {"i": ["1", "1", "1", "1"]}}, "T": {"type": "DT_FLOAT"}, "strides": {"list": {"i": ["1", "1", "1", "1"]}}, "data_format": {"s": "TkhXQw=="}, "explicit_paddings": {"list": {}}, "use_cudnn_on_gpu": {"b": true}, "padding": {"s": "VkFMSUQ="}}}, {"name": "bn2b_branch2a/cond/FusedBatchNorm/Switch", "op": "Switch", "input": ["res2b_branch2a/convolution", "bn_conv1/keras_learning_phase"], "attr": {"T": {"type": "DT_FLOAT"}}}, {"name": "bn2b_branch2a/FusedBatchNorm", "op": "FusedBatchNorm", "input": ["res2b_branch2a/convolution", "bn2b_branch2a/gamma", "bn2b_branch2a/beta", "bn4e_branch2c/Const_4", "bn4e_branch2c/Const_4"], "attr": {"epsilon": {"f": 0.0010000000474974513}, "T": {"type": "DT_FLOAT"}, "data_format": {"s": "TkhXQw=="}, "is_training": {"b": true}}}, {"name": "bn2b_branch2a/cond/FusedBatchNorm", "op": "FusedBatchNorm", "input": ["bn2b_branch2a/cond/FusedBatchNorm/Switch", "bn2b_branch2a/cond/FusedBatchNorm/Switch_1", "bn2b_branch2a/cond/FusedBatchNorm/Switch_2", "bn2b_branch2a/cond/FusedBatchNorm/Switch_3", "bn2b_branch2a/cond/FusedBatchNorm/Switch_4"], "attr": {"epsilon": {"f": 0.0010000000474974513}, "T": {"type": "DT_FLOAT"}, "data_format": {"s": "TkhXQw=="}, "is_training": {"b": false}}}, {"name": "bn2b_branch2a/cond/Switch_1", "op": "Switch", "input": ["bn2b_branch2a/FusedBatchNorm", "bn_conv1/keras_learning_phase"], "attr": {"T": {"type": "DT_FLOAT"}}}, {"name": "bn2b_branch2a/cond/Merge", "op": "Merge", "input": ["bn2b_branch2a/cond/FusedBatchNorm", "bn2b_branch2a/cond/Switch_1:1"], "attr": {"T": {"type": "DT_FLOAT"}, "N": {"i": "2"}}}, {"name": "activation_5/Relu", "op": "Relu", "input": ["bn2b_branch2a/cond/Merge"], "attr": {"T": {"type": "DT_FLOAT"}}}, {"name": "res2b_branch2b/convolution", "op": "Conv2D", "input": ["activation_5/Relu", "res2b_branch2b/kernel"], "device": "/device:CPU:0", "attr": {"dilations": {"list": {"i": ["1", "1", "1", "1"]}}, "T": {"type": "DT_FLOAT"}, "data_format": {"s": "TkhXQw=="}, "strides": {"list": {"i": ["1", "1", "1", "1"]}}, "explicit_paddings": {"list": {}}, "use_cudnn_on_gpu": {"b": true}, "padding": {"s": "U0FNRQ=="}}}, {"name": "bn2b_branch2b/cond/FusedBatchNorm/Switch", "op": "Switch", "input": ["res2b_branch2b/convolution", "bn_conv1/keras_learning_phase"], "attr": {"T": {"type": "DT_FLOAT"}}}, {"name": "bn2b_branch2b/FusedBatchNorm", "op": "FusedBatchNorm", "input": ["res2b_branch2b/convolution", "bn2b_branch2b/gamma", "bn2b_branch2b/beta", "bn4e_branch2c/Const_4", "bn4e_branch2c/Const_4"], "attr": {"epsilon": {"f": 0.0010000000474974513}, "T": {"type": "DT_FLOAT"}, "data_format": {"s": "TkhXQw=="}, "is_training": {"b": true}}}, {"name": "bn2b_branch2b/cond/FusedBatchNorm", "op": "FusedBatchNorm", "input": ["bn2b_branch2b/cond/FusedBatchNorm/Switch", "bn2b_branch2b/cond/FusedBatchNorm/Switch_1", "bn2b_branch2b/cond/FusedBatchNorm/Switch_2", "bn2b_branch2b/cond/FusedBatchNorm/Switch_3", "bn2b_branch2b/cond/FusedBatchNorm/Switch_4"], "attr": {"epsilon": {"f": 0.0010000000474974513}, "T": {"type": "DT_FLOAT"}, "data_format": {"s": "TkhXQw=="}, "is_training": {"b": false}}}, {"name": "bn2b_branch2b/cond/Switch_1", "op": "Switch", "input": ["bn2b_branch2b/FusedBatchNorm", "bn_conv1/keras_learning_phase"], "attr": {"T": {"type": "DT_FLOAT"}}}, {"name": "bn2b_branch2b/cond/Merge", "op": "Merge", "input": ["bn2b_branch2b/cond/FusedBatchNorm", "bn2b_branch2b/cond/Switch_1:1"], "attr": {"T": {"type": "DT_FLOAT"}, "N": {"i": "2"}}}, {"name": "activation_6/Relu", "op": "Relu", "input": ["bn2b_branch2b/cond/Merge"], "attr": {"T": {"type": "DT_FLOAT"}}}, {"name": "res2b_branch2c/convolution", "op": "Conv2D", "input": ["activation_6/Relu", "res2b_branch2c/kernel"], "device": "/device:CPU:0", "attr": {"dilations": {"list": {"i": ["1", "1", "1", "1"]}}, "T": {"type": "DT_FLOAT"}, "data_format": {"s": "TkhXQw=="}, "strides": {"list": {"i": ["1", "1", "1", "1"]}}, "explicit_paddings": {"list": {}}, "use_cudnn_on_gpu": {"b": true}, "padding": {"s": "VkFMSUQ="}}}, {"name": "bn2b_branch2c/cond/FusedBatchNorm/Switch", "op": "Switch", "input": ["res2b_branch2c/convolution", "bn_conv1/keras_learning_phase"], "attr": {"T": {"type": "DT_FLOAT"}}}, {"name": "bn2b_branch2c/FusedBatchNorm", "op": "FusedBatchNorm", "input": ["res2b_branch2c/convolution", "bn2b_branch2c/gamma", "bn2b_branch2c/beta", "bn4e_branch2c/Const_4", "bn4e_branch2c/Const_4"], "attr": {"epsilon": {"f": 0.0010000000474974513}, "T": {"type": "DT_FLOAT"}, "data_format": {"s": "TkhXQw=="}, "is_training": {"b": true}}}, {"name": "bn2b_branch2c/cond/FusedBatchNorm", "op": "FusedBatchNorm", "input": ["bn2b_branch2c/cond/FusedBatchNorm/Switch", "bn2b_branch2c/cond/FusedBatchNorm/Switch_1", "bn2b_branch2c/cond/FusedBatchNorm/Switch_2", "bn2b_branch2c/cond/FusedBatchNorm/Switch_3", "bn2b_branch2c/cond/FusedBatchNorm/Switch_4"], "attr": {"epsilon": {"f": 0.0010000000474974513}, "T": {"type": "DT_FLOAT"}, "data_format": {"s": "TkhXQw=="}, "is_training": {"b": false}}}, {"name": "bn2b_branch2c/cond/Switch_1", "op": "Switch", "input": ["bn2b_branch2c/FusedBatchNorm", "bn_conv1/keras_learning_phase"], "attr": {"T": {"type": "DT_FLOAT"}}}, {"name": "bn2b_branch2c/cond/Merge", "op": "Merge", "input": ["bn2b_branch2c/cond/FusedBatchNorm", "bn2b_branch2c/cond/Switch_1:1"], "attr": {"T": {"type": "DT_FLOAT"}, "N": {"i": "2"}}}, {"name": "add_2/add", "op": "Add", "input": ["activation_4/Relu", "bn2b_branch2c/cond/Merge"], "attr": {"T": {"type": "DT_FLOAT"}}}, {"name": "activation_7/Relu", "op": "Relu", "input": ["add_2/add"], "attr": {"T": {"type": "DT_FLOAT"}}}, {"name": "res2c_branch2a/convolution", "op": "Conv2D", "input": ["activation_7/Relu", "res2c_branch2a/kernel"], "device": "/device:CPU:0", "attr": {"dilations": {"list": {"i": ["1", "1", "1", "1"]}}, "T": {"type": "DT_FLOAT"}, "data_format": {"s": "TkhXQw=="}, "strides": {"list": {"i": ["1", "1", "1", "1"]}}, "explicit_paddings": {"list": {}}, "use_cudnn_on_gpu": {"b": true}, "padding": {"s": "VkFMSUQ="}}}, {"name": "bn2c_branch2a/cond/FusedBatchNorm/Switch", "op": "Switch", "input": ["res2c_branch2a/convolution", "bn_conv1/keras_learning_phase"], "attr": {"T": {"type": "DT_FLOAT"}}}, {"name": "bn2c_branch2a/FusedBatchNorm", "op": "FusedBatchNorm", "input": ["res2c_branch2a/convolution", "bn2c_branch2a/gamma", "bn2c_branch2a/beta", "bn4e_branch2c/Const_4", "bn4e_branch2c/Const_4"], "attr": {"epsilon": {"f": 0.0010000000474974513}, "T": {"type": "DT_FLOAT"}, "data_format": {"s": "TkhXQw=="}, "is_training": {"b": true}}}, {"name": "bn2c_branch2a/cond/FusedBatchNorm", "op": "FusedBatchNorm", "input": ["bn2c_branch2a/cond/FusedBatchNorm/Switch", "bn2c_branch2a/cond/FusedBatchNorm/Switch_1", "bn2c_branch2a/cond/FusedBatchNorm/Switch_2", "bn2c_branch2a/cond/FusedBatchNorm/Switch_3", "bn2c_branch2a/cond/FusedBatchNorm/Switch_4"], "attr": {"epsilon": {"f": 0.0010000000474974513}, "T": {"type": "DT_FLOAT"}, "data_format": {"s": "TkhXQw=="}, "is_training": {"b": false}}}, {"name": "bn2c_branch2a/cond/Switch_1", "op": "Switch", "input": ["bn2c_branch2a/FusedBatchNorm", "bn_conv1/keras_learning_phase"], "attr": {"T": {"type": "DT_FLOAT"}}}, {"name": "bn2c_branch2a/cond/Merge", "op": "Merge", "input": ["bn2c_branch2a/cond/FusedBatchNorm", "bn2c_branch2a/cond/Switch_1:1"], "attr": {"T": {"type": "DT_FLOAT"}, "N": {"i": "2"}}}, {"name": "activation_8/Relu", "op": "Relu", "input": ["bn2c_branch2a/cond/Merge"], "attr": {"T": {"type": "DT_FLOAT"}}}, {"name": "res2c_branch2b/convolution", "op": "Conv2D", "input": ["activation_8/Relu", "res2c_branch2b/kernel"], "device": "/device:CPU:0", "attr": {"dilations": {"list": {"i": ["1", "1", "1", "1"]}}, "T": {"type": "DT_FLOAT"}, "strides": {"list": {"i": ["1", "1", "1", "1"]}}, "data_format": {"s": "TkhXQw=="}, "explicit_paddings": {"list": {}}, "use_cudnn_on_gpu": {"b": true}, "padding": {"s": "U0FNRQ=="}}}, {"name": "bn2c_branch2b/cond/FusedBatchNorm/Switch", "op": "Switch", "input": ["res2c_branch2b/convolution", "bn_conv1/keras_learning_phase"], "attr": {"T": {"type": "DT_FLOAT"}}}, {"name": "bn2c_branch2b/FusedBatchNorm", "op": "FusedBatchNorm", "input": ["res2c_branch2b/convolution", "bn2c_branch2b/gamma", "bn2c_branch2b/beta", "bn4e_branch2c/Const_4", "bn4e_branch2c/Const_4"], "attr": {"epsilon": {"f": 0.0010000000474974513}, "T": {"type": "DT_FLOAT"}, "data_format": {"s": "TkhXQw=="}, "is_training": {"b": true}}}, {"name": "bn2c_branch2b/cond/FusedBatchNorm", "op": "FusedBatchNorm", "input": ["bn2c_branch2b/cond/FusedBatchNorm/Switch", "bn2c_branch2b/cond/FusedBatchNorm/Switch_1", "bn2c_branch2b/cond/FusedBatchNorm/Switch_2", "bn2c_branch2b/cond/FusedBatchNorm/Switch_3", "bn2c_branch2b/cond/FusedBatchNorm/Switch_4"], "attr": {"epsilon": {"f": 0.0010000000474974513}, "T": {"type": "DT_FLOAT"}, "data_format": {"s": "TkhXQw=="}, "is_training": {"b": false}}}, {"name": "bn2c_branch2b/cond/Switch_1", "op": "Switch", "input": ["bn2c_branch2b/FusedBatchNorm", "bn_conv1/keras_learning_phase"], "attr": {"T": {"type": "DT_FLOAT"}}}, {"name": "bn2c_branch2b/cond/Merge", "op": "Merge", "input": ["bn2c_branch2b/cond/FusedBatchNorm", "bn2c_branch2b/cond/Switch_1:1"], "attr": {"T": {"type": "DT_FLOAT"}, "N": {"i": "2"}}}, {"name": "activation_9/Relu", "op": "Relu", "input": ["bn2c_branch2b/cond/Merge"], "attr": {"T": {"type": "DT_FLOAT"}}}, {"name": "res2c_branch2c/convolution", "op": "Conv2D", "input": ["activation_9/Relu", "res2c_branch2c/kernel"], "device": "/device:CPU:0", "attr": {"dilations": {"list": {"i": ["1", "1", "1", "1"]}}, "T": {"type": "DT_FLOAT"}, "data_format": {"s": "TkhXQw=="}, "strides": {"list": {"i": ["1", "1", "1", "1"]}}, "explicit_paddings": {"list": {}}, "use_cudnn_on_gpu": {"b": true}, "padding": {"s": "VkFMSUQ="}}}, {"name": "bn2c_branch2c/cond/FusedBatchNorm/Switch", "op": "Switch", "input": ["res2c_branch2c/convolution", "bn_conv1/keras_learning_phase"], "attr": {"T": {"type": "DT_FLOAT"}}}, {"name": "bn2c_branch2c/FusedBatchNorm", "op": "FusedBatchNorm", "input": ["res2c_branch2c/convolution", "bn2c_branch2c/gamma", "bn2c_branch2c/beta", "bn4e_branch2c/Const_4", "bn4e_branch2c/Const_4"], "attr": {"epsilon": {"f": 0.0010000000474974513}, "T": {"type": "DT_FLOAT"}, "data_format": {"s": "TkhXQw=="}, "is_training": {"b": true}}}, {"name": "bn2c_branch2c/cond/FusedBatchNorm", "op": "FusedBatchNorm", "input": ["bn2c_branch2c/cond/FusedBatchNorm/Switch", "bn2c_branch2c/cond/FusedBatchNorm/Switch_1", "bn2c_branch2c/cond/FusedBatchNorm/Switch_2", "bn2c_branch2c/cond/FusedBatchNorm/Switch_3", "bn2c_branch2c/cond/FusedBatchNorm/Switch_4"], "attr": {"epsilon": {"f": 0.0010000000474974513}, "T": {"type": "DT_FLOAT"}, "data_format": {"s": "TkhXQw=="}, "is_training": {"b": false}}}, {"name": "bn2c_branch2c/cond/Switch_1", "op": "Switch", "input": ["bn2c_branch2c/FusedBatchNorm", "bn_conv1/keras_learning_phase"], "attr": {"T": {"type": "DT_FLOAT"}}}, {"name": "bn2c_branch2c/cond/Merge", "op": "Merge", "input": ["bn2c_branch2c/cond/FusedBatchNorm", "bn2c_branch2c/cond/Switch_1:1"], "attr": {"T": {"type": "DT_FLOAT"}, "N": {"i": "2"}}}, {"name": "add_3/add", "op": "Add", "input": ["activation_7/Relu", "bn2c_branch2c/cond/Merge"], "attr": {"T": {"type": "DT_FLOAT"}}}, {"name": "activation_10/Relu", "op": "Relu", "input": ["add_3/add"], "attr": {"T": {"type": "DT_FLOAT"}}}, {"name": "res3a_branch2a/convolution", "op": "Conv2D", "input": ["activation_10/Relu", "res3a_branch2a/kernel"], "device": "/device:CPU:0", "attr": {"dilations": {"list": {"i": ["1", "1", "1", "1"]}}, "T": {"type": "DT_FLOAT"}, "strides": {"list": {"i": ["1", "2", "2", "1"]}}, "data_format": {"s": "TkhXQw=="}, "explicit_paddings": {"list": {}}, "use_cudnn_on_gpu": {"b": true}, "padding": {"s": "VkFMSUQ="}}}, {"name": "res3a_branch1/convolution", "op": "Conv2D", "input": ["activation_10/Relu", "res3a_branch1/kernel"], "device": "/device:CPU:0", "attr": {"dilations": {"list": {"i": ["1", "1", "1", "1"]}}, "T": {"type": "DT_FLOAT"}, "data_format": {"s": "TkhXQw=="}, "strides": {"list": {"i": ["1", "2", "2", "1"]}}, "explicit_paddings": {"list": {}}, "use_cudnn_on_gpu": {"b": true}, "padding": {"s": "VkFMSUQ="}}}, {"name": "bn3a_branch2a/cond/FusedBatchNorm/Switch", "op": "Switch", "input": ["res3a_branch2a/convolution", "bn_conv1/keras_learning_phase"], "attr": {"T": {"type": "DT_FLOAT"}}}, {"name": "bn3a_branch2a/FusedBatchNorm", "op": "FusedBatchNorm", "input": ["res3a_branch2a/convolution", "bn3a_branch2a/gamma", "bn3a_branch2a/beta", "bn4e_branch2c/Const_4", "bn4e_branch2c/Const_4"], "attr": {"epsilon": {"f": 0.0010000000474974513}, "T": {"type": "DT_FLOAT"}, "data_format": {"s": "TkhXQw=="}, "is_training": {"b": true}}}, {"name": "bn3a_branch1/cond/FusedBatchNorm/Switch", "op": "Switch", "input": ["res3a_branch1/convolution", "bn_conv1/keras_learning_phase"], "attr": {"T": {"type": "DT_FLOAT"}}}, {"name": "bn3a_branch1/FusedBatchNorm", "op": "FusedBatchNorm", "input": ["res3a_branch1/convolution", "bn3a_branch1/gamma", "bn3a_branch2c/beta", "bn4e_branch2c/Const_4", "bn4e_branch2c/Const_4"], "attr": {"epsilon": {"f": 0.0010000000474974513}, "T": {"type": "DT_FLOAT"}, "data_format": {"s": "TkhXQw=="}, "is_training": {"b": true}}}, {"name": "bn3a_branch2a/cond/FusedBatchNorm", "op": "FusedBatchNorm", "input": ["bn3a_branch2a/cond/FusedBatchNorm/Switch", "bn3a_branch2a/cond/FusedBatchNorm/Switch_1", "bn3a_branch2a/cond/FusedBatchNorm/Switch_2", "bn3a_branch2a/cond/FusedBatchNorm/Switch_3", "bn3a_branch2a/cond/FusedBatchNorm/Switch_4"], "attr": {"epsilon": {"f": 0.0010000000474974513}, "T": {"type": "DT_FLOAT"}, "data_format": {"s": "TkhXQw=="}, "is_training": {"b": false}}}, {"name": "bn3a_branch2a/cond/Switch_1", "op": "Switch", "input": ["bn3a_branch2a/FusedBatchNorm", "bn_conv1/keras_learning_phase"], "attr": {"T": {"type": "DT_FLOAT"}}}, {"name": "bn3a_branch1/cond/FusedBatchNorm", "op": "FusedBatchNorm", "input": ["bn3a_branch1/cond/FusedBatchNorm/Switch", "bn3a_branch1/cond/FusedBatchNorm/Switch_1", "bn3a_branch2c/cond/FusedBatchNorm/Switch_2", "bn3a_branch1/cond/FusedBatchNorm/Switch_3", "bn3a_branch1/cond/FusedBatchNorm/Switch_4"], "attr": {"epsilon": {"f": 0.0010000000474974513}, "T": {"type": "DT_FLOAT"}, "data_format": {"s": "TkhXQw=="}, "is_training": {"b": false}}}, {"name": "bn3a_branch1/cond/Switch_1", "op": "Switch", "input": ["bn3a_branch1/FusedBatchNorm", "bn_conv1/keras_learning_phase"], "attr": {"T": {"type": "DT_FLOAT"}}}, {"name": "bn3a_branch2a/cond/Merge", "op": "Merge", "input": ["bn3a_branch2a/cond/FusedBatchNorm", "bn3a_branch2a/cond/Switch_1:1"], "attr": {"T": {"type": "DT_FLOAT"}, "N": {"i": "2"}}}, {"name": "bn3a_branch1/cond/Merge", "op": "Merge", "input": ["bn3a_branch1/cond/FusedBatchNorm", "bn3a_branch1/cond/Switch_1:1"], "attr": {"T": {"type": "DT_FLOAT"}, "N": {"i": "2"}}}, {"name": "activation_11/Relu", "op": "Relu", "input": ["bn3a_branch2a/cond/Merge"], "attr": {"T": {"type": "DT_FLOAT"}}}, {"name": "res3a_branch2b/convolution", "op": "Conv2D", "input": ["activation_11/Relu", "res3a_branch2b/kernel"], "device": "/device:CPU:0", "attr": {"dilations": {"list": {"i": ["1", "1", "1", "1"]}}, "T": {"type": "DT_FLOAT"}, "strides": {"list": {"i": ["1", "1", "1", "1"]}}, "data_format": {"s": "TkhXQw=="}, "explicit_paddings": {"list": {}}, "use_cudnn_on_gpu": {"b": true}, "padding": {"s": "U0FNRQ=="}}}, {"name": "bn3a_branch2b/cond/FusedBatchNorm/Switch", "op": "Switch", "input": ["res3a_branch2b/convolution", "bn_conv1/keras_learning_phase"], "attr": {"T": {"type": "DT_FLOAT"}}}, {"name": "bn3a_branch2b/FusedBatchNorm", "op": "FusedBatchNorm", "input": ["res3a_branch2b/convolution", "bn3a_branch2b/gamma", "bn3a_branch2b/beta", "bn4e_branch2c/Const_4", "bn4e_branch2c/Const_4"], "attr": {"epsilon": {"f": 0.0010000000474974513}, "T": {"type": "DT_FLOAT"}, "data_format": {"s": "TkhXQw=="}, "is_training": {"b": true}}}, {"name": "bn3a_branch2b/cond/FusedBatchNorm", "op": "FusedBatchNorm", "input": ["bn3a_branch2b/cond/FusedBatchNorm/Switch", "bn3a_branch2b/cond/FusedBatchNorm/Switch_1", "bn3a_branch2b/cond/FusedBatchNorm/Switch_2", "bn3a_branch2b/cond/FusedBatchNorm/Switch_3", "bn3a_branch2b/cond/FusedBatchNorm/Switch_4"], "attr": {"epsilon": {"f": 0.0010000000474974513}, "T": {"type": "DT_FLOAT"}, "data_format": {"s": "TkhXQw=="}, "is_training": {"b": false}}}, {"name": "bn3a_branch2b/cond/Switch_1", "op": "Switch", "input": ["bn3a_branch2b/FusedBatchNorm", "bn_conv1/keras_learning_phase"], "attr": {"T": {"type": "DT_FLOAT"}}}, {"name": "bn3a_branch2b/cond/Merge", "op": "Merge", "input": ["bn3a_branch2b/cond/FusedBatchNorm", "bn3a_branch2b/cond/Switch_1:1"], "attr": {"T": {"type": "DT_FLOAT"}, "N": {"i": "2"}}}, {"name": "activation_12/Relu", "op": "Relu", "input": ["bn3a_branch2b/cond/Merge"], "attr": {"T": {"type": "DT_FLOAT"}}}, {"name": "res3a_branch2c/convolution", "op": "Conv2D", "input": ["activation_12/Relu", "res3a_branch2c/kernel"], "device": "/device:CPU:0", "attr": {"dilations": {"list": {"i": ["1", "1", "1", "1"]}}, "T": {"type": "DT_FLOAT"}, "data_format": {"s": "TkhXQw=="}, "strides": {"list": {"i": ["1", "1", "1", "1"]}}, "explicit_paddings": {"list": {}}, "use_cudnn_on_gpu": {"b": true}, "padding": {"s": "VkFMSUQ="}}}, {"name": "bn3a_branch2c/cond/FusedBatchNorm/Switch", "op": "Switch", "input": ["res3a_branch2c/convolution", "bn_conv1/keras_learning_phase"], "attr": {"T": {"type": "DT_FLOAT"}}}, {"name": "bn3a_branch2c/FusedBatchNorm", "op": "FusedBatchNorm", "input": ["res3a_branch2c/convolution", "bn3a_branch2c/gamma", "bn3a_branch2c/beta", "bn4e_branch2c/Const_4", "bn4e_branch2c/Const_4"], "attr": {"epsilon": {"f": 0.0010000000474974513}, "T": {"type": "DT_FLOAT"}, "data_format": {"s": "TkhXQw=="}, "is_training": {"b": true}}}, {"name": "bn3a_branch2c/cond/FusedBatchNorm", "op": "FusedBatchNorm", "input": ["bn3a_branch2c/cond/FusedBatchNorm/Switch", "bn3a_branch2c/cond/FusedBatchNorm/Switch_1", "bn3a_branch2c/cond/FusedBatchNorm/Switch_2", "bn3a_branch2c/cond/FusedBatchNorm/Switch_3", "bn3a_branch2c/cond/FusedBatchNorm/Switch_4"], "attr": {"epsilon": {"f": 0.0010000000474974513}, "T": {"type": "DT_FLOAT"}, "data_format": {"s": "TkhXQw=="}, "is_training": {"b": false}}}, {"name": "bn3a_branch2c/cond/Switch_1", "op": "Switch", "input": ["bn3a_branch2c/FusedBatchNorm", "bn_conv1/keras_learning_phase"], "attr": {"T": {"type": "DT_FLOAT"}}}, {"name": "bn3a_branch2c/cond/Merge", "op": "Merge", "input": ["bn3a_branch2c/cond/FusedBatchNorm", "bn3a_branch2c/cond/Switch_1:1"], "attr": {"T": {"type": "DT_FLOAT"}, "N": {"i": "2"}}}, {"name": "add_4/add", "op": "Add", "input": ["bn3a_branch1/cond/Merge", "bn3a_branch2c/cond/Merge"], "attr": {"T": {"type": "DT_FLOAT"}}}, {"name": "activation_13/Relu", "op": "Relu", "input": ["add_4/add"], "attr": {"T": {"type": "DT_FLOAT"}}}, {"name": "res3b_branch2a/convolution", "op": "Conv2D", "input": ["activation_13/Relu", "res3b_branch2a/kernel"], "device": "/device:CPU:0", "attr": {"dilations": {"list": {"i": ["1", "1", "1", "1"]}}, "T": {"type": "DT_FLOAT"}, "strides": {"list": {"i": ["1", "1", "1", "1"]}}, "data_format": {"s": "TkhXQw=="}, "explicit_paddings": {"list": {}}, "use_cudnn_on_gpu": {"b": true}, "padding": {"s": "VkFMSUQ="}}}, {"name": "bn3b_branch2a/cond/FusedBatchNorm/Switch", "op": "Switch", "input": ["res3b_branch2a/convolution", "bn_conv1/keras_learning_phase"], "attr": {"T": {"type": "DT_FLOAT"}}}, {"name": "bn3b_branch2a/FusedBatchNorm", "op": "FusedBatchNorm", "input": ["res3b_branch2a/convolution", "bn3b_branch2a/gamma", "bn3b_branch2a/beta", "bn4e_branch2c/Const_4", "bn4e_branch2c/Const_4"], "attr": {"epsilon": {"f": 0.0010000000474974513}, "T": {"type": "DT_FLOAT"}, "data_format": {"s": "TkhXQw=="}, "is_training": {"b": true}}}, {"name": "bn3b_branch2a/cond/FusedBatchNorm", "op": "FusedBatchNorm", "input": ["bn3b_branch2a/cond/FusedBatchNorm/Switch", "bn3b_branch2a/cond/FusedBatchNorm/Switch_1", "bn3b_branch2a/cond/FusedBatchNorm/Switch_2", "bn3b_branch2a/cond/FusedBatchNorm/Switch_3", "bn3b_branch2a/cond/FusedBatchNorm/Switch_4"], "attr": {"epsilon": {"f": 0.0010000000474974513}, "T": {"type": "DT_FLOAT"}, "data_format": {"s": "TkhXQw=="}, "is_training": {"b": false}}}, {"name": "bn3b_branch2a/cond/Switch_1", "op": "Switch", "input": ["bn3b_branch2a/FusedBatchNorm", "bn_conv1/keras_learning_phase"], "attr": {"T": {"type": "DT_FLOAT"}}}, {"name": "bn3b_branch2a/cond/Merge", "op": "Merge", "input": ["bn3b_branch2a/cond/FusedBatchNorm", "bn3b_branch2a/cond/Switch_1:1"], "attr": {"T": {"type": "DT_FLOAT"}, "N": {"i": "2"}}}, {"name": "activation_14/Relu", "op": "Relu", "input": ["bn3b_branch2a/cond/Merge"], "attr": {"T": {"type": "DT_FLOAT"}}}, {"name": "res3b_branch2b/convolution", "op": "Conv2D", "input": ["activation_14/Relu", "res3b_branch2b/kernel"], "device": "/device:CPU:0", "attr": {"dilations": {"list": {"i": ["1", "1", "1", "1"]}}, "T": {"type": "DT_FLOAT"}, "data_format": {"s": "TkhXQw=="}, "strides": {"list": {"i": ["1", "1", "1", "1"]}}, "explicit_paddings": {"list": {}}, "use_cudnn_on_gpu": {"b": true}, "padding": {"s": "U0FNRQ=="}}}, {"name": "bn3b_branch2b/cond/FusedBatchNorm/Switch", "op": "Switch", "input": ["res3b_branch2b/convolution", "bn_conv1/keras_learning_phase"], "attr": {"T": {"type": "DT_FLOAT"}}}, {"name": "bn3b_branch2b/FusedBatchNorm", "op": "FusedBatchNorm", "input": ["res3b_branch2b/convolution", "bn3b_branch2b/gamma", "bn3b_branch2b/beta", "bn4e_branch2c/Const_4", "bn4e_branch2c/Const_4"], "attr": {"epsilon": {"f": 0.0010000000474974513}, "T": {"type": "DT_FLOAT"}, "data_format": {"s": "TkhXQw=="}, "is_training": {"b": true}}}, {"name": "bn3b_branch2b/cond/FusedBatchNorm", "op": "FusedBatchNorm", "input": ["bn3b_branch2b/cond/FusedBatchNorm/Switch", "bn3b_branch2b/cond/FusedBatchNorm/Switch_1", "bn3b_branch2b/cond/FusedBatchNorm/Switch_2", "bn3b_branch2b/cond/FusedBatchNorm/Switch_3", "bn3b_branch2b/cond/FusedBatchNorm/Switch_4"], "attr": {"epsilon": {"f": 0.0010000000474974513}, "T": {"type": "DT_FLOAT"}, "data_format": {"s": "TkhXQw=="}, "is_training": {"b": false}}}, {"name": "bn3b_branch2b/cond/Switch_1", "op": "Switch", "input": ["bn3b_branch2b/FusedBatchNorm", "bn_conv1/keras_learning_phase"], "attr": {"T": {"type": "DT_FLOAT"}}}, {"name": "bn3b_branch2b/cond/Merge", "op": "Merge", "input": ["bn3b_branch2b/cond/FusedBatchNorm", "bn3b_branch2b/cond/Switch_1:1"], "attr": {"T": {"type": "DT_FLOAT"}, "N": {"i": "2"}}}, {"name": "activation_15/Relu", "op": "Relu", "input": ["bn3b_branch2b/cond/Merge"], "attr": {"T": {"type": "DT_FLOAT"}}}, {"name": "res3b_branch2c/convolution", "op": "Conv2D", "input": ["activation_15/Relu", "res3b_branch2c/kernel"], "device": "/device:CPU:0", "attr": {"dilations": {"list": {"i": ["1", "1", "1", "1"]}}, "T": {"type": "DT_FLOAT"}, "data_format": {"s": "TkhXQw=="}, "strides": {"list": {"i": ["1", "1", "1", "1"]}}, "explicit_paddings": {"list": {}}, "use_cudnn_on_gpu": {"b": true}, "padding": {"s": "VkFMSUQ="}}}, {"name": "bn3b_branch2c/cond/FusedBatchNorm/Switch", "op": "Switch", "input": ["res3b_branch2c/convolution", "bn_conv1/keras_learning_phase"], "attr": {"T": {"type": "DT_FLOAT"}}}, {"name": "bn3b_branch2c/FusedBatchNorm", "op": "FusedBatchNorm", "input": ["res3b_branch2c/convolution", "bn3b_branch2c/gamma", "bn3b_branch2c/beta", "bn4e_branch2c/Const_4", "bn4e_branch2c/Const_4"], "attr": {"epsilon": {"f": 0.0010000000474974513}, "T": {"type": "DT_FLOAT"}, "data_format": {"s": "TkhXQw=="}, "is_training": {"b": true}}}, {"name": "bn3b_branch2c/cond/FusedBatchNorm", "op": "FusedBatchNorm", "input": ["bn3b_branch2c/cond/FusedBatchNorm/Switch", "bn3b_branch2c/cond/FusedBatchNorm/Switch_1", "bn3b_branch2c/cond/FusedBatchNorm/Switch_2", "bn3b_branch2c/cond/FusedBatchNorm/Switch_3", "bn3b_branch2c/cond/FusedBatchNorm/Switch_4"], "attr": {"epsilon": {"f": 0.0010000000474974513}, "T": {"type": "DT_FLOAT"}, "data_format": {"s": "TkhXQw=="}, "is_training": {"b": false}}}, {"name": "bn3b_branch2c/cond/Switch_1", "op": "Switch", "input": ["bn3b_branch2c/FusedBatchNorm", "bn_conv1/keras_learning_phase"], "attr": {"T": {"type": "DT_FLOAT"}}}, {"name": "bn3b_branch2c/cond/Merge", "op": "Merge", "input": ["bn3b_branch2c/cond/FusedBatchNorm", "bn3b_branch2c/cond/Switch_1:1"], "attr": {"T": {"type": "DT_FLOAT"}, "N": {"i": "2"}}}, {"name": "add_5/add", "op": "Add", "input": ["activation_13/Relu", "bn3b_branch2c/cond/Merge"], "attr": {"T": {"type": "DT_FLOAT"}}}, {"name": "activation_16/Relu", "op": "Relu", "input": ["add_5/add"], "attr": {"T": {"type": "DT_FLOAT"}}}, {"name": "res3c_branch2a/convolution", "op": "Conv2D", "input": ["activation_16/Relu", "res3c_branch2a/kernel"], "device": "/device:CPU:0", "attr": {"dilations": {"list": {"i": ["1", "1", "1", "1"]}}, "T": {"type": "DT_FLOAT"}, "strides": {"list": {"i": ["1", "1", "1", "1"]}}, "data_format": {"s": "TkhXQw=="}, "explicit_paddings": {"list": {}}, "use_cudnn_on_gpu": {"b": true}, "padding": {"s": "VkFMSUQ="}}}, {"name": "bn3c_branch2a/cond/FusedBatchNorm/Switch", "op": "Switch", "input": ["res3c_branch2a/convolution", "bn_conv1/keras_learning_phase"], "attr": {"T": {"type": "DT_FLOAT"}}}, {"name": "bn3c_branch2a/FusedBatchNorm", "op": "FusedBatchNorm", "input": ["res3c_branch2a/convolution", "bn3c_branch2a/gamma", "bn3c_branch2a/beta", "bn4e_branch2c/Const_4", "bn4e_branch2c/Const_4"], "attr": {"epsilon": {"f": 0.0010000000474974513}, "T": {"type": "DT_FLOAT"}, "data_format": {"s": "TkhXQw=="}, "is_training": {"b": true}}}, {"name": "bn3c_branch2a/cond/FusedBatchNorm", "op": "FusedBatchNorm", "input": ["bn3c_branch2a/cond/FusedBatchNorm/Switch", "bn3c_branch2a/cond/FusedBatchNorm/Switch_1", "bn3c_branch2a/cond/FusedBatchNorm/Switch_2", "bn3c_branch2a/cond/FusedBatchNorm/Switch_3", "bn3c_branch2a/cond/FusedBatchNorm/Switch_4"], "attr": {"epsilon": {"f": 0.0010000000474974513}, "T": {"type": "DT_FLOAT"}, "data_format": {"s": "TkhXQw=="}, "is_training": {"b": false}}}, {"name": "bn3c_branch2a/cond/Switch_1", "op": "Switch", "input": ["bn3c_branch2a/FusedBatchNorm", "bn_conv1/keras_learning_phase"], "attr": {"T": {"type": "DT_FLOAT"}}}, {"name": "bn3c_branch2a/cond/Merge", "op": "Merge", "input": ["bn3c_branch2a/cond/FusedBatchNorm", "bn3c_branch2a/cond/Switch_1:1"], "attr": {"T": {"type": "DT_FLOAT"}, "N": {"i": "2"}}}, {"name": "activation_17/Relu", "op": "Relu", "input": ["bn3c_branch2a/cond/Merge"], "attr": {"T": {"type": "DT_FLOAT"}}}, {"name": "res3c_branch2b/convolution", "op": "Conv2D", "input": ["activation_17/Relu", "res3c_branch2b/kernel"], "device": "/device:CPU:0", "attr": {"dilations": {"list": {"i": ["1", "1", "1", "1"]}}, "T": {"type": "DT_FLOAT"}, "data_format": {"s": "TkhXQw=="}, "strides": {"list": {"i": ["1", "1", "1", "1"]}}, "explicit_paddings": {"list": {}}, "use_cudnn_on_gpu": {"b": true}, "padding": {"s": "U0FNRQ=="}}}, {"name": "bn3c_branch2b/cond/FusedBatchNorm/Switch", "op": "Switch", "input": ["res3c_branch2b/convolution", "bn_conv1/keras_learning_phase"], "attr": {"T": {"type": "DT_FLOAT"}}}, {"name": "bn3c_branch2b/FusedBatchNorm", "op": "FusedBatchNorm", "input": ["res3c_branch2b/convolution", "bn3c_branch2b/gamma", "bn3c_branch2b/beta", "bn4e_branch2c/Const_4", "bn4e_branch2c/Const_4"], "attr": {"epsilon": {"f": 0.0010000000474974513}, "T": {"type": "DT_FLOAT"}, "data_format": {"s": "TkhXQw=="}, "is_training": {"b": true}}}, {"name": "bn3c_branch2b/cond/FusedBatchNorm", "op": "FusedBatchNorm", "input": ["bn3c_branch2b/cond/FusedBatchNorm/Switch", "bn3c_branch2b/cond/FusedBatchNorm/Switch_1", "bn3c_branch2b/cond/FusedBatchNorm/Switch_2", "bn3c_branch2b/cond/FusedBatchNorm/Switch_3", "bn3c_branch2b/cond/FusedBatchNorm/Switch_4"], "attr": {"epsilon": {"f": 0.0010000000474974513}, "T": {"type": "DT_FLOAT"}, "data_format": {"s": "TkhXQw=="}, "is_training": {"b": false}}}, {"name": "bn3c_branch2b/cond/Switch_1", "op": "Switch", "input": ["bn3c_branch2b/FusedBatchNorm", "bn_conv1/keras_learning_phase"], "attr": {"T": {"type": "DT_FLOAT"}}}, {"name": "bn3c_branch2b/cond/Merge", "op": "Merge", "input": ["bn3c_branch2b/cond/FusedBatchNorm", "bn3c_branch2b/cond/Switch_1:1"], "attr": {"T": {"type": "DT_FLOAT"}, "N": {"i": "2"}}}, {"name": "activation_18/Relu", "op": "Relu", "input": ["bn3c_branch2b/cond/Merge"], "attr": {"T": {"type": "DT_FLOAT"}}}, {"name": "res3c_branch2c/convolution", "op": "Conv2D", "input": ["activation_18/Relu", "res3c_branch2c/kernel"], "device": "/device:CPU:0", "attr": {"dilations": {"list": {"i": ["1", "1", "1", "1"]}}, "T": {"type": "DT_FLOAT"}, "data_format": {"s": "TkhXQw=="}, "strides": {"list": {"i": ["1", "1", "1", "1"]}}, "explicit_paddings": {"list": {}}, "use_cudnn_on_gpu": {"b": true}, "padding": {"s": "VkFMSUQ="}}}, {"name": "bn3c_branch2c/cond/FusedBatchNorm/Switch", "op": "Switch", "input": ["res3c_branch2c/convolution", "bn_conv1/keras_learning_phase"], "attr": {"T": {"type": "DT_FLOAT"}}}, {"name": "bn3c_branch2c/FusedBatchNorm", "op": "FusedBatchNorm", "input": ["res3c_branch2c/convolution", "bn3c_branch2c/gamma", "bn3c_branch2c/beta", "bn4e_branch2c/Const_4", "bn4e_branch2c/Const_4"], "attr": {"epsilon": {"f": 0.0010000000474974513}, "T": {"type": "DT_FLOAT"}, "data_format": {"s": "TkhXQw=="}, "is_training": {"b": true}}}, {"name": "bn3c_branch2c/cond/FusedBatchNorm", "op": "FusedBatchNorm", "input": ["bn3c_branch2c/cond/FusedBatchNorm/Switch", "bn3c_branch2c/cond/FusedBatchNorm/Switch_1", "bn3c_branch2c/cond/FusedBatchNorm/Switch_2", "bn3c_branch2c/cond/FusedBatchNorm/Switch_3", "bn3c_branch2c/cond/FusedBatchNorm/Switch_4"], "attr": {"epsilon": {"f": 0.0010000000474974513}, "T": {"type": "DT_FLOAT"}, "data_format": {"s": "TkhXQw=="}, "is_training": {"b": false}}}, {"name": "bn3c_branch2c/cond/Switch_1", "op": "Switch", "input": ["bn3c_branch2c/FusedBatchNorm", "bn_conv1/keras_learning_phase"], "attr": {"T": {"type": "DT_FLOAT"}}}, {"name": "bn3c_branch2c/cond/Merge", "op": "Merge", "input": ["bn3c_branch2c/cond/FusedBatchNorm", "bn3c_branch2c/cond/Switch_1:1"], "attr": {"T": {"type": "DT_FLOAT"}, "N": {"i": "2"}}}, {"name": "add_6/add", "op": "Add", "input": ["activation_16/Relu", "bn3c_branch2c/cond/Merge"], "attr": {"T": {"type": "DT_FLOAT"}}}, {"name": "activation_19/Relu", "op": "Relu", "input": ["add_6/add"], "attr": {"T": {"type": "DT_FLOAT"}}}, {"name": "res3d_branch2a/convolution", "op": "Conv2D", "input": ["activation_19/Relu", "res3d_branch2a/kernel"], "device": "/device:CPU:0", "attr": {"dilations": {"list": {"i": ["1", "1", "1", "1"]}}, "T": {"type": "DT_FLOAT"}, "strides": {"list": {"i": ["1", "1", "1", "1"]}}, "data_format": {"s": "TkhXQw=="}, "explicit_paddings": {"list": {}}, "use_cudnn_on_gpu": {"b": true}, "padding": {"s": "VkFMSUQ="}}}, {"name": "bn3d_branch2a/cond/FusedBatchNorm/Switch", "op": "Switch", "input": ["res3d_branch2a/convolution", "bn_conv1/keras_learning_phase"], "attr": {"T": {"type": "DT_FLOAT"}}}, {"name": "bn3d_branch2a/FusedBatchNorm", "op": "FusedBatchNorm", "input": ["res3d_branch2a/convolution", "bn3d_branch2a/gamma", "bn3d_branch2a/beta", "bn4e_branch2c/Const_4", "bn4e_branch2c/Const_4"], "attr": {"epsilon": {"f": 0.0010000000474974513}, "T": {"type": "DT_FLOAT"}, "data_format": {"s": "TkhXQw=="}, "is_training": {"b": true}}}, {"name": "bn3d_branch2a/cond/FusedBatchNorm", "op": "FusedBatchNorm", "input": ["bn3d_branch2a/cond/FusedBatchNorm/Switch", "bn3d_branch2a/cond/FusedBatchNorm/Switch_1", "bn3d_branch2a/cond/FusedBatchNorm/Switch_2", "bn3d_branch2a/cond/FusedBatchNorm/Switch_3", "bn3d_branch2a/cond/FusedBatchNorm/Switch_4"], "attr": {"epsilon": {"f": 0.0010000000474974513}, "T": {"type": "DT_FLOAT"}, "data_format": {"s": "TkhXQw=="}, "is_training": {"b": false}}}, {"name": "bn3d_branch2a/cond/Switch_1", "op": "Switch", "input": ["bn3d_branch2a/FusedBatchNorm", "bn_conv1/keras_learning_phase"], "attr": {"T": {"type": "DT_FLOAT"}}}, {"name": "bn3d_branch2a/cond/Merge", "op": "Merge", "input": ["bn3d_branch2a/cond/FusedBatchNorm", "bn3d_branch2a/cond/Switch_1:1"], "attr": {"T": {"type": "DT_FLOAT"}, "N": {"i": "2"}}}, {"name": "activation_20/Relu", "op": "Relu", "input": ["bn3d_branch2a/cond/Merge"], "attr": {"T": {"type": "DT_FLOAT"}}}, {"name": "res3d_branch2b/convolution", "op": "Conv2D", "input": ["activation_20/Relu", "res3d_branch2b/kernel"], "device": "/device:CPU:0", "attr": {"dilations": {"list": {"i": ["1", "1", "1", "1"]}}, "T": {"type": "DT_FLOAT"}, "data_format": {"s": "TkhXQw=="}, "strides": {"list": {"i": ["1", "1", "1", "1"]}}, "explicit_paddings": {"list": {}}, "use_cudnn_on_gpu": {"b": true}, "padding": {"s": "U0FNRQ=="}}}, {"name": "bn3d_branch2b/cond/FusedBatchNorm/Switch", "op": "Switch", "input": ["res3d_branch2b/convolution", "bn_conv1/keras_learning_phase"], "attr": {"T": {"type": "DT_FLOAT"}}}, {"name": "bn3d_branch2b/FusedBatchNorm", "op": "FusedBatchNorm", "input": ["res3d_branch2b/convolution", "bn3d_branch2b/gamma", "bn3d_branch2b/beta", "bn4e_branch2c/Const_4", "bn4e_branch2c/Const_4"], "attr": {"epsilon": {"f": 0.0010000000474974513}, "T": {"type": "DT_FLOAT"}, "data_format": {"s": "TkhXQw=="}, "is_training": {"b": true}}}, {"name": "bn3d_branch2b/cond/FusedBatchNorm", "op": "FusedBatchNorm", "input": ["bn3d_branch2b/cond/FusedBatchNorm/Switch", "bn3d_branch2b/cond/FusedBatchNorm/Switch_1", "bn3d_branch2b/cond/FusedBatchNorm/Switch_2", "bn3d_branch2b/cond/FusedBatchNorm/Switch_3", "bn3d_branch2b/cond/FusedBatchNorm/Switch_4"], "attr": {"epsilon": {"f": 0.0010000000474974513}, "T": {"type": "DT_FLOAT"}, "data_format": {"s": "TkhXQw=="}, "is_training": {"b": false}}}, {"name": "bn3d_branch2b/cond/Switch_1", "op": "Switch", "input": ["bn3d_branch2b/FusedBatchNorm", "bn_conv1/keras_learning_phase"], "attr": {"T": {"type": "DT_FLOAT"}}}, {"name": "bn3d_branch2b/cond/Merge", "op": "Merge", "input": ["bn3d_branch2b/cond/FusedBatchNorm", "bn3d_branch2b/cond/Switch_1:1"], "attr": {"T": {"type": "DT_FLOAT"}, "N": {"i": "2"}}}, {"name": "activation_21/Relu", "op": "Relu", "input": ["bn3d_branch2b/cond/Merge"], "attr": {"T": {"type": "DT_FLOAT"}}}, {"name": "res3d_branch2c/convolution", "op": "Conv2D", "input": ["activation_21/Relu", "res3d_branch2c/kernel"], "device": "/device:CPU:0", "attr": {"dilations": {"list": {"i": ["1", "1", "1", "1"]}}, "T": {"type": "DT_FLOAT"}, "strides": {"list": {"i": ["1", "1", "1", "1"]}}, "data_format": {"s": "TkhXQw=="}, "explicit_paddings": {"list": {}}, "use_cudnn_on_gpu": {"b": true}, "padding": {"s": "VkFMSUQ="}}}, {"name": "bn3d_branch2c/cond/FusedBatchNorm/Switch", "op": "Switch", "input": ["res3d_branch2c/convolution", "bn_conv1/keras_learning_phase"], "attr": {"T": {"type": "DT_FLOAT"}}}, {"name": "bn3d_branch2c/FusedBatchNorm", "op": "FusedBatchNorm", "input": ["res3d_branch2c/convolution", "bn3d_branch2c/gamma", "bn3d_branch2c/beta", "bn4e_branch2c/Const_4", "bn4e_branch2c/Const_4"], "attr": {"epsilon": {"f": 0.0010000000474974513}, "T": {"type": "DT_FLOAT"}, "data_format": {"s": "TkhXQw=="}, "is_training": {"b": true}}}, {"name": "bn3d_branch2c/cond/FusedBatchNorm", "op": "FusedBatchNorm", "input": ["bn3d_branch2c/cond/FusedBatchNorm/Switch", "bn3d_branch2c/cond/FusedBatchNorm/Switch_1", "bn3d_branch2c/cond/FusedBatchNorm/Switch_2", "bn3d_branch2c/cond/FusedBatchNorm/Switch_3", "bn3d_branch2c/cond/FusedBatchNorm/Switch_4"], "attr": {"epsilon": {"f": 0.0010000000474974513}, "T": {"type": "DT_FLOAT"}, "data_format": {"s": "TkhXQw=="}, "is_training": {"b": false}}}, {"name": "bn3d_branch2c/cond/Switch_1", "op": "Switch", "input": ["bn3d_branch2c/FusedBatchNorm", "bn_conv1/keras_learning_phase"], "attr": {"T": {"type": "DT_FLOAT"}}}, {"name": "bn3d_branch2c/cond/Merge", "op": "Merge", "input": ["bn3d_branch2c/cond/FusedBatchNorm", "bn3d_branch2c/cond/Switch_1:1"], "attr": {"T": {"type": "DT_FLOAT"}, "N": {"i": "2"}}}, {"name": "add_7/add", "op": "Add", "input": ["activation_19/Relu", "bn3d_branch2c/cond/Merge"], "attr": {"T": {"type": "DT_FLOAT"}}}, {"name": "activation_22/Relu", "op": "Relu", "input": ["add_7/add"], "attr": {"T": {"type": "DT_FLOAT"}}}, {"name": "res4a_branch2a/convolution", "op": "Conv2D", "input": ["activation_22/Relu", "res4a_branch2a/kernel"], "device": "/device:CPU:0", "attr": {"dilations": {"list": {"i": ["1", "1", "1", "1"]}}, "T": {"type": "DT_FLOAT"}, "strides": {"list": {"i": ["1", "2", "2", "1"]}}, "data_format": {"s": "TkhXQw=="}, "explicit_paddings": {"list": {}}, "use_cudnn_on_gpu": {"b": true}, "padding": {"s": "VkFMSUQ="}}}, {"name": "res4a_branch1/convolution", "op": "Conv2D", "input": ["activation_22/Relu", "res4a_branch1/kernel"], "device": "/device:CPU:0", "attr": {"dilations": {"list": {"i": ["1", "1", "1", "1"]}}, "T": {"type": "DT_FLOAT"}, "strides": {"list": {"i": ["1", "2", "2", "1"]}}, "data_format": {"s": "TkhXQw=="}, "explicit_paddings": {"list": {}}, "use_cudnn_on_gpu": {"b": true}, "padding": {"s": "VkFMSUQ="}}}, {"name": "bn4a_branch2a/cond/FusedBatchNorm/Switch", "op": "Switch", "input": ["res4a_branch2a/convolution", "bn_conv1/keras_learning_phase"], "attr": {"T": {"type": "DT_FLOAT"}}}, {"name": "bn4a_branch2a/FusedBatchNorm", "op": "FusedBatchNorm", "input": ["res4a_branch2a/convolution", "bn4a_branch2a/gamma", "bn4a_branch2a/beta", "bn4e_branch2c/Const_4", "bn4e_branch2c/Const_4"], "attr": {"epsilon": {"f": 0.0010000000474974513}, "T": {"type": "DT_FLOAT"}, "data_format": {"s": "TkhXQw=="}, "is_training": {"b": true}}}, {"name": "bn4a_branch1/cond/FusedBatchNorm/Switch", "op": "Switch", "input": ["res4a_branch1/convolution", "bn_conv1/keras_learning_phase"], "attr": {"T": {"type": "DT_FLOAT"}}}, {"name": "bn4a_branch1/FusedBatchNorm", "op": "FusedBatchNorm", "input": ["res4a_branch1/convolution", "bn4a_branch1/gamma", "bn4a_branch2c/beta", "bn4e_branch2c/Const_4", "bn4e_branch2c/Const_4"], "attr": {"epsilon": {"f": 0.0010000000474974513}, "T": {"type": "DT_FLOAT"}, "data_format": {"s": "TkhXQw=="}, "is_training": {"b": true}}}, {"name": "bn4a_branch2a/cond/FusedBatchNorm", "op": "FusedBatchNorm", "input": ["bn4a_branch2a/cond/FusedBatchNorm/Switch", "bn4a_branch2a/cond/FusedBatchNorm/Switch_1", "bn4a_branch2a/cond/FusedBatchNorm/Switch_2", "bn4a_branch2a/cond/FusedBatchNorm/Switch_3", "bn4a_branch2a/cond/FusedBatchNorm/Switch_4"], "attr": {"epsilon": {"f": 0.0010000000474974513}, "T": {"type": "DT_FLOAT"}, "data_format": {"s": "TkhXQw=="}, "is_training": {"b": false}}}, {"name": "bn4a_branch2a/cond/Switch_1", "op": "Switch", "input": ["bn4a_branch2a/FusedBatchNorm", "bn_conv1/keras_learning_phase"], "attr": {"T": {"type": "DT_FLOAT"}}}, {"name": "bn4a_branch1/cond/FusedBatchNorm", "op": "FusedBatchNorm", "input": ["bn4a_branch1/cond/FusedBatchNorm/Switch", "bn4a_branch1/cond/FusedBatchNorm/Switch_1", "bn4a_branch2c/cond/FusedBatchNorm/Switch_2", "bn4a_branch1/cond/FusedBatchNorm/Switch_3", "bn4a_branch1/cond/FusedBatchNorm/Switch_4"], "attr": {"epsilon": {"f": 0.0010000000474974513}, "T": {"type": "DT_FLOAT"}, "data_format": {"s": "TkhXQw=="}, "is_training": {"b": false}}}, {"name": "bn4a_branch1/cond/Switch_1", "op": "Switch", "input": ["bn4a_branch1/FusedBatchNorm", "bn_conv1/keras_learning_phase"], "attr": {"T": {"type": "DT_FLOAT"}}}, {"name": "bn4a_branch2a/cond/Merge", "op": "Merge", "input": ["bn4a_branch2a/cond/FusedBatchNorm", "bn4a_branch2a/cond/Switch_1:1"], "attr": {"T": {"type": "DT_FLOAT"}, "N": {"i": "2"}}}, {"name": "bn4a_branch1/cond/Merge", "op": "Merge", "input": ["bn4a_branch1/cond/FusedBatchNorm", "bn4a_branch1/cond/Switch_1:1"], "attr": {"T": {"type": "DT_FLOAT"}, "N": {"i": "2"}}}, {"name": "activation_23/Relu", "op": "Relu", "input": ["bn4a_branch2a/cond/Merge"], "attr": {"T": {"type": "DT_FLOAT"}}}, {"name": "res4a_branch2b/convolution", "op": "Conv2D", "input": ["activation_23/Relu", "res4a_branch2b/kernel"], "device": "/device:CPU:0", "attr": {"dilations": {"list": {"i": ["1", "1", "1", "1"]}}, "T": {"type": "DT_FLOAT"}, "strides": {"list": {"i": ["1", "1", "1", "1"]}}, "data_format": {"s": "TkhXQw=="}, "explicit_paddings": {"list": {}}, "use_cudnn_on_gpu": {"b": true}, "padding": {"s": "U0FNRQ=="}}}, {"name": "bn4a_branch2b/cond/FusedBatchNorm/Switch", "op": "Switch", "input": ["res4a_branch2b/convolution", "bn_conv1/keras_learning_phase"], "attr": {"T": {"type": "DT_FLOAT"}}}, {"name": "bn4a_branch2b/FusedBatchNorm", "op": "FusedBatchNorm", "input": ["res4a_branch2b/convolution", "bn4a_branch2b/gamma", "bn4a_branch2b/beta", "bn4e_branch2c/Const_4", "bn4e_branch2c/Const_4"], "attr": {"epsilon": {"f": 0.0010000000474974513}, "T": {"type": "DT_FLOAT"}, "data_format": {"s": "TkhXQw=="}, "is_training": {"b": true}}}, {"name": "bn4a_branch2b/cond/FusedBatchNorm", "op": "FusedBatchNorm", "input": ["bn4a_branch2b/cond/FusedBatchNorm/Switch", "bn4a_branch2b/cond/FusedBatchNorm/Switch_1", "bn4a_branch2b/cond/FusedBatchNorm/Switch_2", "bn4a_branch2b/cond/FusedBatchNorm/Switch_3", "bn4a_branch2b/cond/FusedBatchNorm/Switch_4"], "attr": {"epsilon": {"f": 0.0010000000474974513}, "T": {"type": "DT_FLOAT"}, "data_format": {"s": "TkhXQw=="}, "is_training": {"b": false}}}, {"name": "bn4a_branch2b/cond/Switch_1", "op": "Switch", "input": ["bn4a_branch2b/FusedBatchNorm", "bn_conv1/keras_learning_phase"], "attr": {"T": {"type": "DT_FLOAT"}}}, {"name": "bn4a_branch2b/cond/Merge", "op": "Merge", "input": ["bn4a_branch2b/cond/FusedBatchNorm", "bn4a_branch2b/cond/Switch_1:1"], "attr": {"T": {"type": "DT_FLOAT"}, "N": {"i": "2"}}}, {"name": "activation_24/Relu", "op": "Relu", "input": ["bn4a_branch2b/cond/Merge"], "attr": {"T": {"type": "DT_FLOAT"}}}, {"name": "res4a_branch2c/convolution", "op": "Conv2D", "input": ["activation_24/Relu", "res4a_branch2c/kernel"], "device": "/device:CPU:0", "attr": {"dilations": {"list": {"i": ["1", "1", "1", "1"]}}, "T": {"type": "DT_FLOAT"}, "strides": {"list": {"i": ["1", "1", "1", "1"]}}, "data_format": {"s": "TkhXQw=="}, "explicit_paddings": {"list": {}}, "use_cudnn_on_gpu": {"b": true}, "padding": {"s": "VkFMSUQ="}}}, {"name": "bn4a_branch2c/cond/FusedBatchNorm/Switch", "op": "Switch", "input": ["res4a_branch2c/convolution", "bn_conv1/keras_learning_phase"], "attr": {"T": {"type": "DT_FLOAT"}}}, {"name": "bn4a_branch2c/FusedBatchNorm", "op": "FusedBatchNorm", "input": ["res4a_branch2c/convolution", "bn4a_branch2c/gamma", "bn4a_branch2c/beta", "bn4e_branch2c/Const_4", "bn4e_branch2c/Const_4"], "attr": {"epsilon": {"f": 0.0010000000474974513}, "T": {"type": "DT_FLOAT"}, "data_format": {"s": "TkhXQw=="}, "is_training": {"b": true}}}, {"name": "bn4a_branch2c/cond/FusedBatchNorm", "op": "FusedBatchNorm", "input": ["bn4a_branch2c/cond/FusedBatchNorm/Switch", "bn4a_branch2c/cond/FusedBatchNorm/Switch_1", "bn4a_branch2c/cond/FusedBatchNorm/Switch_2", "bn4a_branch2c/cond/FusedBatchNorm/Switch_3", "bn4a_branch2c/cond/FusedBatchNorm/Switch_4"], "attr": {"epsilon": {"f": 0.0010000000474974513}, "T": {"type": "DT_FLOAT"}, "data_format": {"s": "TkhXQw=="}, "is_training": {"b": false}}}, {"name": "bn4a_branch2c/cond/Switch_1", "op": "Switch", "input": ["bn4a_branch2c/FusedBatchNorm", "bn_conv1/keras_learning_phase"], "attr": {"T": {"type": "DT_FLOAT"}}}, {"name": "bn4a_branch2c/cond/Merge", "op": "Merge", "input": ["bn4a_branch2c/cond/FusedBatchNorm", "bn4a_branch2c/cond/Switch_1:1"], "attr": {"T": {"type": "DT_FLOAT"}, "N": {"i": "2"}}}, {"name": "add_8/add", "op": "Add", "input": ["bn4a_branch1/cond/Merge", "bn4a_branch2c/cond/Merge"], "attr": {"T": {"type": "DT_FLOAT"}}}, {"name": "activation_25/Relu", "op": "Relu", "input": ["add_8/add"], "attr": {"T": {"type": "DT_FLOAT"}}}, {"name": "res4b_branch2a/convolution", "op": "Conv2D", "input": ["activation_25/Relu", "res4b_branch2a/kernel"], "device": "/device:CPU:0", "attr": {"dilations": {"list": {"i": ["1", "1", "1", "1"]}}, "T": {"type": "DT_FLOAT"}, "strides": {"list": {"i": ["1", "1", "1", "1"]}}, "data_format": {"s": "TkhXQw=="}, "explicit_paddings": {"list": {}}, "use_cudnn_on_gpu": {"b": true}, "padding": {"s": "VkFMSUQ="}}}, {"name": "bn4b_branch2a/cond/FusedBatchNorm/Switch", "op": "Switch", "input": ["res4b_branch2a/convolution", "bn_conv1/keras_learning_phase"], "attr": {"T": {"type": "DT_FLOAT"}}}, {"name": "bn4b_branch2a/FusedBatchNorm", "op": "FusedBatchNorm", "input": ["res4b_branch2a/convolution", "bn4b_branch2a/gamma", "bn4b_branch2a/beta", "bn4e_branch2c/Const_4", "bn4e_branch2c/Const_4"], "attr": {"epsilon": {"f": 0.0010000000474974513}, "T": {"type": "DT_FLOAT"}, "data_format": {"s": "TkhXQw=="}, "is_training": {"b": true}}}, {"name": "bn4b_branch2a/cond/FusedBatchNorm", "op": "FusedBatchNorm", "input": ["bn4b_branch2a/cond/FusedBatchNorm/Switch", "bn4b_branch2a/cond/FusedBatchNorm/Switch_1", "bn4b_branch2a/cond/FusedBatchNorm/Switch_2", "bn4b_branch2a/cond/FusedBatchNorm/Switch_3", "bn4b_branch2a/cond/FusedBatchNorm/Switch_4"], "attr": {"epsilon": {"f": 0.0010000000474974513}, "T": {"type": "DT_FLOAT"}, "data_format": {"s": "TkhXQw=="}, "is_training": {"b": false}}}, {"name": "bn4b_branch2a/cond/Switch_1", "op": "Switch", "input": ["bn4b_branch2a/FusedBatchNorm", "bn_conv1/keras_learning_phase"], "attr": {"T": {"type": "DT_FLOAT"}}}, {"name": "bn4b_branch2a/cond/Merge", "op": "Merge", "input": ["bn4b_branch2a/cond/FusedBatchNorm", "bn4b_branch2a/cond/Switch_1:1"], "attr": {"T": {"type": "DT_FLOAT"}, "N": {"i": "2"}}}, {"name": "activation_26/Relu", "op": "Relu", "input": ["bn4b_branch2a/cond/Merge"], "attr": {"T": {"type": "DT_FLOAT"}}}, {"name": "res4b_branch2b/convolution", "op": "Conv2D", "input": ["activation_26/Relu", "res4b_branch2b/kernel"], "device": "/device:CPU:0", "attr": {"dilations": {"list": {"i": ["1", "1", "1", "1"]}}, "T": {"type": "DT_FLOAT"}, "data_format": {"s": "TkhXQw=="}, "strides": {"list": {"i": ["1", "1", "1", "1"]}}, "explicit_paddings": {"list": {}}, "use_cudnn_on_gpu": {"b": true}, "padding": {"s": "U0FNRQ=="}}}, {"name": "bn4b_branch2b/cond/FusedBatchNorm/Switch", "op": "Switch", "input": ["res4b_branch2b/convolution", "bn_conv1/keras_learning_phase"], "attr": {"T": {"type": "DT_FLOAT"}}}, {"name": "bn4b_branch2b/FusedBatchNorm", "op": "FusedBatchNorm", "input": ["res4b_branch2b/convolution", "bn4b_branch2b/gamma", "bn4b_branch2b/beta", "bn4e_branch2c/Const_4", "bn4e_branch2c/Const_4"], "attr": {"epsilon": {"f": 0.0010000000474974513}, "T": {"type": "DT_FLOAT"}, "data_format": {"s": "TkhXQw=="}, "is_training": {"b": true}}}, {"name": "bn4b_branch2b/cond/FusedBatchNorm", "op": "FusedBatchNorm", "input": ["bn4b_branch2b/cond/FusedBatchNorm/Switch", "bn4b_branch2b/cond/FusedBatchNorm/Switch_1", "bn4b_branch2b/cond/FusedBatchNorm/Switch_2", "bn4b_branch2b/cond/FusedBatchNorm/Switch_3", "bn4b_branch2b/cond/FusedBatchNorm/Switch_4"], "attr": {"epsilon": {"f": 0.0010000000474974513}, "T": {"type": "DT_FLOAT"}, "data_format": {"s": "TkhXQw=="}, "is_training": {"b": false}}}, {"name": "bn4b_branch2b/cond/Switch_1", "op": "Switch", "input": ["bn4b_branch2b/FusedBatchNorm", "bn_conv1/keras_learning_phase"], "attr": {"T": {"type": "DT_FLOAT"}}}, {"name": "bn4b_branch2b/cond/Merge", "op": "Merge", "input": ["bn4b_branch2b/cond/FusedBatchNorm", "bn4b_branch2b/cond/Switch_1:1"], "attr": {"T": {"type": "DT_FLOAT"}, "N": {"i": "2"}}}, {"name": "activation_27/Relu", "op": "Relu", "input": ["bn4b_branch2b/cond/Merge"], "attr": {"T": {"type": "DT_FLOAT"}}}, {"name": "res4b_branch2c/convolution", "op": "Conv2D", "input": ["activation_27/Relu", "res4b_branch2c/kernel"], "device": "/device:CPU:0", "attr": {"dilations": {"list": {"i": ["1", "1", "1", "1"]}}, "T": {"type": "DT_FLOAT"}, "data_format": {"s": "TkhXQw=="}, "strides": {"list": {"i": ["1", "1", "1", "1"]}}, "explicit_paddings": {"list": {}}, "use_cudnn_on_gpu": {"b": true}, "padding": {"s": "VkFMSUQ="}}}, {"name": "bn4b_branch2c/cond/FusedBatchNorm/Switch", "op": "Switch", "input": ["res4b_branch2c/convolution", "bn_conv1/keras_learning_phase"], "attr": {"T": {"type": "DT_FLOAT"}}}, {"name": "bn4b_branch2c/FusedBatchNorm", "op": "FusedBatchNorm", "input": ["res4b_branch2c/convolution", "bn4b_branch2c/gamma", "bn4b_branch2c/beta", "bn4e_branch2c/Const_4", "bn4e_branch2c/Const_4"], "attr": {"epsilon": {"f": 0.0010000000474974513}, "T": {"type": "DT_FLOAT"}, "data_format": {"s": "TkhXQw=="}, "is_training": {"b": true}}}, {"name": "bn4b_branch2c/cond/FusedBatchNorm", "op": "FusedBatchNorm", "input": ["bn4b_branch2c/cond/FusedBatchNorm/Switch", "bn4b_branch2c/cond/FusedBatchNorm/Switch_1", "bn4b_branch2c/cond/FusedBatchNorm/Switch_2", "bn4b_branch2c/cond/FusedBatchNorm/Switch_3", "bn4b_branch2c/cond/FusedBatchNorm/Switch_4"], "attr": {"epsilon": {"f": 0.0010000000474974513}, "T": {"type": "DT_FLOAT"}, "data_format": {"s": "TkhXQw=="}, "is_training": {"b": false}}}, {"name": "bn4b_branch2c/cond/Switch_1", "op": "Switch", "input": ["bn4b_branch2c/FusedBatchNorm", "bn_conv1/keras_learning_phase"], "attr": {"T": {"type": "DT_FLOAT"}}}, {"name": "bn4b_branch2c/cond/Merge", "op": "Merge", "input": ["bn4b_branch2c/cond/FusedBatchNorm", "bn4b_branch2c/cond/Switch_1:1"], "attr": {"T": {"type": "DT_FLOAT"}, "N": {"i": "2"}}}, {"name": "add_9/add", "op": "Add", "input": ["activation_25/Relu", "bn4b_branch2c/cond/Merge"], "attr": {"T": {"type": "DT_FLOAT"}}}, {"name": "activation_28/Relu", "op": "Relu", "input": ["add_9/add"], "attr": {"T": {"type": "DT_FLOAT"}}}, {"name": "res4c_branch2a/convolution", "op": "Conv2D", "input": ["activation_28/Relu", "res4c_branch2a/kernel"], "device": "/device:CPU:0", "attr": {"dilations": {"list": {"i": ["1", "1", "1", "1"]}}, "T": {"type": "DT_FLOAT"}, "strides": {"list": {"i": ["1", "1", "1", "1"]}}, "data_format": {"s": "TkhXQw=="}, "explicit_paddings": {"list": {}}, "use_cudnn_on_gpu": {"b": true}, "padding": {"s": "VkFMSUQ="}}}, {"name": "bn4c_branch2a/cond/FusedBatchNorm/Switch", "op": "Switch", "input": ["res4c_branch2a/convolution", "bn_conv1/keras_learning_phase"], "attr": {"T": {"type": "DT_FLOAT"}}}, {"name": "bn4c_branch2a/FusedBatchNorm", "op": "FusedBatchNorm", "input": ["res4c_branch2a/convolution", "bn4c_branch2a/gamma", "bn4c_branch2a/beta", "bn4e_branch2c/Const_4", "bn4e_branch2c/Const_4"], "attr": {"epsilon": {"f": 0.0010000000474974513}, "T": {"type": "DT_FLOAT"}, "data_format": {"s": "TkhXQw=="}, "is_training": {"b": true}}}, {"name": "bn4c_branch2a/cond/FusedBatchNorm", "op": "FusedBatchNorm", "input": ["bn4c_branch2a/cond/FusedBatchNorm/Switch", "bn4c_branch2a/cond/FusedBatchNorm/Switch_1", "bn4c_branch2a/cond/FusedBatchNorm/Switch_2", "bn4c_branch2a/cond/FusedBatchNorm/Switch_3", "bn4c_branch2a/cond/FusedBatchNorm/Switch_4"], "attr": {"epsilon": {"f": 0.0010000000474974513}, "T": {"type": "DT_FLOAT"}, "data_format": {"s": "TkhXQw=="}, "is_training": {"b": false}}}, {"name": "bn4c_branch2a/cond/Switch_1", "op": "Switch", "input": ["bn4c_branch2a/FusedBatchNorm", "bn_conv1/keras_learning_phase"], "attr": {"T": {"type": "DT_FLOAT"}}}, {"name": "bn4c_branch2a/cond/Merge", "op": "Merge", "input": ["bn4c_branch2a/cond/FusedBatchNorm", "bn4…
 "TkhXQw=="}, "is_training": {"b": true}}}, {"name": "bn4e_branch2b/cond/FusedBatchNorm", "op": "FusedBatchNorm", "input": ["bn4e_branch2b/cond/FusedBatchNorm/Switch", "bn4e_branch2b/cond/FusedBatchNorm/Switch_1", "bn4e_branch2b/cond/FusedBatchNorm/Switch_2", "bn4e_branch2b/cond/FusedBatchNorm/Switch_3", "bn4e_branch2b/cond/FusedBatchNorm/Switch_4"], "attr": {"epsilon": {"f": 0.0010000000474974513}, "T": {"type": "DT_FLOAT"}, "data_format": {"s": "TkhXQw=="}, "is_training": {"b": false}}}, {"name": "bn4e_branch2b/cond/Switch_1", "op": "Switch", "input": ["bn4e_branch2b/FusedBatchNorm", "bn_conv1/keras_learning_phase"], "attr": {"T": {"type": "DT_FLOAT"}}}, {"name": "bn4e_branch2b/cond/Merge", "op": "Merge", "input": ["bn4e_branch2b/cond/FusedBatchNorm", "bn4e_branch2b/cond/Switch_1:1"], "attr": {"T": {"type": "DT_FLOAT"}, "N": {"i": "2"}}}, {"name": "activation_36/Relu", "op": "Relu", "input": ["bn4e_branch2b/cond/Merge"], "attr": {"T": {"type": "DT_FLOAT"}}}, {"name": "res4e_branch2c/convolution", "op": "Conv2D", "input": ["activation_36/Relu", "res4e_branch2c/kernel"], "device": "/device:CPU:0", "attr": {"dilations": {"list": {"i": ["1", "1", "1", "1"]}}, "T": {"type": "DT_FLOAT"}, "strides": {"list": {"i": ["1", "1", "1", "1"]}}, "data_format": {"s": "TkhXQw=="}, "explicit_paddings": {"list": {}}, "use_cudnn_on_gpu": {"b": true}, "padding": {"s": "VkFMSUQ="}}}, {"name": "bn4e_branch2c/cond/FusedBatchNorm/Switch", "op": "Switch", "input": ["res4e_branch2c/convolution", "bn_conv1/keras_learning_phase"], "attr": {"T": {"type": "DT_FLOAT"}}}, {"name": "bn4e_branch2c/FusedBatchNorm", "op": "FusedBatchNorm", "input": ["res4e_branch2c/convolution", "bn4e_branch2c/gamma", "bn4e_branch2c/beta", "bn4e_branch2c/Const_4", "bn4e_branch2c/Const_4"], "attr": {"epsilon": {"f": 0.0010000000474974513}, "T": {"type": "DT_FLOAT"}, "data_format": {"s": "TkhXQw=="}, "is_training": {"b": true}}}, {"name": "bn4e_branch2c/cond/FusedBatchNorm", "op": "FusedBatchNorm", "input": ["bn4e_branch2c/cond/FusedBatchNorm/Switch", "bn4e_branch2c/cond/FusedBatchNorm/Switch_1", "bn4e_branch2c/cond/FusedBatchNorm/Switch_2", "bn4e_branch2c/cond/FusedBatchNorm/Switch_3", "bn4e_branch2c/cond/FusedBatchNorm/Switch_4"], "attr": {"epsilon": {"f": 0.0010000000474974513}, "T": {"type": "DT_FLOAT"}, "data_format": {"s": "TkhXQw=="}, "is_training": {"b": false}}}, {"name": "bn4e_branch2c/cond/Switch_1", "op": "Switch", "input": ["bn4e_branch2c/FusedBatchNorm", "bn_conv1/keras_learning_phase"], "attr": {"T": {"type": "DT_FLOAT"}}}, {"name": "bn4e_branch2c/cond/Merge", "op": "Merge", "input": ["bn4e_branch2c/cond/FusedBatchNorm", "bn4e_branch2c/cond/Switch_1:1"], "attr": {"T": {"type": "DT_FLOAT"}, "N": {"i": "2"}}}, {"name": "add_12/add", "op": "Add", "input": ["activation_34/Relu", "bn4e_branch2c/cond/Merge"], "attr": {"T": {"type": "DT_FLOAT"}}}, {"name": "activation_37/Relu", "op": "Relu", "input": ["add_12/add"], "attr": {"T": {"type": "DT_FLOAT"}}}, {"name": "res4f_branch2a/convolution", "op": "Conv2D", "input": ["activation_37/Relu", "res4f_branch2a/kernel"], "device": "/device:CPU:0", "attr": {"dilations": {"list": {"i": ["1", "1", "1", "1"]}}, "T": {"type": "DT_FLOAT"}, "strides": {"list": {"i": ["1", "1", "1", "1"]}}, "data_format": {"s": "TkhXQw=="}, "explicit_paddings": {"list": {}}, "use_cudnn_on_gpu": {"b": true}, "padding": {"s": "VkFMSUQ="}}}, {"name": "bn4f_branch2a/cond/FusedBatchNorm/Switch", "op": "Switch", "input": ["res4f_branch2a/convolution", "bn_conv1/keras_learning_phase"], "attr": {"T": {"type": "DT_FLOAT"}}}, {"name": "bn4f_branch2a/FusedBatchNorm", "op": "FusedBatchNorm", "input": ["res4f_branch2a/convolution", "bn4f_branch2a/gamma", "bn4f_branch2a/beta", "bn4e_branch2c/Const_4", "bn4e_branch2c/Const_4"], "attr": {"epsilon": {"f": 0.0010000000474974513}, "T": {"type": "DT_FLOAT"}, "data_format": {"s": "TkhXQw=="}, "is_training": {"b": true}}}, {"name": "bn4f_branch2a/cond/FusedBatchNorm", "op": "FusedBatchNorm", "input": ["bn4f_branch2a/cond/FusedBatchNorm/Switch", "bn4f_branch2a/cond/FusedBatchNorm/Switch_1", "bn4f_branch2a/cond/FusedBatchNorm/Switch_2", "bn4f_branch2a/cond/FusedBatchNorm/Switch_3", "bn4f_branch2a/cond/FusedBatchNorm/Switch_4"], "attr": {"epsilon": {"f": 0.0010000000474974513}, "T": {"type": "DT_FLOAT"}, "data_format": {"s": "TkhXQw=="}, "is_training": {"b": false}}}, {"name": "bn4f_branch2a/cond/Switch_1", "op": "Switch", "input": ["bn4f_branch2a/FusedBatchNorm", "bn_conv1/keras_learning_phase"], "attr": {"T": {"type": "DT_FLOAT"}}}, {"name": "bn4f_branch2a/cond/Merge", "op": "Merge", "input": ["bn4f_branch2a/cond/FusedBatchNorm", "bn4f_branch2a/cond/Switch_1:1"], "attr": {"T": {"type": "DT_FLOAT"}, "N": {"i": "2"}}}, {"name": "activation_38/Relu", "op": "Relu", "input": ["bn4f_branch2a/cond/Merge"], "attr": {"T": {"type": "DT_FLOAT"}}}, {"name": "res4f_branch2b/convolution", "op": "Conv2D", "input": ["activation_38/Relu", "res4f_branch2b/kernel"], "device": "/device:CPU:0", "attr": {"dilations": {"list": {"i": ["1", "1", "1", "1"]}}, "T": {"type": "DT_FLOAT"}, "strides": {"list": {"i": ["1", "1", "1", "1"]}}, "data_format": {"s": "TkhXQw=="}, "explicit_paddings": {"list": {}}, "use_cudnn_on_gpu": {"b": true}, "padding": {"s": "U0FNRQ=="}}}, {"name": "bn4f_branch2b/cond/FusedBatchNorm/Switch", "op": "Switch", "input": ["res4f_branch2b/convolution", "bn_conv1/keras_learning_phase"], "attr": {"T": {"type": "DT_FLOAT"}}}, {"name": "bn4f_branch2b/FusedBatchNorm", "op": "FusedBatchNorm", "input": ["res4f_branch2b/convolution", "bn4f_branch2b/gamma", "bn4f_branch2b/beta", "bn4e_branch2c/Const_4", "bn4e_branch2c/Const_4"], "attr": {"epsilon": {"f": 0.0010000000474974513}, "T": {"type": "DT_FLOAT"}, "data_format": {"s": "TkhXQw=="}, "is_training": {"b": true}}}, {"name": "bn4f_branch2b/cond/FusedBatchNorm", "op": "FusedBatchNorm", "input": ["bn4f_branch2b/cond/FusedBatchNorm/Switch", "bn4f_branch2b/cond/FusedBatchNorm/Switch_1", "bn4f_branch2b/cond/FusedBatchNorm/Switch_2", "bn4f_branch2b/cond/FusedBatchNorm/Switch_3", "bn4f_branch2b/cond/FusedBatchNorm/Switch_4"], "attr": {"epsilon": {"f": 0.0010000000474974513}, "T": {"type": "DT_FLOAT"}, "data_format": {"s": "TkhXQw=="}, "is_training": {"b": false}}}, {"name": "bn4f_branch2b/cond/Switch_1", "op": "Switch", "input": ["bn4f_branch2b/FusedBatchNorm", "bn_conv1/keras_learning_phase"], "attr": {"T": {"type": "DT_FLOAT"}}}, {"name": "bn4f_branch2b/cond/Merge", "op": "Merge", "input": ["bn4f_branch2b/cond/FusedBatchNorm", "bn4f_branch2b/cond/Switch_1:1"], "attr": {"T": {"type": "DT_FLOAT"}, "N": {"i": "2"}}}, {"name": "activation_39/Relu", "op": "Relu", "input": ["bn4f_branch2b/cond/Merge"], "attr": {"T": {"type": "DT_FLOAT"}}}, {"name": "res4f_branch2c/convolution", "op": "Conv2D", "input": ["activation_39/Relu", "res4f_branch2c/kernel"], "device": "/device:CPU:0", "attr": {"dilations": {"list": {"i": ["1", "1", "1", "1"]}}, "T": {"type": "DT_FLOAT"}, "data_format": {"s": "TkhXQw=="}, "strides": {"list": {"i": ["1", "1", "1", "1"]}}, "explicit_paddings": {"list": {}}, "use_cudnn_on_gpu": {"b": true}, "padding": {"s": "VkFMSUQ="}}}, {"name": "bn4f_branch2c/cond/FusedBatchNorm/Switch", "op": "Switch", "input": ["res4f_branch2c/convolution", "bn_conv1/keras_learning_phase"], "attr": {"T": {"type": "DT_FLOAT"}}}, {"name": "bn4f_branch2c/FusedBatchNorm", "op": "FusedBatchNorm", "input": ["res4f_branch2c/convolution", "bn4f_branch2c/gamma", "bn4f_branch2c/beta", "bn4e_branch2c/Const_4", "bn4e_branch2c/Const_4"], "attr": {"epsilon": {"f": 0.0010000000474974513}, "T": {"type": "DT_FLOAT"}, "data_format": {"s": "TkhXQw=="}, "is_training": {"b": true}}}, {"name": "bn4f_branch2c/cond/FusedBatchNorm", "op": "FusedBatchNorm", "input": ["bn4f_branch2c/cond/FusedBatchNorm/Switch", "bn4f_branch2c/cond/FusedBatchNorm/Switch_1", "bn4f_branch2c/cond/FusedBatchNorm/Switch_2", "bn4f_branch2c/cond/FusedBatchNorm/Switch_3", "bn4f_branch2c/cond/FusedBatchNorm/Switch_4"], "attr": {"epsilon": {"f": 0.0010000000474974513}, "T": {"type": "DT_FLOAT"}, "data_format": {"s": "TkhXQw=="}, "is_training": {"b": false}}}, {"name": "bn4f_branch2c/cond/Switch_1", "op": "Switch", "input": ["bn4f_branch2c/FusedBatchNorm", "bn_conv1/keras_learning_phase"], "attr": {"T": {"type": "DT_FLOAT"}}}, {"name": "bn4f_branch2c/cond/Merge", "op": "Merge", "input": ["bn4f_branch2c/cond/FusedBatchNorm", "bn4f_branch2c/cond/Switch_1:1"], "attr": {"T": {"type": "DT_FLOAT"}, "N": {"i": "2"}}}, {"name": "add_13/add", "op": "Add", "input": ["activation_37/Relu", "bn4f_branch2c/cond/Merge"], "attr": {"T": {"type": "DT_FLOAT"}}}, {"name": "activation_40/Relu", "op": "Relu", "input": ["add_13/add"], "attr": {"T": {"type": "DT_FLOAT"}}}, {"name": "res5a_branch2a/convolution", "op": "Conv2D", "input": ["activation_40/Relu", "res5a_branch2a/kernel"], "device": "/device:CPU:0", "attr": {"dilations": {"list": {"i": ["1", "1", "1", "1"]}}, "T": {"type": "DT_FLOAT"}, "data_format": {"s": "TkhXQw=="}, "strides": {"list": {"i": ["1", "2", "2", "1"]}}, "explicit_paddings": {"list": {}}, "use_cudnn_on_gpu": {"b": true}, "padding": {"s": "VkFMSUQ="}}}, {"name": "res5a_branch1/convolution", "op": "Conv2D", "input": ["activation_40/Relu", "res5a_branch1/kernel"], "device": "/device:CPU:0", "attr": {"dilations": {"list": {"i": ["1", "1", "1", "1"]}}, "T": {"type": "DT_FLOAT"}, "strides": {"list": {"i": ["1", "2", "2", "1"]}}, "data_format": {"s": "TkhXQw=="}, "explicit_paddings": {"list": {}}, "use_cudnn_on_gpu": {"b": true}, "padding": {"s": "VkFMSUQ="}}}, {"name": "bn5a_branch2a/cond/FusedBatchNorm/Switch", "op": "Switch", "input": ["res5a_branch2a/convolution", "bn_conv1/keras_learning_phase"], "attr": {"T": {"type": "DT_FLOAT"}}}, {"name": "bn5a_branch2a/FusedBatchNorm", "op": "FusedBatchNorm", "input": ["res5a_branch2a/convolution", "bn5a_branch2a/gamma", "bn5a_branch2a/beta", "bn4e_branch2c/Const_4", "bn4e_branch2c/Const_4"], "attr": {"epsilon": {"f": 0.0010000000474974513}, "T": {"type": "DT_FLOAT"}, "data_format": {"s": "TkhXQw=="}, "is_training": {"b": true}}}, {"name": "bn5a_branch1/cond/FusedBatchNorm/Switch", "op": "Switch", "input": ["res5a_branch1/convolution", "bn_conv1/keras_learning_phase"], "attr": {"T": {"type": "DT_FLOAT"}}}, {"name": "bn5a_branch1/FusedBatchNorm", "op": "FusedBatchNorm", "input": ["res5a_branch1/convolution", "bn5a_branch1/gamma", "bn5a_branch2c/beta", "bn4e_branch2c/Const_4", "bn4e_branch2c/Const_4"], "attr": {"epsilon": {"f": 0.0010000000474974513}, "T": {"type": "DT_FLOAT"}, "data_format": {"s": "TkhXQw=="}, "is_training": {"b": true}}}, {"name": "bn5a_branch2a/cond/FusedBatchNorm", "op": "FusedBatchNorm", "input": ["bn5a_branch2a/cond/FusedBatchNorm/Switch", "bn5a_branch2a/cond/FusedBatchNorm/Switch_1", "bn5a_branch2a/cond/FusedBatchNorm/Switch_2", "bn5a_branch2a/cond/FusedBatchNorm/Switch_3", "bn5a_branch2a/cond/FusedBatchNorm/Switch_4"], "attr": {"epsilon": {"f": 0.0010000000474974513}, "T": {"type": "DT_FLOAT"}, "data_format": {"s": "TkhXQw=="}, "is_training": {"b": false}}}, {"name": "bn5a_branch2a/cond/Switch_1", "op": "Switch", "input": ["bn5a_branch2a/FusedBatchNorm", "bn_conv1/keras_learning_phase"], "attr": {"T": {"type": "DT_FLOAT"}}}, {"name": "bn5a_branch1/cond/FusedBatchNorm", "op": "FusedBatchNorm", "input": ["bn5a_branch1/cond/FusedBatchNorm/Switch", "bn5a_branch1/cond/FusedBatchNorm/Switch_1", "bn5a_branch2c/cond/FusedBatchNorm/Switch_2", "bn5a_branch1/cond/FusedBatchNorm/Switch_3", "bn5a_branch1/cond/FusedBatchNorm/Switch_4"], "attr": {"epsilon": {"f": 0.0010000000474974513}, "T": {"type": "DT_FLOAT"}, "data_format": {"s": "TkhXQw=="}, "is_training": {"b": false}}}, {"name": "bn5a_branch1/cond/Switch_1", "op": "Switch", "input": ["bn5a_branch1/FusedBatchNorm", "bn_conv1/keras_learning_phase"], "attr": {"T": {"type": "DT_FLOAT"}}}, {"name": "bn5a_branch2a/cond/Merge", "op": "Merge", "input": ["bn5a_branch2a/cond/FusedBatchNorm", "bn5a_branch2a/cond/Switch_1:1"], "attr": {"T": {"type": "DT_FLOAT"}, "N": {"i": "2"}}}, {"name": "bn5a_branch1/cond/Merge", "op": "Merge", "input": ["bn5a_branch1/cond/FusedBatchNorm", "bn5a_branch1/cond/Switch_1:1"], "attr": {"T": {"type": "DT_FLOAT"}, "N": {"i": "2"}}}, {"name": "activation_41/Relu", "op": "Relu", "input": ["bn5a_branch2a/cond/Merge"], "attr": {"T": {"type": "DT_FLOAT"}}}, {"name": "res5a_branch2b/convolution", "op": "Conv2D", "input": ["activation_41/Relu", "res5a_branch2b/kernel"], "device": "/device:CPU:0", "attr": {"dilations": {"list": {"i": ["1", "1", "1", "1"]}}, "T": {"type": "DT_FLOAT"}, "data_format": {"s": "TkhXQw=="}, "strides": {"list": {"i": ["1", "1", "1", "1"]}}, "explicit_paddings": {"list": {}}, "use_cudnn_on_gpu": {"b": true}, "padding": {"s": "U0FNRQ=="}}}, {"name": "bn5a_branch2b/cond/FusedBatchNorm/Switch", "op": "Switch", "input": ["res5a_branch2b/convolution", "bn_conv1/keras_learning_phase"], "attr": {"T": {"type": "DT_FLOAT"}}}, {"name": "bn5a_branch2b/FusedBatchNorm", "op": "FusedBatchNorm", "input": ["res5a_branch2b/convolution", "bn5a_branch2b/gamma", "bn5a_branch2b/beta", "bn4e_branch2c/Const_4", "bn4e_branch2c/Const_4"], "attr": {"epsilon": {"f": 0.0010000000474974513}, "T": {"type": "DT_FLOAT"}, "data_format": {"s": "TkhXQw=="}, "is_training": {"b": true}}}, {"name": "bn5a_branch2b/cond/FusedBatchNorm", "op": "FusedBatchNorm", "input": ["bn5a_branch2b/cond/FusedBatchNorm/Switch", "bn5a_branch2b/cond/FusedBatchNorm/Switch_1", "bn5a_branch2b/cond/FusedBatchNorm/Switch_2", "bn5a_branch2b/cond/FusedBatchNorm/Switch_3", "bn5a_branch2b/cond/FusedBatchNorm/Switch_4"], "attr": {"epsilon": {"f": 0.0010000000474974513}, "T": {"type": "DT_FLOAT"}, "data_format": {"s": "TkhXQw=="}, "is_training": {"b": false}}}, {"name": "bn5a_branch2b/cond/Switch_1", "op": "Switch", "input": ["bn5a_branch2b/FusedBatchNorm", "bn_conv1/keras_learning_phase"], "attr": {"T": {"type": "DT_FLOAT"}}}, {"name": "bn5a_branch2b/cond/Merge", "op": "Merge", "input": ["bn5a_branch2b/cond/FusedBatchNorm", "bn5a_branch2b/cond/Switch_1:1"], "attr": {"T": {"type": "DT_FLOAT"}, "N": {"i": "2"}}}, {"name": "activation_42/Relu", "op": "Relu", "input": ["bn5a_branch2b/cond/Merge"], "attr": {"T": {"type": "DT_FLOAT"}}}, {"name": "res5a_branch2c/convolution", "op": "Conv2D", "input": ["activation_42/Relu", "res5a_branch2c/kernel"], "device": "/device:CPU:0", "attr": {"dilations": {"list": {"i": ["1", "1", "1", "1"]}}, "T": {"type": "DT_FLOAT"}, "data_format": {"s": "TkhXQw=="}, "strides": {"list": {"i": ["1", "1", "1", "1"]}}, "explicit_paddings": {"list": {}}, "use_cudnn_on_gpu": {"b": true}, "padding": {"s": "VkFMSUQ="}}}, {"name": "bn5a_branch2c/cond/FusedBatchNorm/Switch", "op": "Switch", "input": ["res5a_branch2c/convolution", "bn_conv1/keras_learning_phase"], "attr": {"T": {"type": "DT_FLOAT"}}}, {"name": "bn5a_branch2c/FusedBatchNorm", "op": "FusedBatchNorm", "input": ["res5a_branch2c/convolution", "bn5a_branch2c/gamma", "bn5a_branch2c/beta", "bn4e_branch2c/Const_4", "bn4e_branch2c/Const_4"], "attr": {"epsilon": {"f": 0.0010000000474974513}, "T": {"type": "DT_FLOAT"}, "data_format": {"s": "TkhXQw=="}, "is_training": {"b": true}}}, {"name": "bn5a_branch2c/cond/FusedBatchNorm", "op": "FusedBatchNorm", "input": ["bn5a_branch2c/cond/FusedBatchNorm/Switch", "bn5a_branch2c/cond/FusedBatchNorm/Switch_1", "bn5a_branch2c/cond/FusedBatchNorm/Switch_2", "bn5a_branch2c/cond/FusedBatchNorm/Switch_3", "bn5a_branch2c/cond/FusedBatchNorm/Switch_4"], "attr": {"epsilon": {"f": 0.0010000000474974513}, "T": {"type": "DT_FLOAT"}, "data_format": {"s": "TkhXQw=="}, "is_training": {"b": false}}}, {"name": "bn5a_branch2c/cond/Switch_1", "op": "Switch", "input": ["bn5a_branch2c/FusedBatchNorm", "bn_conv1/keras_learning_phase"], "attr": {"T": {"type": "DT_FLOAT"}}}, {"name": "bn5a_branch2c/cond/Merge", "op": "Merge", "input": ["bn5a_branch2c/cond/FusedBatchNorm", "bn5a_branch2c/cond/Switch_1:1"], "attr": {"T": {"type": "DT_FLOAT"}, "N": {"i": "2"}}}, {"name": "add_14/add", "op": "Add", "input": ["bn5a_branch1/cond/Merge", "bn5a_branch2c/cond/Merge"], "attr": {"T": {"type": "DT_FLOAT"}}}, {"name": "activation_43/Relu", "op": "Relu", "input": ["add_14/add"], "attr": {"T": {"type": "DT_FLOAT"}}}, {"name": "res5b_branch2a/convolution", "op": "Conv2D", "input": ["activation_43/Relu", "res5b_branch2a/kernel"], "device": "/device:CPU:0", "attr": {"dilations": {"list": {"i": ["1", "1", "1", "1"]}}, "T": {"type": "DT_FLOAT"}, "strides": {"list": {"i": ["1", "1", "1", "1"]}}, "data_format": {"s": "TkhXQw=="}, "explicit_paddings": {"list": {}}, "use_cudnn_on_gpu": {"b": true}, "padding": {"s": "VkFMSUQ="}}}, {"name": "bn5b_branch2a/cond/FusedBatchNorm/Switch", "op": "Switch", "input": ["res5b_branch2a/convolution", "bn_conv1/keras_learning_phase"], "attr": {"T": {"type": "DT_FLOAT"}}}, {"name": "bn5b_branch2a/FusedBatchNorm", "op": "FusedBatchNorm", "input": ["res5b_branch2a/convolution", "bn5b_branch2a/gamma", "bn5b_branch2a/beta", "bn4e_branch2c/Const_4", "bn4e_branch2c/Const_4"], "attr": {"epsilon": {"f": 0.0010000000474974513}, "T": {"type": "DT_FLOAT"}, "data_format": {"s": "TkhXQw=="}, "is_training": {"b": true}}}, {"name": "bn5b_branch2a/cond/FusedBatchNorm", "op": "FusedBatchNorm", "input": ["bn5b_branch2a/cond/FusedBatchNorm/Switch", "bn5b_branch2a/cond/FusedBatchNorm/Switch_1", "bn5b_branch2a/cond/FusedBatchNorm/Switch_2", "bn5b_branch2a/cond/FusedBatchNorm/Switch_3", "bn5b_branch2a/cond/FusedBatchNorm/Switch_4"], "attr": {"epsilon": {"f": 0.0010000000474974513}, "T": {"type": "DT_FLOAT"}, "data_format": {"s": "TkhXQw=="}, "is_training": {"b": false}}}, {"name": "bn5b_branch2a/cond/Switch_1", "op": "Switch", "input": ["bn5b_branch2a/FusedBatchNorm", "bn_conv1/keras_learning_phase"], "attr": {"T": {"type": "DT_FLOAT"}}}, {"name": "bn5b_branch2a/cond/Merge", "op": "Merge", "input": ["bn5b_branch2a/cond/FusedBatchNorm", "bn5b_branch2a/cond/Switch_1:1"], "attr": {"T": {"type": "DT_FLOAT"}, "N": {"i": "2"}}}, {"name": "activation_44/Relu", "op": "Relu", "input": ["bn5b_branch2a/cond/Merge"], "attr": {"T": {"type": "DT_FLOAT"}}}, {"name": "res5b_branch2b/convolution", "op": "Conv2D", "input": ["activation_44/Relu", "res5b_branch2b/kernel"], "device": "/device:CPU:0", "attr": {"dilations": {"list": {"i": ["1", "1", "1", "1"]}}, "T": {"type": "DT_FLOAT"}, "strides": {"list": {"i": ["1", "1", "1", "1"]}}, "data_format": {"s": "TkhXQw=="}, "explicit_paddings": {"list": {}}, "use_cudnn_on_gpu": {"b": true}, "padding": {"s": "U0FNRQ=="}}}, {"name": "bn5b_branch2b/cond/FusedBatchNorm/Switch", "op": "Switch", "input": ["res5b_branch2b/convolution", "bn_conv1/keras_learning_phase"], "attr": {"T": {"type": "DT_FLOAT"}}}, {"name": "bn5b_branch2b/FusedBatchNorm", "op": "FusedBatchNorm", "input": ["res5b_branch2b/convolution", "bn5b_branch2b/gamma", "bn5b_branch2b/beta", "bn4e_branch2c/Const_4", "bn4e_branch2c/Const_4"], "attr": {"epsilon": {"f": 0.0010000000474974513}, "T": {"type": "DT_FLOAT"}, "data_format": {"s": "TkhXQw=="}, "is_training": {"b": true}}}, {"name": "bn5b_branch2b/cond/FusedBatchNorm", "op": "FusedBatchNorm", "input": ["bn5b_branch2b/cond/FusedBatchNorm/Switch", "bn5b_branch2b/cond/FusedBatchNorm/Switch_1", "bn5b_branch2b/cond/FusedBatchNorm/Switch_2", "bn5b_branch2b/cond/FusedBatchNorm/Switch_3", "bn5b_branch2b/cond/FusedBatchNorm/Switch_4"], "attr": {"epsilon": {"f": 0.0010000000474974513}, "T": {"type": "DT_FLOAT"}, "data_format": {"s": "TkhXQw=="}, "is_training": {"b": false}}}, {"name": "bn5b_branch2b/cond/Switch_1", "op": "Switch", "input": ["bn5b_branch2b/FusedBatchNorm", "bn_conv1/keras_learning_phase"], "attr": {"T": {"type": "DT_FLOAT"}}}, {"name": "bn5b_branch2b/cond/Merge", "op": "Merge", "input": ["bn5b_branch2b/cond/FusedBatchNorm", "bn5b_branch2b/cond/Switch_1:1"], "attr": {"T": {"type": "DT_FLOAT"}, "N": {"i": "2"}}}, {"name": "activation_45/Relu", "op": "Relu", "input": ["bn5b_branch2b/cond/Merge"], "attr": {"T": {"type": "DT_FLOAT"}}}, {"name": "res5b_branch2c/convolution", "op": "Conv2D", "input": ["activation_45/Relu", "res5b_branch2c/kernel"], "device": "/device:CPU:0", "attr": {"dilations": {"list": {"i": ["1", "1", "1", "1"]}}, "T": {"type": "DT_FLOAT"}, "strides": {"list": {"i": ["1", "1", "1", "1"]}}, "data_format": {"s": "TkhXQw=="}, "explicit_paddings": {"list": {}}, "use_cudnn_on_gpu": {"b": true}, "padding": {"s": "VkFMSUQ="}}}, {"name": "bn5b_branch2c/cond/FusedBatchNorm/Switch", "op": "Switch", "input": ["res5b_branch2c/convolution", "bn_conv1/keras_learning_phase"], "attr": {"T": {"type": "DT_FLOAT"}}}, {"name": "bn5b_branch2c/FusedBatchNorm", "op": "FusedBatchNorm", "input": ["res5b_branch2c/convolution", "bn5b_branch2c/gamma", "bn5b_branch2c/beta", "bn4e_branch2c/Const_4", "bn4e_branch2c/Const_4"], "attr": {"epsilon": {"f": 0.0010000000474974513}, "T": {"type": "DT_FLOAT"}, "data_format": {"s": "TkhXQw=="}, "is_training": {"b": true}}}, {"name": "bn5b_branch2c/cond/FusedBatchNorm", "op": "FusedBatchNorm", "input": ["bn5b_branch2c/cond/FusedBatchNorm/Switch", "bn5b_branch2c/cond/FusedBatchNorm/Switch_1", "bn5b_branch2c/cond/FusedBatchNorm/Switch_2", "bn5b_branch2c/cond/FusedBatchNorm/Switch_3", "bn5b_branch2c/cond/FusedBatchNorm/Switch_4"], "attr": {"epsilon": {"f": 0.0010000000474974513}, "T": {"type": "DT_FLOAT"}, "data_format": {"s": "TkhXQw=="}, "is_training": {"b": false}}}, {"name": "bn5b_branch2c/cond/Switch_1", "op": "Switch", "input": ["bn5b_branch2c/FusedBatchNorm", "bn_conv1/keras_learning_phase"], "attr": {"T": {"type": "DT_FLOAT"}}}, {"name": "bn5b_branch2c/cond/Merge", "op": "Merge", "input": ["bn5b_branch2c/cond/FusedBatchNorm", "bn5b_branch2c/cond/Switch_1:1"], "attr": {"T": {"type": "DT_FLOAT"}, "N": {"i": "2"}}}, {"name": "add_15/add", "op": "Add", "input": ["activation_43/Relu", "bn5b_branch2c/cond/Merge"], "attr": {"T": {"type": "DT_FLOAT"}}}, {"name": "activation_46/Relu", "op": "Relu", "input": ["add_15/add"], "attr": {"T": {"type": "DT_FLOAT"}}}, {"name": "res5c_branch2a/convolution", "op": "Conv2D", "input": ["activation_46/Relu", "res5c_branch2a/kernel"], "device": "/device:CPU:0", "attr": {"dilations": {"list": {"i": ["1", "1", "1", "1"]}}, "T": {"type": "DT_FLOAT"}, "strides": {"list": {"i": ["1", "1", "1", "1"]}}, "data_format": {"s": "TkhXQw=="}, "explicit_paddings": {"list": {}}, "use_cudnn_on_gpu": {"b": true}, "padding": {"s": "VkFMSUQ="}}}, {"name": "bn5c_branch2a/FusedBatchNorm", "op": "FusedBatchNorm", "input": ["res5c_branch2a/convolution", "bn5c_branch2a/gamma", "bn5c_branch2a/beta", "bn4e_branch2c/Const_4", "bn4e_branch2c/Const_4"], "attr": {"epsilon": {"f": 0.0010000000474974513}, "T": {"type": "DT_FLOAT"}, "data_format": {"s": "TkhXQw=="}, "is_training": {"b": true}}}, {"name": "bn5c_branch2a/cond/FusedBatchNorm/Switch", "op": "Switch", "input": ["res5c_branch2a/convolution", "bn_conv1/keras_learning_phase"], "attr": {"T": {"type": "DT_FLOAT"}}}, {"name": "bn5c_branch2a/cond/Switch_1", "op": "Switch", "input": ["bn5c_branch2a/FusedBatchNorm", "bn_conv1/keras_learning_phase"], "attr": {"T": {"type": "DT_FLOAT"}}}, {"name": "bn5c_branch2a/cond/FusedBatchNorm", "op": "FusedBatchNorm", "input": ["bn5c_branch2a/cond/FusedBatchNorm/Switch", "bn5c_branch2a/cond/FusedBatchNorm/Switch_1", "bn5c_branch2a/cond/FusedBatchNorm/Switch_2", "bn5c_branch2a/cond/FusedBatchNorm/Switch_3", "bn5c_branch2a/cond/FusedBatchNorm/Switch_4"], "attr": {"epsilon": {"f": 0.0010000000474974513}, "T": {"type": "DT_FLOAT"}, "data_format": {"s": "TkhXQw=="}, "is_training": {"b": false}}}, {"name": "bn5c_branch2a/cond/Merge", "op": "Merge", "input": ["bn5c_branch2a/cond/FusedBatchNorm", "bn5c_branch2a/cond/Switch_1:1"], "attr": {"T": {"type": "DT_FLOAT"}, "N": {"i": "2"}}}, {"name": "activation_47/Relu", "op": "Relu", "input": ["bn5c_branch2a/cond/Merge"], "attr": {"T": {"type": "DT_FLOAT"}}}, {"name": "res5c_branch2b/convolution", "op": "Conv2D", "input": ["activation_47/Relu", "res5c_branch2b/kernel"], "device": "/device:CPU:0", "attr": {"dilations": {"list": {"i": ["1", "1", "1", "1"]}}, "T": {"type": "DT_FLOAT"}, "strides": {"list": {"i": ["1", "1", "1", "1"]}}, "data_format": {"s": "TkhXQw=="}, "explicit_paddings": {"list": {}}, "use_cudnn_on_gpu": {"b": true}, "padding": {"s": "U0FNRQ=="}}}, {"name": "bn5c_branch2b/cond/FusedBatchNorm/Switch", "op": "Switch", "input": ["res5c_branch2b/convolution", "bn_conv1/keras_learning_phase"], "attr": {"T": {"type": "DT_FLOAT"}}}, {"name": "bn5c_branch2b/FusedBatchNorm", "op": "FusedBatchNorm", "input": ["res5c_branch2b/convolution", "bn5c_branch2b/gamma", "bn5c_branch2b/beta", "bn4e_branch2c/Const_4", "bn4e_branch2c/Const_4"], "attr": {"epsilon": {"f": 0.0010000000474974513}, "T": {"type": "DT_FLOAT"}, "data_format": {"s": "TkhXQw=="}, "is_training": {"b": true}}}, {"name": "bn5c_branch2b/cond/FusedBatchNorm", "op": "FusedBatchNorm", "input": ["bn5c_branch2b/cond/FusedBatchNorm/Switch", "bn5c_branch2b/cond/FusedBatchNorm/Switch_1", "bn5c_branch2b/cond/FusedBatchNorm/Switch_2", "bn5c_branch2b/cond/FusedBatchNorm/Switch_3", "bn5c_branch2b/cond/FusedBatchNorm/Switch_4"], "attr": {"epsilon": {"f": 0.0010000000474974513}, "T": {"type": "DT_FLOAT"}, "data_format": {"s": "TkhXQw=="}, "is_training": {"b": false}}}, {"name": "bn5c_branch2b/cond/Switch_1", "op": "Switch", "input": ["bn5c_branch2b/FusedBatchNorm", "bn_conv1/keras_learning_phase"], "attr": {"T": {"type": "DT_FLOAT"}}}, {"name": "bn5c_branch2b/cond/Merge", "op": "Merge", "input": ["bn5c_branch2b/cond/FusedBatchNorm", "bn5c_branch2b/cond/Switch_1:1"], "attr": {"T": {"type": "DT_FLOAT"}, "N": {"i": "2"}}}, {"name": "activation_48/Relu", "op": "Relu", "input": ["bn5c_branch2b/cond/Merge"], "attr": {"T": {"type": "DT_FLOAT"}}}, {"name": "res5c_branch2c/convolution", "op": "Conv2D", "input": ["activation_48/Relu", "res5c_branch2c/kernel"], "device": "/device:CPU:0", "attr": {"dilations": {"list": {"i": ["1", "1", "1", "1"]}}, "T": {"type": "DT_FLOAT"}, "strides": {"list": {"i": ["1", "1", "1", "1"]}}, "data_format": {"s": "TkhXQw=="}, "explicit_paddings": {"list": {}}, "use_cudnn_on_gpu": {"b": true}, "padding": {"s": "VkFMSUQ="}}}, {"name": "bn5c_branch2c/cond/FusedBatchNorm/Switch", "op": "Switch", "input": ["res5c_branch2c/convolution", "bn_conv1/keras_learning_phase"], "attr": {"T": {"type": "DT_FLOAT"}}}, {"name": "bn5c_branch2c/FusedBatchNorm", "op": "FusedBatchNorm", "input": ["res5c_branch2c/convolution", "bn5c_branch2c/gamma", "bn5c_branch2c/beta", "bn4e_branch2c/Const_4", "bn4e_branch2c/Const_4"], "attr": {"epsilon": {"f": 0.0010000000474974513}, "T": {"type": "DT_FLOAT"}, "data_format": {"s": "TkhXQw=="}, "is_training": {"b": true}}}, {"name": "bn5c_branch2c/cond/FusedBatchNorm", "op": "FusedBatchNorm", "input": ["bn5c_branch2c/cond/FusedBatchNorm/Switch", "bn5c_branch2c/cond/FusedBatchNorm/Switch_1", "bn5c_branch2c/cond/FusedBatchNorm/Switch_2", "bn5c_branch2c/cond/FusedBatchNorm/Switch_3", "bn5c_branch2c/cond/FusedBatchNorm/Switch_4"], "attr": {"epsilon": {"f": 0.0010000000474974513}, "T": {"type": "DT_FLOAT"}, "data_format": {"s": "TkhXQw=="}, "is_training": {"b": false}}}, {"name": "bn5c_branch2c/cond/Switch_1", "op": "Switch", "input": ["bn5c_branch2c/FusedBatchNorm", "bn_conv1/keras_learning_phase"], "attr": {"T": {"type": "DT_FLOAT"}}}, {"name": "bn5c_branch2c/cond/Merge", "op": "Merge", "input": ["bn5c_branch2c/cond/FusedBatchNorm", "bn5c_branch2c/cond/Switch_1:1"], "attr": {"T": {"type": "DT_FLOAT"}, "N": {"i": "2"}}}, {"name": "add_16/add", "op": "Add", "input": ["activation_46/Relu", "bn5c_branch2c/cond/Merge"], "attr": {"T": {"type": "DT_FLOAT"}}}, {"name": "activation_49/Relu", "op": "Relu", "input": ["add_16/add"], "attr": {"T": {"type": "DT_FLOAT"}}}, {"name": "flatten_1/Shape", "op": "Shape", "input": ["activation_49/Relu"], "attr": {"T": {"type": "DT_FLOAT"}, "out_type": {"type": "DT_INT32"}}}, {"name": "flatten_1/strided_slice", "op": "StridedSlice", "input": ["flatten_1/Shape", "flatten_1/strided_slice/stack", "flatten_1/strided_slice/stack_1", "flatten_1/strided_slice/stack"], "attr": {"T": {"type": "DT_INT32"}, "Index": {"type": "DT_INT32"}, "shrink_axis_mask": {"i": "0"}, "begin_mask": {"i": "0"}, "ellipsis_mask": {"i": "0"}, "new_axis_mask": {"i": "0"}, "end_mask": {"i": "1"}}}, {"name": "flatten_1/Prod", "op": "Prod", "input": ["flatten_1/strided_slice", "flatten_1/strided_slice/stack_1"], "attr": {"Tidx": {"type": "DT_INT32"}, "keep_dims": {"b": false}, "T": {"type": "DT_INT32"}}}, {"name": "flatten_1/stack", "op": "Pack", "input": ["flatten_1/stack/0", "flatten_1/Prod"], "attr": {"T": {"type": "DT_INT32"}, "axis": {"i": "0"}, "N": {"i": "2"}}}, {"name": "flatten_1/Reshape", "op": "Reshape", "input": ["activation_49/Relu", "flatten_1/stack"], "attr": {"T": {"type": "DT_FLOAT"}, "Tshape": {"type": "DT_INT32"}}}, {"name": "dense_1/MatMul", "op": "MatMul", "input": ["flatten_1/Reshape", "dense_1/kernel"], "attr": {"transpose_b": {"b": false}, "T": {"type": "DT_FLOAT"}, "transpose_a": {"b": false}}}, {"name": "dense_1/BiasAdd", "op": "BiasAdd", "input": ["dense_1/MatMul", "dense_1/bias"], "attr": {"T": {"type": "DT_FLOAT"}, "data_format": {"s": "TkhXQw=="}}}, {"name": "dense_1/Softmax", "op": "Softmax", "input": ["dense_1/BiasAdd"], "attr": {"T": {"type": "DT_FLOAT"}}}], "versions": {"producer": 134, "minConsumer": 12}}, "weightsManifest": [{"paths": ["group1-shard1of24.bin", "group1-shard2of24.bin", "group1-shard3of24.bin", "group1-shard4of24.bin", "group1-shard5of24.bin", "group1-shard6of24.bin", "group1-shard7of24.bin", "group1-shard8of24.bin", "group1-shard9of24.bin", "group1-shard10of24.bin", "group1-shard11of24.bin", "group1-shard12of24.bin", "group1-shard13of24.bin", "group1-shard14of24.bin", "group1-shard15of24.bin", "group1-shard16of24.bin", "group1-shard17of24.bin", "group1-shard18of24.bin", "group1-shard19of24.bin", "group1-shard20of24.bin", "group1-shard21of24.bin", "group1-shard22of24.bin", "group1-shard23of24.bin", "group1-shard24of24.bin"], "weights": [{"name": "flatten_1/stack/0", "shape": [], "dtype": "int32"}, {"name": "conv1_pad/Pad/paddings", "shape": [4, 2], "dtype": "int32"}, {"name": "conv1/kernel", "shape": [7, 7, 3, 64], "dtype": "float32"}, {"name": "conv1/bias", "shape": [64], "dtype": "float32"}, {"name": "bn_conv1/keras_learning_phase/input", "shape": [], "dtype": "bool"}, {"name": "bn4e_branch2c/moving_mean", "shape": [1024], "dtype": "float32"}, {"name": "bn5c_branch2a/moving_mean", "shape": [512], "dtype": "float32"}, {"name": "bn4e_branch2c/moving_variance", "shape": [1024], "dtype": "float32"}, {"name": "bn4e_branch2c/Const_4", "shape": [0], "dtype": "float32"}, {"name": "res4f_branch2a/kernel", "shape": [1, 1, 1024, 256], "dtype": "float32"}, {"name": "bn5c_branch2a/moving_variance", "shape": [512], "dtype": "float32"}, {"name": "bn4f_branch2a/gamma", "shape": [256], "dtype": "float32"}, {"name": "flatten_1/strided_slice/stack", "shape": [1], "dtype": "int32"}, {"name": "bn4f_branch2a/beta", "shape": [256], "dtype": "float32"}, {"name": "bn4f_branch2a/moving_mean", "shape": [256], "dtype": "float32"}, {"name": "bn4f_branch2a/moving_variance", "shape": [256], "dtype": "float32"}, {"name": "res4f_branch2b/kernel", "shape": [3, 3, 256, 256], "dtype": "float32"}, {"name": "bn4f_branch2b/gamma", "shape": [256], "dtype": "float32"}, {"name": "bn4f_branch2b/beta", "shape": [256], "dtype": "float32"}, {"name": "bn_conv1/gamma", "shape": [64], "dtype": "float32"}, {"name": "bn4f_branch2b/moving_mean", "shape": [256], "dtype": "float32"}, {"name": "bn_conv1/beta", "shape": [64], "dtype": "float32"}, {"name": "bn_conv1/moving_mean", "shape": [64], "dtype": "float32"}, {"name": "bn_conv1/moving_variance", "shape": [64], "dtype": "float32"}, {"name": "bn4f_branch2b/moving_variance", "shape": [256], "dtype": "float32"}, {"name": "pool1_pad/Pad/paddings", "shape": [4, 2], "dtype": "int32"}, {"name": "res2a_branch2a/kernel", "shape": [1, 1, 64, 64], "dtype": "float32"}, {"name": "res5c_branch2b/kernel", "shape": [3, 3, 512, 512], "dtype": "float32"}, {"name": "bn2a_branch2a/gamma", "shape": [64], "dtype": "float32"}, {"name": "bn2a_branch2a/beta", "shape": [64], "dtype": "float32"}, {"name": "bn2a_branch2a/moving_mean", "shape": [64], "dtype": "float32"}, {"name": "bn2a_branch2a/moving_variance", "shape": [64], "dtype": "float32"}, {"name": "res2a_branch2b/kernel", "shape": [3, 3, 64, 64], "dtype": "float32"}, {"name": "bn2a_branch2b/gamma", "shape": [64], "dtype": "float32"}, {"name": "bn2a_branch2b/beta", "shape": [64], "dtype": "float32"}, {"name": "res4f_branch2c/kernel", "shape": [1, 1, 256, 1024], "dtype": "float32"}, {"name": "bn2a_branch2b/moving_mean", "shape": [64], "dtype": "float32"}, {"name": "flatten_1/strided_slice/stack_1", "shape": [1], "dtype": "int32"}, {"name": "bn2a_branch2b/moving_variance", "shape": [64], "dtype": "float32"}, {"name": "res2a_branch2c/kernel", "shape": [1, 1, 64, 256], "dtype": "float32"}, {"name": "bn2a_branch2c/gamma", "shape": [256], "dtype": "float32"}, {"name": "bn2a_branch2c/beta", "shape": [256], "dtype": "float32"}, {"name": "bn2a_branch2c/moving_mean", "shape": [256], "dtype": "float32"}, {"name": "bn4f_branch2c/gamma", "shape": [1024], "dtype": "float32"}, {"name": "bn2a_branch2c/moving_variance", "shape": [256], "dtype": "float32"}, {"name": "res2a_branch1/kernel", "shape": [1, 1, 64, 256], "dtype": "float32"}, {"name": "bn4f_branch2c/beta", "shape": [1024], "dtype": "float32"}, {"name": "bn2a_branch1/gamma", "shape": [256], "dtype": "float32"}, {"name": "bn2a_branch1/moving_mean", "shape": [256], "dtype": "float32"}, {"name": "bn4f_branch2c/moving_mean", "shape": [1024], "dtype": "float32"}, {"name": "bn2a_branch1/moving_variance", "shape": [256], "dtype": "float32"}, {"name": "res2b_branch2a/kernel", "shape": [1, 1, 256, 64], "dtype": "float32"}, {"name": "bn4f_branch2c/moving_variance", "shape": [1024], "dtype": "float32"}, {"name": "bn2b_branch2a/gamma", "shape": [64], "dtype": "float32"}, {"name": "bn2b_branch2a/beta", "shape": [64], "dtype": "float32"}, {"name": "bn2b_branch2a/moving_mean", "shape": [64], "dtype": "float32"}, {"name": "bn2b_branch2a/moving_variance", "shape": [64], "dtype": "float32"}, {"name": "res2b_branch2b/kernel", "shape": [3, 3, 64, 64], "dtype": "float32"}, {"name": "bn2b_branch2b/gamma", "shape": [64], "dtype": "float32"}, {"name": "bn2b_branch2b/beta", "shape": [64], "dtype": "float32"}, {"name": "bn2b_branch2b/moving_mean", "shape": [64], "dtype": "float32"}, {"name": "bn2b_branch2b/moving_variance", "shape": [64], "dtype": "float32"}, {"name": "res2b_branch2c/kernel", "shape": [1, 1, 64, 256], "dtype": "float32"}, {"name": "res5a_branch2a/kernel", "shape": [1, 1, 1024, 512], "dtype": "float32"}, {"name": "bn5c_branch2b/gamma", "shape": [512], "dtype": "float32"}, {"name": "bn2b_branch2c/gamma", "shape": [256], "dtype": "float32"}, {"name": "bn2b_branch2c/beta", "shape": [256], "dtype": "float32"}, {"name": "bn2b_branch2c/moving_mean", "shape": [256], "dtype": "float32"}, {"name": "bn2b_branch2c/moving_variance", "shape": [256], "dtype": "float32"}, {"name": "res2c_branch2a/kernel", "shape": [1, 1, 256, 64], "dtype": "float32"}, {"name": "bn5a_branch2a/gamma", "shape": [512], "dtype": "float32"}, {"name": "bn2c_branch2a/gamma", "shape": [64], "dtype": "float32"}, {"name": "bn2c_branch2a/beta", "shape": [64], "dtype": "float32"}, {"name": "bn2c_branch2a/moving_mean", "shape": [64], "dtype": "float32"}, {"name": "bn5a_branch2a/beta", "shape": [512], "dtype": "float32"}, {"name": "bn2c_branch2a/moving_variance", "shape": [64], "dtype": "float32"}, {"name": "bn5c_branch2b/beta", "shape": [512], "dtype": "float32"}, {"name": "res2c_branch2b/kernel", "shape": [3, 3, 64, 64], "dtype": "float32"}, {"name": "bn5a_branch2a/moving_mean", "shape": [512], "dtype": "float32"}, {"name": "bn2c_branch2b/gamma", "shape": [64], "dtype": "float32"}, {"name": "bn2c_branch2b/beta", "shape": [64], "dtype": "float32"}, {"name": "bn2c_branch2b/moving_mean", "shape": [64], "dtype": "float32"}, {"name": "bn5a_branch2a/moving_variance", "shape": [512], "dtype": "float32"}, {"name": "bn2c_branch2b/moving_variance", "shape": [64], "dtype": "float32"}, {"name": "res2c_branch2c/kernel", "shape": [1, 1, 64, 256], "dtype": "float32"}, {"name": "bn2c_branch2c/gamma", "shape": [256], "dtype": "float32"}, {"name": "bn2c_branch2c/beta", "shape": [256], "dtype": "float32"}, {"name": "bn2c_branch2c/moving_mean", "shape": [256], "dtype": "float32"}, {"name": "bn2c_branch2c/moving_variance", "shape": [256], "dtype": "float32"}, {"name": "res3a_branch2a/kernel", "shape": [1, 1, 256, 128], "dtype": "float32"}, {"name": "bn3a_branch2a/gamma", "shape": [128], "dtype": "float32"}, {"name": "res5a_branch2b/kernel", "shape": [3, 3, 512, 512], "dtype": "float32"}, {"name": "bn3a_branch2a/beta", "shape": [128], "dtype": "float32"}, {"name": "bn5c_branch2b/moving_mean", "shape": [512], "dtype": "float32"}, {"name": "bn3a_branch2a/moving_mean", "shape": [128], "dtype": "float32"}, {"name": "bn3a_branch2a/moving_variance", "shape": [128], "dtype": "float32"}, {"name": "res3a_branch2b/kernel", "shape": [3, 3, 128, 128], "dtype": "float32"}, {"name": "bn3a_branch2b/gamma", "shape": [128], "dtype": "float32"}, {"name": "bn3a_branch2b/beta", "shape": [128], "dtype": "float32"}, {"name": "bn5a_branch2b/gamma", "shape": [512], "dtype": "float32"}, {"name": "bn3a_branch2b/moving_mean", "shape": [128], "dtype": "float32"}, {"name": "bn3a_branch2b/moving_variance", "shape": [128], "dtype": "float32"}, {"name": "res3a_branch2c/kernel", "shape": [1, 1, 128, 512], "dtype": "float32"}, {"name": "bn5a_branch2b/beta", "shape": [512], "dtype": "float32"}, {"name": "bn5c_branch2b/moving_variance", "shape": [512], "dtype": "float32"}, {"name": "bn3a_branch2c/gamma", "shape": [512], "dtype": "float32"}, {"name": "bn3a_branch2c/beta", "shape": [512], "dtype": "float32"}, {"name": "bn5a_branch2b/moving_mean", "shape": [512], "dtype": "float32"}, {"name": "bn3a_branch2c/moving_mean", "shape": [512], "dtype": "float32"}, {"name": "bn3a_branch2c/moving_variance", "shape": [512], "dtype": "float32"}, {"name": "res3a_branch1/kernel", "shape": [1, 1, 256, 512], "dtype": "float32"}, {"name": "bn5a_branch2b/moving_variance", "shape": [512], "dtype": "float32"}, {"name": "bn3a_branch1/gamma", "shape": [512], "dtype": "float32"}, {"name": "bn3a_branch1/moving_mean", "shape": [512], "dtype": "float32"}, {"name": "bn3a_branch1/moving_variance", "shape": [512], "dtype": "float32"}, {"name": "res3b_branch2a/kernel", "shape": [1, 1, 512, 128], "dtype": "float32"}, {"name": "bn3b_branch2a/gamma", "shape": [128], "dtype": "float32"}, {"name": "bn3b_branch2a/beta", "shape": [128], "dtype": "float32"}, {"name": "bn3b_branch2a/moving_mean", "shape": [128], "dtype": "float32"}, {"name": "res5a_branch2c/kernel", "shape": [1, 1, 512, 2048], "dtype": "float32"}, {"name": "bn3b_branch2a/moving_variance", "shape": [128], "dtype": "float32"}, {"name": "res3b_branch2b/kernel", "shape": [3, 3, 128, 128], "dtype": "float32"}, {"name": "bn3b_branch2b/gamma", "shape": [128], "dtype": "float32"}, {"name": "bn3b_branch2b/beta", "shape": [128], "dtype": "float32"}, {"name": "bn3b_branch2b/moving_mean", "shape": [128], "dtype": "float32"}, {"name": "bn3b_branch2b/moving_variance", "shape": [128], "dtype": "float32"}, {"name": "bn5a_branch2c/gamma", "shape": [2048], "dtype": "float32"}, {"name": "res3b_branch2c/kernel", "shape": [1, 1, 128, 512], "dtype": "float32"}, {"name": "bn3b_branch2c/gamma", "shape": [512], "dtype": "float32"}, {"name": "bn5a_branch2c/beta", "shape": [2048], "dtype": "float32"}, {"name": "bn3b_branch2c/beta", "shape": [512], "dtype": "float32"}, {"name": "bn3b_branch2c/moving_mean", "shape": [512], "dtype": "float32"}, {"name": "bn3b_branch2c/moving_variance", "shape": [512], "dtype": "float32"}, {"name": "bn5a_branch2c/moving_mean", "shape": [2048], "dtype": "float32"}, {"name": "res3c_branch2a/kernel", "shape": [1, 1, 512, 128], "dtype": "float32"}, {"name": "bn3c_branch2a/gamma", "shape": [128], "dtype": "float32"}, {"name": "bn5a_branch2c/moving_variance", "shape": [2048], "dtype": "float32"}, {"name": "bn3c_branch2a/beta", "shape": [128], "dtype": "float32"}, {"name": "bn3c_branch2a/moving_mean", "shape": [128], "dtype": "float32"}, {"name": "bn3c_branch2a/moving_variance", "shape": [128], "dtype": "float32"}, {"name": "res3c_branch2b/kernel", "shape": [3, 3, 128, 128], "dtype": "float32"}, {"name": "bn3c_branch2b/gamma", "shape": [128], "dtype": "float32"}, {"name": "bn3c_branch2b/beta", "shape": [128], "dtype": "float32"}, {"name": "bn3c_branch2b/moving_mean", "shape": [128], "dtype": "float32"}, {"name": "bn3c_branch2b/moving_variance", "shape": [128], "dtype": "float32"}, {"name": "res5a_branch1/kernel", "shape": [1, 1, 1024, 2048], "dtype": "float32"}, {"name": "res3c_branch2c/kernel", "shape": [1, 1, 128, 512], "dtype": "float32"}, {"name": "bn3c_branch2c/gamma", "shape": [512], "dtype": "float32"}, {"name": "bn3c_branch2c/beta", "shape": [512], "dtype": "float32"}, {"name": "res5c_branch2c/kernel", "shape": [1, 1, 512, 2048], "dtype": "float32"}, {"name": "bn3c_branch2c/moving_mean", "shape": [512], "dtype": "float32"}, {"name": "bn3c_branch2c/moving_variance", "shape": [512], "dtype": "float32"}, {"name": "res3d_branch2a/kernel", "shape": [1, 1, 512, 128], "dtype": "float32"}, {"name": "bn5a_branch1/gamma", "shape": [2048], "dtype": "float32"}, {"name": "bn3d_branch2a/gamma", "shape": [128], "dtype": "float32"}, {"name": "bn3d_branch2a/beta", "shape": [128], "dtype": "float32"}, {"name": "bn3d_branch2a/moving_mean", "shape": [128], "dtype": "float32"}, {"name": "bn3d_branch2a/moving_variance", "shape": [128], "dtype": "float32"}, {"name": "res3d_branch2b/kernel", "shape": [3, 3, 128, 128], "dtype": "float32"}, {"name": "bn5a_branch1/moving_mean", "shape": [2048], "dtype": "float32"}, {"name": "bn3d_branch2b/gamma", "shape": [128], "dtype": "float32"}, {"name": "bn3d_branch2b/beta", "shape": [128], "dtype": "float32"}, {"name": "bn5a_branch1/moving_variance", "shape": [2048], "dtype": "float32"}, {"name": "bn3d_branch2b/moving_mean", "shape": [128], "dtype": "float32"}, {"name": "dense_1/kernel", "shape": [100352, 8], "dtype": "float32"}, {"name": "bn3d_branch2b/moving_variance", "shape": [128], "dtype": "float32"}, {"name": "res3d_branch2c/kernel", "shape": [1, 1, 128, 512], "dtype": "float32"}, {"name": "bn3d_branch2c/gamma", "shape": [512], "dtype": "float32"}, {"name": "bn3d_branch2c/beta", "shape": [512], "dtype": "float32"}, {"name": "bn3d_branch2c/moving_mean", "shape": [512], "dtype": "float32"}, {"name": "bn3d_branch2c/moving_variance", "shape": [512], "dtype": "float32"}, {"name": "res4a_branch2a/kernel", "shape": [1, 1, 512, 256], "dtype": "float32"}, {"name": "bn4a_branch2a/gamma", "shape": [256], "dtype": "float32"}, {"name": "res5b_branch2a/kernel", "shape": [1, 1, 2048, 512], "dtype": "float32"}, {"name": "bn4a_branch2a/beta", "shape": [256], "dtype": "float32"}, {"name": "bn4a_branch2a/moving_mean", "shape": [256], "dtype": "float32"}, {"name": "bn4a_branch2a/moving_variance", "shape": [256], "dtype": "float32"}, {"name": "res4a_branch2b/kernel", "shape": [3, 3, 256, 256], "dtype": "float32"}, {"name": "bn4a_branch2b/gamma", "shape": [256], "dtype": "float32"}, {"name": "bn4a_branch2b/beta", "shape": [256], "dtype": "float32"}, {"name": "bn5b_branch2a/gamma", "shape": [512], "dtype": "float32"}, {"name": "bn4a_branch2b/moving_mean", "shape": [256], "dtype": "float32"}, {"name": "bn5c_branch2c/gamma", "shape": [2048], "dtype": "float32"}, {"name": "bn4a_branch2b/moving_variance", "shape": [256], "dtype": "float32"}, {"name": "res4a_branch2c/kernel", "shape": [1, 1, 256, 1024], "dtype": "float32"}, {"name": "bn5b_branch2a/beta", "shape": [512], "dtype": "float32"}, {"name": "bn4a_branch2c/gamma", "shape": [1024], "dtype": "float32"}, {"name": "bn4a_branch2c/beta", "shape": [1024], "dtype": "float32"}, {"name": "bn5b_branch2a/moving_mean", "shape": [512], "dtype": "float32"}, {"name": "bn4a_branch2c/moving_mean", "shape": [1024], "dtype": "float32"}, {"name": "bn4a_branch2c/moving_variance", "shape": [1024], "dtype": "float32"}, {"name": "res4a_branch1/kernel", "shape": [1, 1, 512, 1024], "dtype": "float32"}, {"name": "bn5b_branch2a/moving_variance", "shape": [512], "dtype": "float32"}, {"name": "bn5c_branch2c/beta", "shape": [2048], "dtype": "float32"}, {"name": "bn4a_branch1/gamma", "shape": [1024], "dtype": "float32"}, {"name": "bn4a_branch1/moving_mean", "shape": [1024], "dtype": "float32"}, {"name": "bn4a_branch1/moving_variance", "shape": [1024], "dtype": "float32"}, {"name": "res4b_branch2a/kernel", "shape": [1, 1, 1024, 256], "dtype": "float32"}, {"name": "bn4b_branch2a/gamma", "shape": [256], "dtype": "float32"}, {"name": "bn4b_branch2a/beta", "shape": [256], "dtype": "float32"}, {"name": "bn4b_branch2a/moving_mean", "shape": [256], "dtype": "float32"}, {"name": "res5b_branch2b/kernel", "shape": [3, 3, 512, 512], "dtype": "float32"}, {"name": "bn4b_branch2a/moving_variance", "shape": [256], "dtype": "float32"}, {"name": "res4b_branch2b/kernel", "shape": [3, 3, 256, 256], "dtype": "float32"}, {"name": "bn4b_branch2b/gamma", "shape": [256], "dtype": "float32"}, {"name": "bn4b_branch2b/beta", "shape": [256], "dtype": "float32"}, {"name": "bn4b_branch2b/moving_mean", "shape": [256], "dtype": "float32"}, {"name": "bn4b_branch2b/moving_variance", "shape": [256], "dtype": "float32"}, {"name": "bn5b_branch2b/gamma", "shape": [512], "dtype": "float32"}, {"name": "res4b_branch2c/kernel", "shape": [1, 1, 256, 1024], "dtype": "float32"}, {"name": "bn5c_branch2c/moving_mean", "shape": [2048], "dtype": "float32"}, {"name": "bn4b_branch2c/gamma", "shape": [1024], "dtype": "float32"}, {"name": "bn5b_branch2b/beta", "shape": [512], "dtype": "float32"}, {"name": "bn4b_branch2c/beta", "shape": [1024], "dtype": "float32"}, {"name": "dense_1/bias", "shape": [8], "dtype": "float32"}, {"name": "bn4b_branch2c/moving_mean", "shape": [1024], "dtype": "float32"}, {"name": "bn4b_branch2c/moving_variance", "shape": [1024], "dtype": "float32"}, {"name": "bn5b_branch2b/moving_mean", "shape": [512], "dtype": "float32"}, {"name": "res4c_branch2a/kernel", "shape": [1, 1, 1024, 256], "dtype": "float32"}, {"name": "bn4c_branch2a/gamma", "shape": [256], "dtype": "float32"}, {"name": "bn5b_branch2b/moving_variance", "shape": [512], "dtype": "float32"}, {"name": "bn4c_branch2a/beta", "shape": [256], "dtype": "float32"}, {"name": "bn5c_branch2c/moving_variance", "shape": [2048], "dtype": "float32"}, {"name": "bn4c_branch2a/moving_mean", "shape": [256], "dtype": "float32"}, {"name": "bn4c_branch2a/moving_variance", "shape": [256], "dtype": "float32"}, {"name": "res4c_branch2b/kernel", "shape": [3, 3, 256, 256], "dtype": "float32"}, {"name": "bn4c_branch2b/gamma", "shape": [256], "dtype": "float32"}, {"name": "bn4c_branch2b/beta", "shape": [256], "dtype": "float32"}, {"name": "bn4c_branch2b/moving_mean", "shape": [256], "dtype": "float32"}, {"name": "bn4c_branch2b/moving_variance", "shape": [256], "dtype": "float32"}, {"name": "res4c_branch2c/kernel", "shape": [1, 1, 256, 1024], "dtype": "float32"}, {"name": "res5b_branch2c/kernel", "shape": [1, 1, 512, 2048], "dtype": "float32"}, {"name": "bn4c_branch2c/gamma", "shape": [1024], "dtype": "float32"}, {"name": "bn4c_branch2c/beta", "shape": [1024], "dtype": "float32"}, {"name": "bn4c_branch2c/moving_mean", "shape": [1024], "dtype": "float32"}, {"name": "bn4c_branch2c/moving_variance", "shape": [1024], "dtype": "float32"}, {"name": "res4d_branch2a/kernel", "shape": [1, 1, 1024, 256], "dtype": "float32"}, {"name": "bn5b_branch2c/gamma", "shape": [2048], "dtype": "float32"}, {"name": "bn4d_branch2a/gamma", "shape": [256], "dtype": "float32"}, {"name": "bn4d_branch2a/beta", "shape": [256], "dtype": "float32"}, {"name": "bn4d_branch2a/moving_mean", "shape": [256], "dtype": "float32"}, {"name": "bn5b_branch2c/beta", "shape": [2048], "dtype": "float32"}, {"name": "bn4d_branch2a/moving_variance", "shape": [256], "dtype": "float32"}, {"name": "res4d_branch2b/kernel", "shape": [3, 3, 256, 256], "dtype": "float32"}, {"name": "bn5b_branch2c/moving_mean", "shape": [2048], "dtype": "float32"}, {"name": "bn4d_branch2b/gamma", "shape": [256], "dtype": "float32"}, {"name": "bn4d_branch2b/beta", "shape": [256], "dtype": "float32"}, {"name": "bn4d_branch2b/moving_mean", "shape": [256], "dtype": "float32"}, {"name": "bn5b_branch2c/moving_variance", "shape": [2048], "dtype": "float32"}, {"name": "bn4d_branch2b/moving_variance", "shape": [256], "dtype": "float32"}, {"name": "res4d_branch2c/kernel", "shape": [1, 1, 256, 1024], "dtype": "float32"}, {"name": "bn4d_branch2c/gamma", "shape": [1024], "dtype": "float32"}, {"name": "bn4d_branch2c/beta", "shape": [1024], "dtype": "float32"}, {"name": "bn4d_branch2c/moving_mean", "shape": [1024], "dtype": "float32"}, {"name": "bn4d_branch2c/moving_variance", "shape": [1024], "dtype": "float32"}, {"name": "res4e_branch2a/kernel", "shape": [1, 1, 1024, 256], "dtype": "float32"}, {"name": "bn4e_branch2a/gamma", "shape": [256], "dtype": "float32"}, {"name": "bn4e_branch2a/beta", "shape": [256], "dtype": "float32"}, {"name": "res5c_branch2a/kernel", "shape": [1, 1, 2048, 512], "dtype": "float32"}, {"name": "bn4e_branch2a/moving_mean", "shape": [256], "dtype": "float32"}, {"name": "bn4e_branch2a/moving_variance", "shape": [256], "dtype": "float32"}, {"name": "res4e_branch2b/kernel", "shape": [3, 3, 256, 256], "dtype": "float32"}, {"name": "bn4e_branch2b/gamma", "shape": [256], "dtype": "float32"}, {"name": "bn4e_branch2b/beta", "shape": [256], "dtype": "float32"}, {"name": "bn4e_branch2b/moving_mean", "shape": [256], "dtype": "float32"}, {"name": "bn5c_branch2a/gamma", "shape": [512], "dtype": "float32"}, {"name": "bn4e_branch2b/moving_variance", "shape": [256], "dtype": "float32"}, {"name": "res4e_branch2c/kernel", "shape": [1, 1, 256, 1024], "dtype": "float32"}, {"name": "bn5c_branch2a/beta", "shape": [512], "dtype": "float32"}, {"name": "bn4e_branch2c/gamma", "shape": [1024], "dtype": "float32"}, {"name": "bn4e_branch2c/beta", "shape": [1024], "dtype": "float32"}]}]}